ann.pth (torch, 573008 bytes, 8 tensors)

fc1.weight f4 [256, 40]
00000000: 03e2 9a3d 46d9 033d edb7 b43d fb25 bd3d
00000010: b175 88bd 6646 0bbe 83d7 d93d 2ff6 eabd
00000020: 7fc8 9cbd 915b e5bd 63dd c13d 4750 ffbd
00000030: 6c35 fb3d f09b 1a3e c4e2 1b3e f6ba e9bc
00000040: 9d30 adbd b818 573d efab eb3c 3eb8 08bd
00000050: d27e f03d 2218 21bd 31c9 91bd 988b e43c
00000060: ac38 8a3d 5325 00be f03e 5cbd 3429 dcbd
00000070: a6de e4bd 8300 9cbd 5dcb 21be 05f0 073e
00000080: b5af 89bd 5cd1 a13d d8ab 18be b4ac 18be
00000090: 5018 f63c ceec a73d 1806 08be aaa8 dcbd
000000a0: 68ed 253d 0649 fe3d 44f6 3e3d 67a9 93bd
000000b0: f076 bfbc 95a1 1fbe c590 01be c0c1 9a3c
000000c0: 6a37 95bd 7178 a2bd f2cf b33d fbdb 05be
000000d0: e041 c93b f3fd 003e f127 f6bd a8f8 f5bd
000000e0: c4d3 073d a06a 573d 07e6 1b3e 405a f63b
000000f0: c57b 8abd c026 09bb 4444 863d 288c 08be
00000100: 0082 8b39 b3ff 13be b819 0abe 5022 6f3d
00000110: dc1f 1dbe ee25 04be 7ca5 0abe 1457 4ebd
00000120: 756b 023e 7e8b 973d 68f7 d4bd 90f8 febc
00000130: ae96 10bd 800e 81bb f791 083e 56c2 e13d
00000140: 2101 78bd f79f 8e3d 438c 0e3e e26f c9bc
00000150: b84b 1ebe ec65 ebbd 539c a03d bab8 21be
00000160: a916 e03d 3c88 c33d a92d 9ebd 2f5d 863d
00000170: bf7e fb3d e4d7 863d e211 1fbe 0f64 a03d
00000180: b794 033d e62d 433d ae83 0f3e aa6d 0e3e
00000190: 9bee 8b3d 3270 723d e092 8a3d 22ab 92bd
000001a0: 3816 a73d f500 bbbd 1f8e c4bd c8ff 2f3d
000001b0: f438 f23d 38a1 c6bd f734 d0bd fbe4 07be
000001c0: ff11 21bd b062 14be ee7a d23d 3d13 18be
000001d0: 54c0 1c3e cc5a e8bd 71c4 963d cef2 8a3d
000001e0: 46d4 473d f899 0ebe f38e 19bd b295 f93d
000001f0: e698 08be 385f 49bd f4e6 29be 02fe c0bd
00000200: caf0 a33d 0f5e cdbc e093 843d 06e2 87bb
00000210: 078e dbbd df55 d3bc ba32 edbc e578 e4bb
00000220: ab4f b5bd bb61 82bd 800c e63d 88c1 e6bd
00000230: 3f94 58bd ab2e bc3d 92f5 ba3d 312e 273d
00000240: 3179 243d e1f4 b8bd 718c 153d f1b3 9c3c
00000250: 87b0 6dbd 053c 30be a8ab 21bd a3bd f1bc
00000260: cc52 a03d 2d42 0cbe 7e98 223e e390 e6bc
00000270: f016 8cbd e434 12bd c390 53bd 3f28 b53d
00000280: eac5 db3d 4777 19be 7a22 9f3d 1aff 10be
00000290: b322 03be 76be fabd ac33 523d cc66 683d
000002a0: 603d 333d 32fb 60bd ce91 b2bd 504f 823d
000002b0: a782 0ebe 62a2 d83d 10af e0bd ecb0 4d3d
000002c0: ab72 85bd d4c1 3c3d 4c73 16be 2616 f43d
000002d0: 0084 763c f070 6fbd 0e5e 17be 80fe bd3a
000002e0: 37e4 d4bd e474 75bd 3009 c13c 40e9 083d
000002f0: 70b7 ddbc c0d9 3e3c 76bf c03d b85e 673d
00000300: a231 03be 54a0 0abe b540 0bbe e29c b33d
00000310: be74 61bd e8cf a83d 3d29 89bd 587a 833d
00000320: f5f3 033e a608 053e ccb6 cabc f438 84bd
00000330: 0ba3 3e3d 2355 ea3d cec0 a6bd f82b 31be
00000340: 321b 10be da3a dbbc 5e2b f3bd ce1a b7bd
00000350: 3f3d 0abd 4515 b93d 90e2 b43c e69d a3bc
00000360: c64d cf3c 4214 31bd 0069 e6bd f3ca da3c
00000370: 6b4f f43b 51dd 4f3d 9efe 143e ef7e fa3d
00000380: 8210 a83d 67a2 fe3c 3d36 0cbe 4ef7 3fbe
00000390: afaf b3bc 93bc d03d 17e9 473d 784c 603d
000003a0: dbd4 2dbd c21a 79bb d6c9 47bd 4c74 0abd
000003b0: 379f dbbd 6b82 843d 5fce d53d 9ad1 c6bc
000003c0: 4598 eebc fe2f bbbb ce72 6abc 3f3b 2c3c
000003d0: 24e3 003d b70b 033e 25a6 813d 230a 0a3d
000003e0: aebb b9bd 087d 8bbd 44d6 393e 927a 213c
000003f0: 1e66 2bbd 3d1e 0ebe fe5c 89bc d3c8 5d3d
0.075626396 0.03218963 0.088241436 0.0923576 -0.06663073 -0.13601074 0.10636809 -0.11472737
-0.07655429 -0.111991055 0.09466054 -0.124664836 0.12266049 0.15098548 0.15223223 -0.028531533
-0.08456538 0.052513808 0.028768508 -0.033378832 0.11742939 -0.039329655 -0.07118452 0.027898595
0.067490906 -0.12514238 -0.05377096 -0.10750046 -0.11175279 -0.07617285 -0.15800233 0.13275154
-0.067229666 0.0790126 -0.14909303 -0.14909631 0.03004089 0.08199464 -0.13283575 -0.107743576
0.04050961 0.12416272 0.046621576 -0.07210045 -0.023372144 -0.15588982 -0.12652881 0.018891215
-0.0728596 -0.079331286 0.08779897 -0.13072197 0.006141886 0.12596874 -0.12019337 -0.12010318
0.03316094 0.05259192 0.15224467 0.007518083 -0.067618884 -0.0020927638 0.065559894 -0.13334715
0.00026609004 -0.1445301 -0.13486373 0.058382332 -0.15344185 -0.12905094 -0.1353969 -0.050376013
0.12736304 0.07399653 -0.103987515 -0.031124383 -0.03529995 -0.003938496 0.13336931 0.11023395
-0.06054795 0.069641046 0.13920693 -0.024589483 -0.15458572 -0.114940494 0.078423165 -0.15793124
0.10941822 0.09547469 -0.07723553 0.06560742 0.12280034 0.065841466 -0.15534166 0.07831585
0.032124247 0.047651194 0.14015076 0.13909021 0.0683262 0.05918903 0.067662954 -0.07161547
0.08158535 -0.09131042 -0.0959742 0.04296854 0.11827269 -0.09698719 -0.10166352 -0.13270943
-0.039323803 -0.14490771 0.10277353 -0.14851089 0.15307742 -0.11345443 0.07361687 0.067845926
0.048786424 -0.13925922 -0.037489843 0.12186755 -0.13339576 -0.049163073 -0.16592008 -0.09423448
0.08004911 -0.025069265 0.064735174 -0.004146817 -0.10720449 -0.025797782 -0.028954852 -0.0069724196
-0.08853086 -0.06366297 0.11232853 -0.11267382 -0.052875753 0.09188589 0.0912887 0.040815536
0.04015464 -0.09031082 0.03651089 0.019128771 -0.058029678 -0.17210396 -0.039470345 -0.029509371
0.07828292 -0.13697119 0.15878484 -0.02814526 -0.068403125 -0.03569497 -0.051651727 0.08845567
0.107311085 -0.14986907 0.07770248 -0.14159814 -0.12806205 -0.12243359 0.05131881 0.05673866
0.043759704 -0.05492706 -0.08719216 0.06362784 -0.13917027 0.10577847 -0.109708905 0.050217554
-0.06516012 0.046083286 -0.1469242 0.11918287 0.01504612 -0.058457315 -0.14781973 0.0014495403
-0.10395091 -0.05992593 0.023563951 0.03342557 -0.027065009 0.011648595 0.09411518 0.056486815
-0.12811902 -0.13537723 -0.13598903 0.087701574 -0.055042975 0.0824278 -0.06697319 0.064198196
0.12886031 0.1299158 -0.024745367 -0.064561754 0.04654221 0.1144202 -0.08142243 -0.17301929
-0.14072874 -0.026761461 -0.11873506 -0.089406595 -0.033749815 0.0903726 0.02208069 -0.019972753
0.02530564 -0.04323221 -0.11250496 0.026708102 0.0074557564 0.050748173 0.14550254 0.12231242
0.082062736 0.031083299 -0.13692565 -0.18746683 -0.021934358 0.10192218 0.048806276 0.054760426
-0.042439323 -0.0038010334 -0.04877647 -0.033802316 -0.10723727 0.06470188 0.10439753 -0.024269868
-0.029125342 -0.005712508 -0.014309598 0.010512172 0.03146662 0.12797438 0.06330518 0.033701073
-0.09069 -0.06810957 0.18148142 0.009855883 -0.041845433 -0.13878722 -0.016767975 0.0541466

fc1.bias f4 [256]
00000000: 3a17 263b c649 33bd 2a1a 2cbe d480 8e3c
00000010: a7b1 a9bd 9669 ed3d aaa9 f53d 3743 8dbb
00000020: 66ae 26bd 2855 003e babe c5bd bd89 43bd
00000030: a9fa 713d 7618 083e 3f41 d83d 63af e33d
00000040: a6e7 16bd a3ef 0fbd 4b12 d23b 334b 863d
00000050: eb73 f93d 0ffb 1fbe 03b6 08be fe17 20be
00000060: 40e6 8a3b 04d8 713d 503f 063e 6b67 093e
00000070: 0d95 b9bd 105d 653c 35d2 503d bc6f 42bd
00000080: d5ef 07bd 3c24 eebd 3f7e 093d 4cf9 873d
00000090: b2d6 dabd 7e67 133e c9ba 7dbd 0cec 08be
000000a0: 53a0 8b3d d14c 7c3c e9a7 e13d 6815 893c
000000b0: b547 d2bd 9efa cfbd 2eec 9e3d 2183 cd3d
000000c0: ca29 15be d935 143e a6c7 e6bd 30b7 adbc
000000d0: a498 9a3d 5272 0b3e ed19 98bd 25c6 0f3e
000000e0: f08a 993c c6e7 0dbd 3644 433c c96c 02be
000000f0: 574e c13d c031 bdbc 75f8 2d3d 8fae 5d3d
00000100: b282 d73d 76f1 48bd 9e3e ca3d 481e b1bd
00000110: cc12 8d3c aca4 3f3d dbda 14be 3cf2 b93d
00000120: c8a6 d0bd bc4b ec3c 00cb 8f3d 3502 43bc
00000130: 50ab 59bd 4850 d83d 916f fc3d 7e7a 6ebc
00000140: 2d71 b5bd ac4d 37bd 491f 5f3d c2d7 073e
00000150: 55ad 17be 9c46 1fbe e956 24bb 0579 a03d
00000160: 30af 8dbd 6d77 2ebe d61a 6d3d 8164 46bd
00000170: 4841 aabc c086 d9bd 4adf f23d 274a c33d
00000180: 8eaa 95bd 8d65 1ebd eb3f e53d b0d4 76bd
00000190: 8dc5 723d af46 033d 1158 dcbd 7fd6 da3d
000001a0: 6a49 7b3d caca 8f3d 7fef a93d b1af e83c
000001b0: 46e2 cb3d c76c febd a846 8dbc a4bd e33d
000001c0: 1e0b 8d3d 6173 d63d 3a23 e83d 61a8 8dbd
000001d0: d2af 54bd 969d 1b3d 286a 99bc 9e37 eb3d
000001e0: d569 453d c108 023e 8b50 5d3d 76c6 36bd
000001f0: 7ae0 ec3d 4ce7 bdbc 8e56 2b3d a839 cbbd
00000200: 879d 053d 720e 183e 80e3 e2bd 92cc acbc
00000210: 1946 5f3d 53b6 6c3d 8f97 903d 1e03 913c
00000220: a49f e93d 4988 943d 839a 91bd f253 0dbe
00000230: d5d5 d73d 52a4 a1bd a22c 673d bbe9 fe3d
00000240: 49c7 b33d 4698 143d b626 9d3d 1710 8ebd
00000250: a1d3 e6bb 83b8 0ebe cdf3 8cbd b543 973d
00000260: 0742 8f3d 2aff b23d f035 ebbd 80ba 88ba
00000270: 7803 e83d e8f8 29be d894 13be 904f 6abc
00000280: 2e54 fcbd ba68 d2bd 7166 ebbb be90 6fbb
00000290: 0b3e d23a 9b44 f0bc c14b 0bbe e3c3 a13d
000002a0: ba03 42bd 6f3b 14bd a0c2 c8bb 14a6 f63d
000002b0: fc23 a5bd 76da 3e3d 451e 62bd e6d4 c1bd
000002c0: b384 053e ae70 0abe 132b fe3c ecb3 54bd
000002d0: 9201 cbbd 3c65 dabd 17ae fa3d 5661 0e3e
000002e0: d361 0cbe 2b57 f33c 0be4 c83d 2c6f 323d
000002f0: 082a c93d 6391 863d 8f49 e43d 7963 bf3c
00000300: 6840 e53c cfb6 a8bc da7f aa3d f9d5 883d
00000310: f710 c63d 5047 2ebe ce5b b33c 72a8 873c
00000320: 3230 b83c 9e82 243d 9049 00bd e25e e5bc
00000330: 3796 c73d 3980 aebd 49d2 023d 596f 3fbd
00000340: 68e4 ef3d 9491 07be 6892 b3bd 2c0a fc3d
00000350: 137b 91bd 5ae0 ca3d 1014 15bd ebde 15be
00000360: ab62 913d 84b1 d0bb a3a6 ac3d d86d d23d
00000370: 5765 9e3d 502d aebc b304 ae3d 6c2a 7cbd
00000380: dd02 1a3c 3787 b13d 8ad7 ab3b 8035 c2bb
00000390: d959 45bd 23e6 513c e363 a5bb a2fa cbbd
000003a0: 5da3 e33c 8306 0cbe 959e b33d 1cdc f13c
000003b0: a234 4e3d 1ce5 36bd e322 ac3d 7d41 26bd
000003c0: 9d2a efbd 12ce cebd 7dc6 afbd 56e6 0a3d
000003d0: 6c7a 0abe 16e7 efbd 2f1e c7bd 8758 17be
000003e0: 8c81 e83d fa4d eb3c ac7d 9c3d 7716 563d
000003f0: f594 983d a2fe e33c 441d 02be 8926 aa3c
0.0025343434 -0.043771528 -0.16806856 0.017395414 -0.082858376 0.115924045 0.119952515 -0.004310991
-0.040693663 0.12532485 -0.09655519 -0.04773878 0.05907694 0.13290581 0.1055932 0.11117437
-0.03684201 -0.035140645 0.006410872 0.06557312 0.12180313 -0.15623115 -0.13350682 -0.15634152
0.0042388737 0.0590439 0.1311009 0.13418357 -0.09061632 0.013999239 0.05098172 -0.04746984
-0.033187706 -0.11628005 0.033567663 0.066393465 -0.10685481 0.14394948 -0.06194571 -0.13371295
0.06817689 0.015399174 0.110183544 0.01673384 -0.10267583 -0.10155223 0.077598915 0.100347765
-0.14566723 0.14473666 -0.11268549 -0.021205515 0.07548645 0.13617828 -0.0742682 0.1404043
0.018743008 -0.034644864 0.011918118 -0.1273681 0.0943877 -0.023095012 0.042473275 0.05412155
0.10522975 -0.0490584 0.098752245 -0.08648354 0.017220877 0.046787903 -0.14536612 0.09079406
-0.10188061 0.028844707 0.07021141 -0.011902382 -0.053141892 0.105621874 0.12325967 -0.014555572
-0.08859477 -0.044751808 0.054473195 0.13265899 -0.14812215 -0.15554279 -0.0025076217 0.07835583
-0.0691818 -0.17037745 0.05788692 -0.04843569 -0.020783082 -0.10621405 0.11858995 0.09535628
-0.07307921 -0.038671065 0.11193832 -0.06026143 0.05927043 0.03204983 -0.10758985 0.10685443
0.06134931 0.07021101 0.082976334 0.028404089 0.099552676 -0.124230914 -0.017245606 0.111201555
0.06886886 0.104712255 0.11334844 -0.06916881 -0.051925488 0.037992083 -0.018727377 0.114852175
0.048196632 0.12698652 0.05403189 -0.04462286 0.11566253 -0.02318158 0.04183059 -0.099231064
0.032620933 0.1484926 -0.110785484 -0.02109364 0.05451021 0.057791065 0.070601575 0.017701682
0.11407402 0.07252557 -0.07109549 -0.13801554 0.10538832 -0.0789267 0.05643905 0.12446924
0.08778245 0.03627803 0.07673399 -0.06936663 -0.007044271 -0.13937573 -0.06882439 0.07385961
0.069950156 0.08740075 -0.11484897 -0.0010431558 0.113287866 -0.16598856 -0.14412248 -0.014301196
-0.123207435 -0.10273881 -0.007183843 -0.003655478 0.0016040219 -0.029329589 -0.13603117 0.078986906
-0.047366835 -0.036189493 -0.0061267167 0.12043396 -0.08063504 0.04659506 -0.05520465 -0.09464435
0.13038902 -0.13519546 0.031026399 -0.0519294 -0.09912409 -0.1066384 0.12240236 0.13904318
-0.13709192 0.02970465 0.09809121 0.043563053 0.0982247 0.06570699 0.11146843 0.023362862
0.027984813 -0.020594982 0.08325167 0.06681437 0.096712045 -0.17019391 0.021894362 0.016559813
0.022483919 0.04016363 -0.031320155 -0.027999345 0.09745448 -0.0852055 0.031938825 -0.04673705
0.11713487 -0.13239127 -0.08768159 0.12306628 -0.07103553 0.09906073 -0.036396086 -0.14635818
0.070988975 -0.0063688178 0.08430221 0.10274857 0.07734173 -0.021261841 0.0849699 -0.061563894
0.009400097 0.08668368 0.0052442 -0.005926788 -0.04818139 0.0128112165 -0.005047308 -0.09959914
0.027787859 -0.13674359 0.087704815 0.029523902 0.050343163 -0.04465209 0.084050916 -0.0405898
-0.1167805 -0.100978985 -0.085827805 0.03391107 -0.13523263 -0.11713998 -0.09722554 -0.14779864
0.11352834 0.028723706 0.076411575 0.052267518 0.07450286 0.02783138 -0.12706476 0.020770328

fc2.weight f4 [256, 256]
00000000: 50ea 5fbd c057 6e3c dc7c f7bc a1c7 ac3c
00000010: 80e3 1f3d 360d 2f3d 5677 133d 47e9 a9bc
00000020: 4862 17bd 5184 1fbd b07c 363c 00a1 583b
00000030: 8522 4cbd d928 903c bfed a0bc 2fc7 6fbd
00000040: e843 c2bc 5871 623d b5dc 51bd 96e0 66bc
00000050: ee30 bc3c da08 203d 8077 83bc a096 70bc
00000060: 08bf e9bc eb20 7b3c a66f 71bc d5af 693d
00000070: bcf8 00bd 507d 8dbc 24a9 803c f23b 773d
00000080: 50ad c03b 4069 3bbc ea45 313d cafb 5c3d
00000090: 007b 433a 4a72 d4bc 8ad3 27bd 5ca5 60bd
000000a0: 3be5 3ebd 7fd8 bf3c 5de7 debc be93 7dbd
000000b0: cc0c e63c daac 7e3d 98b0 35bd 0bc8 da3c
000000c0: 80cf 21bb 8ea9 493d 1c88 0a3d d04d 63bd
000000d0: 8f5b 4bbc bcb3 9abc d87a c73c d36c db3b
000000e0: 1828 c6bc b214 1fbd 4c2d 9a3c 2a9d 5e3d
000000f0: da64 4dbd d003 ad3c a4c8 b3bc db26 e43c
00000100: 994b 603d f033 9bbc dead c8bb e4be 413d
00000110: 20f0 e73c dae4 a03c a0e0 113c d43d 443d
00000120: 2281 273d 7420 02bc 4ee8 143d 008e 86b9
00000130: 209c 9f3b 1971 72bc 19d6 12bc b18a 70bd
00000140: 0656 2ebd 6494 66bd 3064 6bbd 999f 9dbc
00000150: 8005 c93a 40ed ba3b 7684 8f3b 4651 44bd
00000160: 2083 1e3d 44e8 bfbc 76aa 393c 0f3f 29bd
00000170: 289b 493d 709d 7bbc f5e7 5f3d a76d a0bc
00000180: 409e a1bb 7c99 a63c 967e 2d3d 48ae 433c
00000190: 4696 c23c 5039 993c 0e02 323d abd6 423c
000001a0: 2c21 efbc 601e 103d ef67 10bc 54bf f43c
000001b0: 3704 4cbc 86cb 76bd 4007 d9bc d0dc 6d3d
000001c0: ef18 843c 222e 39bd 2686 df3a 0a9d 2b3d
000001d0: d00f 72bd 5708 09bd 287b f5bc 226f 003d
000001e0: d1a9 473d c7b9 e1bc 4748 27bd 589e ec3c
000001f0: a65a 103d 20c8 6ebc 4ebe 80bd 546b 7abd
00000200: 12a8 e4bc e444 40bd 848c 44bd 1a6a 973b
00000210: 7038 f63c fdf8 393d cd3b 553c ab29 55bd
00000220: c5b0 11bc 0722 313d 84f6 cfbc b876 0f3c
00000230: 7539 e2bc 3cad fdbc 2769 353d 03d9 3a3c
00000240: 4b26 86bc fb69 4b3b d08c 5c3d f429 b63c
00000250: 5a10 013d 52a5 1fbd 0626 053d 931c 603c
00000260: 03ad 8e3c c0a2 dfbc d273 5bbd da1e 2cbd
00000270: 8442 0dbd 2458 3bbd 00ff bab9 b0b0 62bd
00000280: 0cfa 73bd d8e0 09bd 28cc 24bd eeb3 133d
00000290: 0c71 95bc 6836 063d ce06 45bd 421d d13b
000002a0: ca03 39bd c0af 473d dc6a 5fbd ddfb 963c
000002b0: 8483 443d 907a 6cbd 9610 55bd c2d2 30bd
000002c0: 6a01 1c3d 5e36 6b3d 20a3 e0bc 4c7d 603d
000002d0: 744e 683d 6ceb 403d a749 febb 3b9b 7cbd
000002e0: 30cf d93c bfa5 833b c013 6d3d 0ec2 003d
000002f0: 4cb5 ebbc bdba abbc a8af 86ba 2b38 0ebd
00000300: b71c 043d 599a c83c cb3d 5e3c 574d afbc
00000310: 25f1 c93c b4b7 203d 6afb 3a3c 3501 c2bc
00000320: 4701 06bd 64f7 483d 5a71 4c3d b6bb 29bd
00000330: 09aa 06bc d0c2 cdbc aaa9 3bbd b293 70bd
00000340: ee4b 38bd de76 403d a0e7 043c 8598 df3b
00000350: 62b8 10bd ba65 94bc d0ed 613d 805d 21bd
00000360: 573d 9bbc 436e 1cbd 25cc 41bd 6a59 d03b
00000370: 4b11 913c be43 20bd 23fa bfbc 2e4c 613d
00000380: 7dbb fbbb 8c8c c5bb c21d bdbc da13 073d
00000390: f07b debc 4ffb a03c 6077 4e3c 38b8 113d
000003a0: a0b3 9b3c a8b9 073d d221 383d 9581 b6bc
000003b0: 2f62 43bd f670 733d e9c1 2d3b b469 9b3c
000003c0: a8f3 77bd 204b 5b3c eea6 06bd 7971 5bbd
000003d0: d864 7abd 3e0d 0bbd c046 5a3b 08f7 463c
000003e0: b560 69bd 728c 45bd d3af 7cbc 57d8 203d
000003f0: 67d7 d139 2da5 c5bc ca0b 17bd dd13 9a3c
-0.054666817 0.014547288 -0.030210905 0.021091284 0.03903532 0.04273721 0.03600248 -0.020741118
-0.036958963 -0.038944546 0.011138126 0.0033054948 -0.049837608 0.017597603 -0.019644616 -0.058539566
-0.02371402 0.055283874 -0.051235873 -0.014091631 0.02297255 0.03907094 -0.016048193 -0.014684349
-0.028533474 0.0153276725 -0.014736092 0.057052452 -0.03148721 -0.017271668 0.015705653 0.060359903
0.0058800355 -0.011438668 0.043279566 0.053951062 0.0007456988 -0.025933404 -0.040973224 -0.0548452
-0.04660533 0.023418663 -0.027209932 -0.061908476 0.028082274 0.062176563 -0.044357866 0.026706716
-0.002469033 0.049233966 0.03382121 -0.05549413 -0.012411966 -0.018884532 0.024350569 0.0066963225
-0.02418904 -0.038838096 0.018820427 0.054349102 -0.050145008 0.021119982 -0.021946259 0.027850559
0.054759596 -0.018945664 -0.006124242 0.047301188 0.028312743 0.019640375 0.008903652 0.047910526
0.040894635 -0.007942308 0.036354356 -0.0002566427 0.0048709065 -0.014797472 -0.008962178 -0.058726016
-0.042562507 -0.05629386 -0.057468593 -0.019241141 0.0015336722 0.005704552 0.0043798042 -0.04792907
0.03869927 -0.023426183 0.011332145 -0.041319903 0.049220234 -0.01535736 0.05466457 -0.019583536
-0.004932195 0.020336859 0.04235705 0.011943407 0.023753297 0.018704087 0.04345899 0.011892001
-0.029190622 0.035185218 -0.008813842 0.029876389 -0.012452177 -0.06025269 -0.026492715 0.05807191
0.01612517 -0.04521001 0.0017053529 0.04189781 -0.05909711 -0.03345522 -0.029965952 0.031355985
0.048745934 -0.027554406 -0.040840413 0.028884098 0.0352427 -0.014574081 -0.06286298 -0.061137512
-0.027912173 -0.0469407 -0.04798557 0.0046208026 0.030056208 0.04540347 0.013014746 -0.05204169
-0.008892243 0.04324534 -0.025386102 0.008756332 -0.027615288 -0.030966394 0.044289734 0.011404279
-0.016375681 0.003103851 0.053845227 0.022236802 0.031509735 -0.03897602 0.032506965 0.013678688
0.017416483 -0.027299285 -0.05357725 -0.04202161 -0.034487262 -0.045738354 -0.00035666674 -0.055344284
-0.059564635 -0.033661693 -0.04023376 0.036060266 -0.018242382 0.03276673 -0.048102193 0.0063816616
-0.04516963 0.048751593 -0.05454527 0.018430645 0.047976986 -0.057734072 -0.05201777 -0.043169744
0.038087286 0.057424895 -0.027421534 0.054806992 0.056715444 0.047099516 -0.007760245 -0.061671477
0.026588053 0.004017561 0.057880163 0.031435065 -0.028772973 -0.020963067 -0.0010275738 -0.034721535
0.032253947 0.024487661 0.013564537 -0.021399183 0.02465112 0.039237693 0.011412481 -0.023682216
-0.032716062 0.049064055 0.049912788 -0.04143878 -0.0082192505 -0.025117308 -0.0458161 -0.058734603
-0.044994287 0.04698836 0.008111864 0.0068236017 -0.03533209 -0.018114913 0.055158436 -0.03939581
-0.018950148 -0.03819109 -0.047313828 0.0063583152 0.017708441 -0.039127104 -0.023434704 0.05500429
-0.0076822625 -0.0060287174 -0.023085479 0.032977916 -0.027158707 0.019651083 0.012601703 0.035576075
0.01900655 0.03313604 0.04495413 -0.022278586 -0.047701057 0.0594339 0.0026513285 0.018971302
-0.060535103 0.01338461 -0.03287404 -0.053575013 -0.06113133 -0.033948176 0.003330633 0.012143858
-0.056976993 -0.048229642 -0.015422779 0.039268818 0.00040024074 -0.024126614 -0.036876477 0.0188083

fc2.bias f4 [256]
00000000: 99fe 9dbc 9059 afbc e406 0dbd 043e 0cbd
00000010: 377f 303b 34e3 fdbc b491 63bd 2911 92bc
00000020: f89e 593c 325e c73c 3c25 673d 6ed6 70bd
00000030: b3e5 17bc c21d 52bd 1bca 91bc c87e 87bc
00000040: dced d63b 94c8 8fbc f90e 78bd 00bf cebb
00000050: a5aa 41bd 005d d6b9 47f4 5cbc 40d3 44ba
00000060: 76ba 1fbd c9cc b1bc 3818 083d c202 163d
00000070: 33dd 2ebd 3e58 c7bc a1ed 08bd baa8 57bd
00000080: e8dc 3fbd 4508 083b a5c2 593d 69f3 ab3b
00000090: e9d4 c33c 2563 103c 3c0f 09bd fbb1 0abd
000000a0: 348e 2abd e725 66bd 00a6 ed3c b69f 333d
000000b0: 9147 2139 9cb3 83bc c596 8d3c 7cba 93bb
000000c0: 25e6 523d b213 e9bc bc09 1fbd 541b 1fbd
000000d0: 1a86 c93c a88e 63bd a8e7 76bc 4d94 83bb
000000e0: 3492 c63c ead3 a63c 003c f0bb dcc5 97b9
000000f0: 00c5 d5bc ad18 46bb 5c68 25bd 2a54 21bd
00000100: 6f7a 4fba 02c1 24bd 3c5c 4fbd 8efb 46bd
00000110: 964f 8cbb 93a3 4e3d 56d7 08bd 280b 54bd
00000120: 63f8 523d f49c 5ebd 033c a1bc 0205 1a3d
00000130: b00f 65bd 0286 62bc df7f 5c3d e06c 093d
00000140: 3702 2f3d ef30 cd3c d892 95bc 446a 353d
00000150: bcd1 87bc bdab dd3c 6746 8f3c b59f 11bd
00000160: 53a7 7a3c 4aae 6fbd 2d66 82bd e45b cd3b
00000170: 3c11 48bc a981 39bd 3981 57bd 50bc 16bd
00000180: d02d adbc e4ef 5bbd d47e 36bc 27a8 413d
00000190: 8d25 52bb 3bbf e43c 9a9b abbb ee85 243d
000001a0: 2e0c 243c 7667 b5bc fd0b 213d 9af7 2e3d
000001b0: f43c 67bd f573 59bc b8a9 37bd d97b 15bb
000001c0: 0649 86bd 1294 c1bc 0032 9f3b b616 22bd
000001d0: dc9d 00bd 694d 343c 487a 53bd daf2 4d3d
000001e0: 2b25 4a3d 2dee 4c3c 2136 3c3b 86f6 47bc
000001f0: d34f 323d fd26 d03a b0a5 4ebc c49d b73c
00000200: 23af c43c 8230 413d d272 0f3d 91fb 053d
00000210: c47b 0b3c 8099 5ebc 6a2d 99bc 8c29 87bc
00000220: 7a80 edbc ae7f 573b c5c9 2c3d 0114 7bbd
00000230: 097c b03c f521 e93c 33e7 5dbd bae4 19bd
00000240: 85b7 36bb 5cd1 b0bc ec23 a2bb addf 5f3d
00000250: 57d6 b53c 20f0 0bbd 2682 293c e334 1a3d
00000260: 222d acbc 454c e5bc ef38 31bd 65bf e93b
00000270: 8a60 393d 8cb8 bcbc ca7d f73c 999b 8b3a
00000280: eabc 0d3c 7fe1 80bd a0f2 40bd 5080 3ebd
00000290: ccd0 b8bc 6cd2 6f3d 7e77 473c a8a6 31bd
000002a0: d2b8 d9ba aa21 46bd 979c 1abb 8ac7 1a3d
000002b0: 6e69 473c 4c7c d13c bf6d 5dbd 5ca4 2a3d
000002c0: 8836 4bbc e256 70bd 0fd4 1a3d 90e7 7bbd
000002d0: cf5a 3abd d8c2 32bc 9ab4 0abd 00eb 0c3d
000002e0: a63b 46bc ecac 71bd ba17 5c3d 1845 a2bc
000002f0: dc5a 303d bae8 c73c 42f4 aa3c a1d9 78bd
00000300: aa03 3f3d 4bab bd3c 1368 073d b097 b3bb
00000310: a875 92bc 936c edbc b9c6 47bc cbd3 80bd
00000320: d2f0 1a3d 349f 8f3c 8db6 053c 6fb7 39bd
00000330: 5b84 c13a 9d9a 98bc 3aa8 27bd e4ce 1d3d
00000340: a329 283d 551e 46bd 1587 5bbd 5620 66bd
00000350: 1c80 77bd 7d07 6fbd 144b f7bc f668 64bd
00000360: 18b7 f2bc 39dc 033d 4dea 483d 67cb 263d
00000370: 190e 04bd 0491 6bbd b787 c5bc 71b9 d93b
00000380: ccb1 e33c 8715 cdbb 99b8 083c 3cd8 17bd
00000390: f4c6 043d ece4 b13c f80d a1bc 7296 6fbd
000003a0: d157 453d 6085 debc 1ca8 20bd 4a24 c9bc
000003b0: e4e1 5abd b77b e3bc f80b 153c dd67 2fbc
000003c0: f75b 57bd 3e07 483d dfd1 ea3b 15d4 543d
000003d0: ff8f 83bc 0208 6ebc 1b18 c83c bec8 203d
000003e0: 1416 37bc f254 5fbd 1807 97bc 35a1 203d
000003f0: f7c1 81bd 29ff fa3c 8011 003a 5169 31bd
-0.01928644 -0.021405011 -0.0344304 -0.03423883 0.0026931295 -0.030992128 -0.055558875 -0.017830448
0.01328253 0.024336908 0.056431994 -0.058798246 -0.009271073 -0.05129791 -0.017796567 -0.016539946
0.0065591168 -0.017551698 -0.060561154 -0.00630939 -0.04728188 -0.0004088655 -0.013485975 -0.00075082853
-0.038996182 -0.021704094 0.03322622 0.036623724 -0.04269142 -0.02433407 -0.033429746 -0.052651145
-0.046841532 0.0020756882 0.053164143 0.0052475226 0.023905234 0.0088127 -0.033461794 -0.03386114
-0.04163952 -0.05618849 0.029009819 0.043853484 0.00015380817 -0.016076855 0.017283807 -0.0045083147
0.051489014 -0.028451774 -0.038827643 -0.03884442 0.024600077 -0.05555597 -0.01506988 -0.0040154816
0.024239637 0.02036472 -0.0073313713 -0.0002894838 -0.026094913 -0.003022711 -0.040382728 -0.039386906
-0.00079146674 -0.04022313 -0.05062507 -0.048579745 -0.0042819483 0.050448965 -0.033408485 -0.051768452
0.05150641 -0.0543489 -0.019681936 0.037602432 -0.055923164 -0.013825895 0.053832885 0.033551097
0.04272672 0.025047747 -0.018258497 0.044290796 -0.016579501 0.02705943 0.017489625 -0.0355527
0.015298682 -0.058515824 -0.06367145 0.0062670577 -0.01221114 -0.04528967 -0.05261347 -0.036800683
-0.02114001 -0.053695574 -0.011138637 0.047279503 -0.003206584 0.027923217 -0.005237055 0.040166788
0.0100126695 -0.02214406 0.039318074 0.0427166 -0.056454614 -0.013272275 -0.04483959 -0.0022809415
-0.06556897 -0.023630176 0.0048582554 -0.03957244 -0.031400546 0.011004784 -0.05163029 0.05028043
0.049351852 0.012507957 0.0028718787 -0.012204772 0.043533158 0.001588076 -0.012612745 0.022414096
0.024009293 0.0471654 0.03502161 0.032710616 0.008513395 -0.013586402 -0.018698413 -0.016499303
-0.028991926 0.00328825 0.04218461 -0.061298374 0.02154352 0.028458575 -0.054175567 -0.037571646
-0.0027880382 -0.021584205 -0.00494813 0.054656673 0.022196932 -0.034164548 0.010345971 0.037648093
-0.021017615 -0.02799047 -0.043267187 0.0071334117 0.045258082 -0.023037218 0.030211348 0.001065123
0.008650998 -0.0629301 -0.047106385 -0.046509087 -0.0225605 0.058550283 0.012174485 -0.043371826
-0.0016610867 -0.04837195 -0.002359187 0.03778795 0.0121711325 0.025571965 -0.05405974 0.04166065
-0.012403138 -0.058676608 0.03779989 -0.061500132 -0.045496758 -0.010910712 -0.03386364 0.0344038
-0.012099182 -0.0590028 0.053733565 -0.019808337 0.0430554 0.024402965 0.020868424 -0.060754422
0.046634354 0.023152968 0.033058237 -0.005480729 -0.017878368 -0.028982436 -0.012193375 -0.06290396
0.03782732 0.017531969 0.008161199 -0.04534095 0.0014764176 -0.018628413 -0.040931918 0.038527384
0.041055333 -0.04836877 -0.05359562 -0.05618318 -0.06042491 -0.05835675 -0.030187167 -0.05576416
-0.029628322 0.032192443 0.04905157 0.040721323 -0.032240007 -0.057511345 -0.024112565 0.006644421
0.027794741 -0.00625867 0.008344793 -0.03707145 0.0324163 0.021715604 -0.019659981 -0.058493085
0.04817945 -0.027163208 -0.03922282 -0.024553437 -0.053438082 -0.027768953 0.009097092 -0.010705915
-0.05257794 0.04883503 0.007166132 0.05196007 -0.016059874 -0.014528276 0.024425557 0.039253943
-0.011174697 -0.05452437 -0.018436 0.03921624 -0.06335824 0.030639248 0.000488542 -0.04331333

fc3.weight f4 [256, 256]
00000000: b4b1 4f3d a86c 353c 783d 62bd 301f 333c
00000010: ecdf 23bd 00ab 223a 380c 64bc a3ec f7bc
00000020: a6e7 613d 2e39 543d 969e fb3c b27b 283d
00000030: 2894 28bd e079 86bc 6323 833c 2550 2fbd
00000040: a7ab 0d3d 6063 083d 9c35 77bd f02f 05bd
00000050: 0634 b7bc 5c9d a03c c89a b7bc 8f62 823d
00000060: 04c8 843b 4f4f 033d 7ab4 1e3d 1ce7 d8bc
00000070: 9ea1 f33c 1a0b 5abd 1995 e7bc c031 973c
00000080: 6ee1 73bd b56b 073d 6b26 92bb 885c c43c
00000090: b057 cebc afed 5c3d 3772 f8bc 00da 3b3d
000000a0: ba97 763d fd31 0dbd 4167 2f3d f823 24bc
000000b0: f16f 7f3d 9caa a7bc f4ae 0abd 7844 a5bc
000000c0: 18f2 d3bb 9c6c 5e3b 0f2f 65bd c047 853c
000000d0: 981c e0ba 06c1 41bd e863 753c 3683 473d
000000e0: b1a7 a23d f997 d53c 58e2 0b3d 9601 803d
000000f0: 40fe 833b a325 71bd 6da4 29bc 5c1d 593d
00000100: 8275 123d b4fb 7e3d ac5d 46bd a4e6 34bd
00000110: f01d fb3c f10e 23bd 4061 e53a 465b 15bd
00000120: 2e78 0d3d 6ce7 033d 48eb 2e3d 1049 b8bc
00000130: 8c25 b53c 14cd 8fbc 8c4c 68bd ad34 dcbc
00000140: 070f 4b3c c66a 34bd 066d 48bd 4890 893c
00000150: 507a c23b e563 55bb c1e1 4ebd 7ebd 14bd
00000160: 4044 3ebc 8042 443d c9af 3cbc c022 c23c
00000170: 9bf8 923d da92 693d b6c4 f5bc c3e3 3bbd
00000180: e6ca 653d c09b 983d 21a0 82bd 234a 7cbc
00000190: 4026 663d 5645 6dbc 405d 7a3d 696f 263d
000001a0: d242 813b 0a69 d7bc fee4 603d 290a 55bb
000001b0: 4a65 053d 2c19 b53c 4827 bb3c 7dd9 32bb
000001c0: 28a1 1fbc 9f43 753d 7c71 44bd 7a1e 5cbd
000001d0: 862a 01bd 5ba0 0ebd 61ea d1bc 4616 42bd
000001e0: 403f 49bd 106b 46b9 996a bc3b 880a 73b8
000001f0: b52f 333d cb62 7c3d 50d9 b53c 059d 5fbd
00000200: 50b5 743c 0459 83bb d62e 3a3c c7d4 843c
00000210: 795a 823b fce1 563d 6ab8 54bd 489b 363c
00000220: a601 2f3d 61e7 62bb 9491 3fbd 84c2 f1bc
00000230: 5034 44bd a032 e43b 7ca3 18bc 7068 5bbd
00000240: e6b1 7f3d 2890 c3bc b03f 38bd 70ba e7bb
00000250: 682f 7c3d 8c76 c73c 4ffc 6c3d 8f45 153d
00000260: 205c d93c 105a a9bb 0121 113d 749d 6dbd
00000270: 7d53 f13b 1c25 77bd 2b9f a7bb cf4c 26bd
00000280: b848 463d 9aa0 bb3c 48b3 7bbc 111c 6ebd
00000290: d4da 183d 31c7 a3bc 3333 753d 38ab 743d
000002a0: b1f4 44bc 3790 443d 2447 babc 9f21 e93a
000002b0: 4707 57bd 44f8 ec3c de9d d7ba 264f 923a
000002c0: 0458 a03c a87c a2bc 6259 8bbc 8400 743c
000002d0: 8c19 343d f0f1 e3bc c45f 58bc 2365 d0bc
000002e0: ac13 453c 84af da3c 58f5 003b ea03 61bd
000002f0: cd68 13bd 6d75 503d 6264 0ebc ed75 e1bc
00000300: 3304 1abd 8c2d 68bd 7ca7 033d 60b9 67bc
00000310: 28b9 6a3d 94c4 5f3d e84d 07bc 4610 183d
00000320: d5ef cb3b 5675 56bd 788d 053c b7b2 97bc
00000330: db7a 853c e9e6 e4bc 4814 73bd 27a1 08bd
00000340: 4332 553d f47d f53c 92d6 8f3b b8f2 f0bc
00000350: 8e68 21bd 4207 14bd ecd3 193d 9c58 113d
00000360: 7da5 d7bb 6ad2 e1bc 284c 09bd 9bd0 a3bc
00000370: 5735 553b e859 e2bc db66 463d 478f 20bd
00000380: 2847 263c cca6 613d 8a6c 32bc d07f 0f3c
00000390: 3876 443d bf13 06bd e070 68bb 5b45 b1bc
000003a0: 0a1e e83c 9059 f53c 2555 4a3d 3808 1bbd
000003b0: a425 15bd 3047 d5bc a233 adbc 0adc 1f3d
000003c0: 78af 563c 8115 0f3d 770e fc3c 8294 04bc
000003d0: d740 363d 9db4 95bc bdfc 9d3c 1b02 da3b
000003e0: 5b5f f53c 40e9 cf3b 8e1c 65bd f2da 42bd
000003f0: 430a 8a3c dbde e93c c8a5 b8bc 9c7a 84bc
0.05070658 0.011073269 -0.055234402 0.010932729 -0.04000847 0.00062052906 -0.013918929 -0.030264204
0.055152558 0.051812343 0.030715268 0.04113359 -0.041156918 -0.016415536 0.016008085 -0.04280104
0.03458753 0.033297896 -0.06035386 -0.03251642 -0.022363674 0.019606285 -0.022412673 0.06366455
0.004052164 0.032058056 0.038746335 -0.026477389 0.029740151 -0.053233244 -0.028269337 0.01845634
-0.05954116 0.0330617 -0.004460146 0.023969904 -0.025188297 0.05393761 -0.0303279 0.045862198
0.06020329 -0.0344715 0.04282308 -0.010018341 0.062362615 -0.020467095 -0.033858255 -0.02017425
-0.006468069 0.0033939248 -0.05595308 0.016269565 -0.0017098365 -0.047303222 0.014977433 0.048709117
0.07942141 0.026073443 0.034151405 0.062503025 0.0040281117 -0.058873784 -0.010354144 0.053006515
0.035756595 0.06225176 -0.048429176 -0.04416527 0.030653924 -0.03980917 0.0017500296 -0.036464
0.03453844 0.032203123 0.04270485 -0.022495776 0.02211263 -0.017553844 -0.056713626 -0.026880587
0.0123937195 -0.04404714 -0.048932098 0.016792431 0.005934991 -0.0032560762 -0.050508264 -0.036313526
-0.011612952 0.04791498 -0.01151652 0.02369821 0.07176324 0.057024814 -0.030001026 -0.045871507
0.056101702 0.07451582 -0.063781984 -0.015398535 0.05618882 -0.014481863 0.061124086 0.040633593
0.003944733 -0.026295204 0.054905884 -0.0032507277 0.0325673 0.02210673 0.02284588 -0.0027290278
-0.0097430125 0.05987894 -0.04795979 -0.053740002 -0.031534694 -0.034820896 -0.025624456 -0.047384523
-0.049132586 -0.00018922635 0.005750012 -5.7945523e-05 0.04374667 0.061617654 0.02219835 -0.054593105
0.014935806 -0.004008414 0.011363706 0.016214741 0.0039780703 0.05246161 -0.051933683 0.01114542
0.04272618 -0.0034622776 -0.046769693 -0.029511698 -0.04790145 0.006964043 -0.009316321 -0.053566396
0.062425517 -0.02387245 -0.044982612 -0.0070717856 0.061568648 0.02434852 0.057857808 0.03644329
0.026533186 -0.005168207 0.035431866 -0.058011487 0.007364689 -0.060338125 -0.00511541 -0.040600594
0.048409194 0.02290373 -0.015362568 -0.058132235 0.037318066 -0.019992443 0.05986328 0.0597336
-0.01202123 0.047989096 -0.022739 0.0017786509 -0.052497175 0.028926976 -0.0016450246 0.0011162504
0.01957322 -0.019834831 -0.017010394 0.014892701 0.043969676 -0.027825326 -0.013206426 -0.02543885
0.012028616 0.02669502 0.0019677486 -0.054935373 -0.035988618 0.050893236 -0.008690925 -0.027522052
-0.03760166 -0.056684062 0.032142147 -0.014143318 0.057305485 0.05463083 -0.00825832 0.037124895
0.0062236586 -0.052357994 0.008151405 -0.018517835 0.016293934 -0.027942138 -0.059345514 -0.03335681
0.052049886 0.029967286 0.0043895924 -0.029412612 -0.03940635 -0.036139734 0.03755562 0.035484895
-0.006581007 -0.027566154 -0.033519894 -0.019996932 0.0032533014 -0.027630761 0.048437934 -0.03919914
0.010148801 0.05509071 -0.010890136 0.0087585 0.047964305 -0.032733675 -0.003546767 -0.021639517
0.028334636 0.029949933 0.049397606 -0.037849635 -0.03641285 -0.026034921 -0.021142785 0.039028205
0.013103358 0.034932617 0.030768616 -0.008092048 0.04449543 -0.0182746 0.019285554 0.006653083
0.029952696 0.0063449442 -0.055935435 -0.047572084 0.016850596 0.028548649 -0.022539988 -0.016171746

fc3.bias f4 [256]
00000000: 5a0a 8bbc befb 96bc 7b71 03bc e1c2 323d
00000010: 1d92 32bd ac21 75bd 5532 2a3d 1607 d23c
00000020: d950 853d 6a88 b33b 68ad f4bc 5612 05bd
00000030: f11c edba 9e07 1ebb a45c 5b3d 64df e3bc
00000040: e86c 7ebd 61e1 3a3d a1e8 ca3c ac06 1d3d
00000050: 5844 16bd 7db8 093d 6c06 62bd fdf4 f73b
00000060: 7684 493d 4b77 153d 7b1a a3bb f5a2 4fbd
00000070: 54c0 1bbd 0029 2dbc 5c35 dfbc 48a8 66bc
00000080: 2e98 ba3c a5c2 a5bc 6a10 84ba 1414 193d
00000090: b9a3 e93b 4621 b6bc 5d1d 313d a4f8 2d3d
000000a0: 52fa debc 29d0 2ebb 2e49 993a f833 50bc
000000b0: ccbb 73bd 2544 64bd 7e3d 06bd eead 58bd
000000c0: 3643 72bd 0709 043c 4324 633b 3d69 fa3c
000000d0: 7edd 35bd 91f1 6c3c c1ab 203c dc53 3abd
000000e0: af8d e1bc 6557 613d 6183 3abc 531f 0bbc
000000f0: 654a 043c a807 62bd a21e a5bb ca2f 6b3c
00000100: 0150 9fbc e0cc 713d adf8 233c aa4f 14bd
00000110: 3a44 5abd 8005 563d 9357 9fbc 5d73 703c
00000120: 2558 553c cbf8 823d fb1f 40bd 132d e6bb
00000130: 7414 2cbc 9252 263d b413 15bd 92cb 063d
00000140: 8697 15bd 5561 a03c 1aca ddbc 7226 79bc
00000150: fe22 3f3d 98a1 163d f810 bbbc 922e 913c
00000160: 526f 99bb 785f c6ba 6130 df3c 054c 403a
00000170: 67dc 773d fbce d7bc 59c9 76bc 91ad 483d
00000180: 8214 0b3d 972b b83c 1693 75bd 4e81 923c
00000190: f6f9 45bb 62bd 6c3d 556a 093d c0d7 b93c
000001a0: d030 a5bc 62c8 05bd 651d 4c3d 271f 223b
000001b0: a013 8fbc 31df f23c c6d8 4ebd 5066 ef3c
000001c0: 8686 90bb d108 b03c 0a4d 7e3c 561b 9e3c
000001d0: a3c5 c03c 6eb4 93bc f79a f9bc 73b3 5dbc
000001e0: 268b 1a3b 7184 cd3c 9eb3 0a3d bcfa 57bd
000001f0: 9c53 fbbc 0d1f a7bc 6078 e4bb b280 26bd
00000200: 8d8a 543c d091 75bd a539 c73c 5f2b 9d3c
00000210: b0f8 f3bc 9048 603c 12f5 173d 5cd4 43bd
00000220: 8b6d 343c 7098 9c3c d02c 59bc b98c a3bc
00000230: b701 4cbd 44d2 39bd 241d 2bbd 29e1 c03c
00000240: 0385 d33c 703e 54bc 7b59 03bd 2a95 1cbc
00000250: 1df2 1e3d 30f9 0b3c 208e 2abd 225c 5c3d
00000260: 38cb 71bd 948f eebc 3060 a33c aec0 5fbd
00000270: cc34 263d 77f9 43bb fbe4 3b3d 1417 dcbc
00000280: 6f14 6a3d 6297 2c3d d2f7 623d a0c3 df3c
00000290: d406 d0bc 9ce7 30bd 0ce7 86bb 0433 953c
000002a0: c6a7 ea3c 0cab 20bd 09ce 243c 3625 e23c
000002b0: 6ca7 163c 3eb4 2abc 2cc5 3bbd f3d6 833b
000002c0: bcf7 b9bc 25df c6bc 30c2 1fbd 5ba1 663d
000002d0: cb4f dd3c ee3b 47bd 6c6b 1d3b 6e9a 983c
000002e0: dc4a 78bd c957 c5bc c21d d03b 5e19 f43c
000002f0: cebf c03c fcec f13c 877e aabc d00c f3bc
00000300: 4627 1b3a 2c40 a5bc f8de d8bc 040e 39bd
00000310: d3bf 253d 07cd ad3c b48b 33bd 869d 5d3d
00000320: 3567 913c 1fd6 313d 9037 9abc d472 623d
00000330: 4171 f4bb 0a83 c3ba c077 77bd a917 52bb
00000340: 598b acbb 5e22 08bd 0b8c 5ebc 42b7 1fbd
00000350: 34fe 903d 600f 75bd 4824 8839 cab2 24bd
00000360: e945 733d 603c 463d 3d92 1abb 5f5f 523d
00000370: 80e8 7fbd a475 473d 4ec9 5fbd 17fc f13c
00000380: f22b e23c 1b4d 7bbb bd8d 52ba 1252 7cbd
00000390: e3cc 2f3d 7e7b 493d 1edc fa3c a74f 4dbc
000003a0: e433 7c3d c0a2 7abc fff3 ee3c 161e 4bbd
000003b0: fb30 f03c eff0 42bd 17cc 5e3d f96d fbbc
000003c0: 0436 7bbb 7ad8 2abd 6d23 593d 8253 4e3d
000003d0: acde c4bc c1bb 193d db7d 99bb 1f80 5dbd
000003e0: 4d2d 7a3d 7e31 6dbd ed64 bdbb 5dea 08bd
000003f0: 03a0 773d ed72 45bd 35ab e73c 1277 213c
-0.01697271 -0.018430587 -0.008022661 0.043642882 -0.043596376 -0.059846565 0.041551907 0.025638144
0.06509561 0.0054789083 -0.029867843 -0.03248819 -0.001809029 -0.0024113427 0.053555146 -0.027816482
-0.06211558 0.045625094 0.02476913 0.03833644 -0.03668627 0.033623207 -0.055181906 0.0075670467
0.04919859 0.03649072 -0.004977522 -0.050692517 -0.038025215 -0.010568857 -0.027247123 -0.014078207
0.022777643 -0.020234415 -0.0010075693 0.037372664 0.007130113 -0.022232663 0.043240894 0.04247345
-0.027218971 -0.0026674366 0.0011694783 -0.012707703 -0.05950527 -0.05572905 -0.032773487 -0.052900247
-0.05914613 0.008058793 0.0034659065 0.03056776 -0.044400685 0.014461891 0.009806574 -0.04549013
-0.02753338 0.055014987 -0.011383862 -0.008491355 0.008074378 -0.055183083 -0.005039052 0.0143546555
-0.019447329 0.059033275 0.010008019 -0.036208786 -0.053287722 0.05225134 -0.019450938 0.014675942
0.013021504 0.0639511 -0.0469055 -0.0070244162 -0.010502923 0.04060609 -0.036395743 0.032908984
-0.036521457 0.019577662 -0.027073909 -0.01520692 0.04666423 0.0367752 -0.02283524 0.017722402
-0.00468246 -0.0015134653 0.027244749 0.00073355465 0.060512926 -0.026343813 -0.015062653 0.04899365
0.033955105 0.022481723 -0.059954725 0.017883923 -0.0030208803 0.057797797 0.03354867 0.022685885
-0.020164877 -0.032661803 0.04983272 0.0024737807 -0.017465413 0.029647442 -0.0504997 0.029223591
-0.0044105677 0.021488579 0.015521297 0.019300144 0.02353174 -0.018030372 -0.0304694 -0.013531554
0.0023581474 0.025087567 0.033862703 -0.052729353 -0.030679516 -0.020400548 -0.0069723576 -0.040650077
0.012972486 -0.05995351 0.02431948 0.01918572 -0.02978167 0.013689175 0.03709895 -0.047809944
0.011012445 0.019115657 -0.013255313 -0.019964563 -0.049806323 -0.04536654 -0.041775838 0.023544865
0.02582026 -0.012954339 -0.032067757 -0.009557048 0.038805116 0.008543298 -0.041639447 0.053798802
-0.059031695 -0.029121198 0.019943327 -0.054627113 0.040577695 -0.0029903331 0.04587267 -0.026866473
0.057148393 0.042136557 0.05541212 0.027314961 -0.02539388 -0.04318963 -0.0041168984 0.018212803
0.028644454 -0.039225623 0.010058888 0.027605634 0.00919519 -0.01041895 -0.045842335 0.0040234267
-0.022701137 -0.024276325 -0.03900355 0.056306224 0.027015587 -0.048641138 0.0024020327 0.018628325
-0.060618266 -0.02408971 0.0063512037 0.029797252 0.02352896 0.029531948 -0.020812286 -0.029669195
0.0005918633 -0.020172201 -0.026473507 -0.045179382 0.04046614 0.021215929 -0.043834403 0.054105304
0.017749408 0.043417092 -0.018825322 0.05528529 -0.00745979 -0.0014916372 -0.060416937 -0.003205756
-0.005265635 -0.0332359 -0.0135831935 -0.038993128 0.070797354 -0.059829116 0.00025966973 -0.04020957
0.059392843 0.04839742 -0.00235857 0.051360484 -0.06247759 0.048696175 -0.05463534 0.029539151
0.027608845 -0.003834552 -0.0008031985 -0.061601706 0.042920005 0.049190037 0.030622538 -0.012531198
0.061572924 -0.015297592 0.02916908 -0.04958924 0.02932023 -0.047593053 0.054393854 -0.030692087
-0.0038331756 -0.041710354 0.0530123 0.050372608 -0.02403196 0.03753257 -0.0046841926 -0.054077264
0.06107836 -0.057908528 -0.0057798536 -0.03342663 0.060455333 -0.048205305 0.02827988 0.009855049

fc4.weight f4 [2, 256]
00000000: d705 78bd 12a8 d9bc e0fc 79bd 97b7 d63c
00000010: f6ea e2bb c0bf b7bb 0cba 963d 8197 fa3c
00000020: 4176 733d 7211 63bc 481a 8bbc 2043 29bc
00000030: c646 73bd 14fa cbbc b4f0 563d 7477 153d
00000040: 3239 733d 7895 833d d7aa 86bd 85fc 91bd
00000050: 9476 8cbc 45e0 2c3d 58a3 05bd c99f 193c
00000060: 37fb 22bd 35ce f63c 715e dbbc a2f7 61bd
00000070: f7a2 60bc 807b 2a3c f0da 043c 9c37 6fbd
00000080: 4bf4 b3bb 22be 31bd a40e 043c 6487 38bd
00000090: f1f4 963c 669e aa3c 91b2 cbbb a8ef 8f3d
000000a0: 2d5f c23c 68c6 2bbd f6f2 393c 1f0c 1dbd
000000b0: 7e1f 4e3d 00f0 90bc e089 d43c ec04 54bd
000000c0: 942b 3dbd 6967 133d 4b27 b2bc d8a1 08bd
000000d0: 2ae8 6cbd 5fe6 733c 86cd 57bd 1080 55bd
000000e0: e11f 99bc df81 49bc 6bce acbc 0d2d c33c
000000f0: dd31 6fbd 3a4a adbc a8fe a3bd 458c 6f3b
00000100: bb48 603b 183e e23b 9005 d2bb b01c fd3b
00000110: 7090 d43c 38bb 1a3d 31ee 15bd 67a4 fd3b
00000120: 4dca 8c3c 337f 603d f713 223b 4e2f 6abd
00000130: 55f7 8b3d 757d 3f3d 8c3f 833c 365e 703d
00000140: 88f2 3cbd d5bf 6f3d ea25 643d bc0b 8f3c
00000150: caa0 d23c fa8f eebc a8a5 f4bc 7895 75bd
00000160: 4d8d 84bd dd92 b5bc d8ab b93c b729 4a3d
00000170: 2f1a 503d ed1a d1bc e3e3 193c b883 473c
00000180: 7dd7 803d 65fc 68bb 4014 473d 0322 bcbc
00000190: bd79 45bd 47b9 413d 33fa 3f3d 18e2 61bc
000001a0: e096 b3bb acef aa3c 1efc 4b3d 791b 413d
000001b0: ccee ecbc db5e 283d 004c 2b39 d72a 8c3d
000001c0: 7c68 02bb 967c 9f3d 2e64 21bd a61c a83c
000001d0: 4be4 98bc 7b21 53bb 78a1 743d 5ae2 7cbd
000001e0: 03fe 7fba 8896 633d 7d2a 0dbd f88a 60bc
000001f0: a878 0bbc 877b 58bd 7cfa 433c b365 913c
00000200: 8eb8 61bd 8816 4ebd a40b 7cbb c7cf b83b
00000210: 08de 7f3d 9a92 9439 4a12 7d3d 003f 0cbd
00000220: b32d 6bbc 1f30 25ba 7846 99bc e506 0f3d
00000230: bd8d 75bd 1d09 463d 0820 38bd ba31 803d
00000240: 27ea 593c 58f6 a5bd 30f8 3a3d 82d1 eabc
00000250: 580c 3d3d af71 10bd 948c c03c 1e7d 013b
00000260: 80b3 df3a 9054 b5bb 9d52 893d ec67 a9bc
00000270: cb8c 723c 1313 d33c bc28 6f3d 60a7 613c
00000280: 14fb 74bd b9e7 9a3d 5f5d 483d 39ca 1f3d
00000290: ddff 67bd 809a 9f3b 8e03 0dbd 93c5 55bc
000002a0: eff1 f33a a89b 123c d85e 173d 716e a1ba
000002b0: c3bb 8ebd cb38 87bd fe9f 633d 37d2 c03b
000002c0: 7644 b13c 08f1 89bc f830 483c 4840 1fbd
000002d0: 7bd5 17bc 80a8 7fba 7e44 333c 56f8 f33c
000002e0: 809d d6bc 08c0 98bd 2367 f73c 992c 2c3c
000002f0: bdc1 c6bb 6eb3 8e3c 408b 353c 2e7e 133d
00000300: 54fb 643a 7c03 f0bc 5636 15bd 0038 cbb9
00000310: 0f95 0bbd cac1 503d 2fe1 6f3d 09f1 563d
00000320: 5183 ef3c 9794 d4b9 fe3c 4abd 29cb cd3c
00000330: e7d4 873d 3a21 7abd 780c 7d3c e98e b1bb
00000340: 633c 47bd 4e50 6b3c 058e 133c 562f 76bd
00000350: 3d2d 533d 04d0 cd3c 81b1 71bd d2c1 23bd
00000360: e78c d6bc df26 bbbc 4cb7 bfbb 1a89 14bc
00000370: b039 d33b a1d0 febb 96f8 56bd 5320 d43a
00000380: 89eb 4d3b 3972 a53a dd45 d2bc 6000 523c
00000390: da5e d43c 8312 3c3d 84cd 06bd 718b bc3d
000003a0: dbfe 783d c0f7 baba a61c 5d3d 8480 70bd
000003b0: 739e 13bc 30b0 1a3b 8f4b 0a3d 526e 923b
000003c0: e51e 403b 9e17 12bd 58b7 efbc 39b2 233d
000003d0: efac 6eba 766c 943c 7588 713d 4df7 b4bb
000003e0: 0556 553d 0493 6abd 3ae2 343d f9f7 5a3d
000003f0: 8af4 773d 0ec9 c03c 9015 6b3d 913f 86bc
-0.060552444 -0.0265694 -0.061032176 0.02621059 -0.006924982 -0.005607575 0.073597044 0.03058982
0.059438948 -0.01385914 -0.016980305 -0.010330945 -0.059393667 -0.02489952 0.052475646 0.036490873
0.059380718 0.06424993 -0.06575554 -0.071282424 -0.017146386 0.042206068 -0.03262648 0.009376475
-0.03979036 0.030127624 -0.026778432 -0.0551678 -0.013710729 0.010405421 0.008108839 -0.058402643
-0.0054917685 -0.043394215 0.008060131 -0.045050994 0.018427344 0.020827483 -0.006216355 0.07028133
0.023727024 -0.04193726 0.01134943 -0.038341638 0.050323002 -0.017692566 0.02594465 -0.051762506
-0.046184137 0.03598729 -0.021747252 -0.03335747 -0.057838596 0.014886468 -0.052686237 -0.052124083
-0.018691959 -0.01229903 -0.021094522 0.023825193 -0.058397163 -0.021153558 -0.08007556 0.0036552113
0.0034223038 0.006904375 -0.0064093545 0.007724367 0.02594778 0.037776202 -0.03660411 0.0077405456
0.017186308 0.054808807 0.0024731138 -0.05717402 0.06834284 0.046750505 0.016021512 0.058683597
-0.046129733 0.058532555 0.05570022 0.01746165 0.025711436 -0.029121388 -0.029864147 -0.059956998
-0.064722635 -0.022164756 0.02266495 0.04935619 0.05080622 -0.025525535 0.009392711 0.0121774
0.06291101 -0.003555083 0.048603296 -0.022965437 -0.0482118 0.047295835 0.046869468 -0.013786815
-0.005480632 0.020866238 0.049800985 0.04714534 -0.028922461 0.041106086 0.00016336143 0.068441086
-0.0019898703 0.07787435 -0.03940218 0.020521473 -0.018663546 -0.0032216 0.0597243 -0.061739303
-0.0009765329 0.05556348 -0.034464348 -0.013705008 -0.008512653 -0.05285218 0.011961576 0.01774869
-0.055107646 -0.050314456 -0.0038459087 0.0056400034 0.062467605 0.00028337986 0.06178502 -0.03423977
-0.014354157 -0.0006301421 -0.01871036 0.034918685 -0.059949625 0.048348535 -0.044952422 0.062594846
0.013300455 -0.08103627 0.045646846 -0.028664354 0.04615435 -0.035264667 0.023504533 0.0019758414
0.0017067045 -0.0055337623 0.0670521 -0.020679437 0.0148040755 0.025765931 0.058388457 0.0137728155
-0.05980976 0.07563729 0.04891717 0.039011214 -0.056640495 0.0048707128 -0.03442722 -0.013047594
0.001861153 0.008948244 0.036955684 -0.0012316239 -0.069694065 -0.06602629 0.055572502 0.0058844346
0.02163909 -0.016838565 0.012218706 -0.038879663 -0.009267206 -0.00097525865 0.010941623 0.029781502
-0.026198149 -0.07458502 0.030200547 0.01050868 -0.006065576 0.017419543 0.011080563 0.036009006
0.00087349606 -0.029298536 -0.036428772 -0.000387609 -0.0340777 0.05096606 0.05856436 0.052475963
0.029237421 -0.000405465 -0.049374573 0.025121288 0.06632405 -0.061066844 0.015444867 -0.0054186475
-0.048641574 0.014362408 0.009006028 -0.060103737 0.051556814 0.025123604 -0.05900717 -0.039979763
-0.026190234 -0.022845684 -0.005850708 -0.009065891 0.006446086 -0.0077763353 -0.052483164 0.001618395
0.0031420907 0.0012622542 -0.025668079 0.012817472 0.025924135 0.04591609 -0.03291084 0.09206284
0.060789924 -0.0014264509 0.0539824 -0.058716312 -0.009009945 0.002360355 0.033763465 0.0044687176
0.002931529 -0.035667054 -0.02926223 0.03996489 -0.00091047486 0.018118124 0.058968026 -0.0055226446
0.052083988 -0.05726911 0.04416106 0.05345914 0.060535945 0.02353337 0.05739361 -0.016387733

fc4.bias f4 [2]
00000000: af0f 603d 57cb 6e3d
0.054702457 0.05829939
