ann.pth (torch, 573008 bytes, 8 tensors)

fc1.weight f4 [256, 40]
00000000: 3d76 053e 282c fbbd 679d 193d 81c0 3bbd
00000010: ff84 d2bd 66cc 0cbd 0501 8cbc 5cc9 243e
00000020: 34ae a5bc 0cf7 08be 2079 a5bd bf8f 00be
00000030: b151 a0bd 7c52 cf3b 6bc7 103e 9b89 743d
00000040: f178 05be 5e40 043e 7d3b c23d d8d7 943d
00000050: 9bfe b9bd 67b6 efbb f093 4f3d e411 4e3c
00000060: 96bf f23c e7f1 b3bc 1428 a0bd c224 8a3d
00000070: 0ff0 823d 3390 03bc f860 063e 24f9 f43d
00000080: f342 1e3e 7c43 6bbd 1e2f d43d fd56 083d
00000090: 3133 a83c 2153 ff3c d49d ee3b 5544 6f3d
000000a0: 0050 f83b 2a6a f3bd 8439 10be 58fc 393d
000000b0: 5cb4 debd 6df8 02be a8cc e03c ca28 9d3d
000000c0: 1194 93bd 941a a0bd a2ce e13d 6d14 8cbd
000000d0: e9fe 8ebd f2a7 f73d d6e4 b23d 0a84 863d
000000e0: f0d3 8cbc e0f6 b83b 280f d1bd 8f37 94bd
000000f0: 32ff f0bd 4643 c83d 5606 da3d d546 87bd
00000100: 6c96 313d a4fe 8a3d 58b5 9c3d f4de 7dbd
00000110: b859 09bd 50d4 563d e085 c0bd 208e 85bb
00000120: 3444 a03d 7f4c fbbd a33b b7bd 126b c53d
00000130: b2aa ebbd 704a 523c 5a96 48bd 2567 adbd
00000140: 5ac5 c93d a9cc a9bd b87c b9bc f0bd ff3c
00000150: 2255 53bd 7039 60bc a067 703c d82d ac3c
00000160: 2d1d 96bd e4e7 7d3d 30e5 163c a8f4 e2bc
00000170: daa4 ccbd 8ca1 20be b7b5 a8bd 58ba c5bd
00000180: 9f84 1cbe 7793 1a3e 90bf 39bd 7487 873d
00000190: cf4f 073e 831a b9bd 187e b4bc ed05 02be
000001a0: cced 033d c47a 713d c3e0 0d3e 503b 0b3d
000001b0: 000d 6c3a e088 02bd a2ce d03d 6067 e63b
000001c0: 1e26 9b3d c65e b8bd 49b4 adbd 4739 aebd
000001d0: b0a7 b0bc a6a8 3ebd d0c0 113c baa7 0abe
000001e0: 4a3c 22be 8e17 2abc 15ca 163e 435a 003c
000001f0: f7eb 9ebd acdd b63d af05 973d b97f 05be
00000200: 72dd ae3d fd90 75bd dbda 14bd 77e4 0fbd
00000210: 878d ac3d a739 a7bd 1e1c a03d 6e3d 413d
00000220: 5134 f3bd 17af 173e 6f4b 953d 56f5 943d
00000230: 317c 133e 6ffb adbd 3a6f b0bd 7e0e a03d
00000240: 22a3 a23d 05cb 0b3d da38 e33d da7c 203e
00000250: af03 d4bd ba9e 22be ae81 a9bd dff2 27be
00000260: d676 00be efb3 68bb c9ff 643d bfe2 f1bc
00000270: 06b8 1c3e 651d 1cbe cf69 c3bd ff94 1a3e
00000280: 726e 01be d0f6 b4bd fafe fcbd 3d8d 13be
00000290: 8b46 dbbd 8913 813d ba52 153e efc4 733d
000002a0: 9a08 ebbd af2e 2c3d 8fe0 ae3d 3d60 313d
000002b0: 4f4c a2bd 651b 7dbd 4b89 5dbd 441a ce3d
000002c0: dc3d 31bd 818d 453b b0b2 48bd 19d8 033e
000002d0: 95cb 753d 4eb6 6f3d b361 dd3d 422a 4d3c
000002e0: fb85 1b3d 2006 79bd 386c eebc 1788 4dbd
000002f0: 9003 993d 344c dd3d 5c71 2a3c af10 dabd
00000300: e8ae 633d a6a6 983d 958d b63d b7bc 103e
00000310: 436e 14be 0c77 8cbc a129 143d 77cb a3bd
00000320: 484f 0dbe 51c9 b9bd 9060 793d f02b 903d
00000330: e8f2 ba3c 2bd9 c4bd 92cf e63d dc86 36bd
00000340: e4e7 563d de32 a0bd 40cf 8f3c 738d 1fbe
00000350: a0e9 793d 7a63 efbd 90d4 00be d2f7 dabd
00000360: f0a7 d2bc 5df9 16be e4af 6a3d 0065 6cba
00000370: 485b b5bc 60c9 e53c be01 d73d fead ba3d
00000380: 7046 94bc 4139 9dbd 2b01 043e ea1d 0ebe
00000390: fe8c df3d 5d1d 0e3e 7065 943c 38e6 a93c
000003a0: 049f 903d 18f5 ed3c 7c2f 16be 00b7 8ebb
000003b0: ab05 103e 00e1 5ebb ab54 173e 0a16 d2bd
000003c0: 00a8 82bc 7209 04be 3e84 bb3d d01f e83c
000003d0: 3273 f13d acb2 07be 482c 953d 02b8 cb3d
000003e0: 5a89 c3bd 40d1 6fbd fd1b 153e 45a3 1c3e
000003f0: b7b1 13be ecfa e1bd 0c1d 2abd 7356 c3bd
0.13033386 -0.122642815 0.037503626 -0.045837883 -0.10279273 -0.034374617 -0.01709033 0.16092438
-0.020224668 -0.13375491 -0.080797434 -0.12554835 -0.078280814 0.0063269716 0.14138572 0.059701543
-0.13034417 0.12915179 0.09484003 0.072677314 -0.09081765 -0.007315445 0.050678194 0.012577508
0.02963237 -0.021965934 -0.07820144 0.06745292 0.06393444 -0.008029985 0.13122928 0.11961582
0.15455227 -0.057437405 0.103605494 0.033286083 0.020532222 0.031167569 0.007281998 0.058414776
0.007577896 -0.118854836 -0.1408444 0.04540667 -0.108742446 -0.1279008 0.027441338 0.076737955
-0.07205976 -0.078175694 0.1102574 -0.068398334 -0.06982214 0.1209258 0.08735053 0.06568153
-0.017190903 0.005644664 -0.10207969 -0.072371595 -0.11767425 0.097784564 0.1064574 -0.06605307
0.043356344 0.0678685 0.07651776 -0.061980203 -0.033532828 0.05244857 -0.09400535 -0.0040757805
0.07825509 -0.1227045 -0.08946922 0.09639563 -0.11507167 0.01283513 -0.04897151 -0.08466939
0.09852095 -0.08290989 -0.022642478 0.031218499 -0.05159486 -0.013685569 0.014673144 0.021017954
-0.073297836 0.061988726 0.009209916 -0.027704552 -0.099923804 -0.15686625 -0.08237784 -0.09654683
-0.15284966 0.15095316 -0.045348704 0.066176325 0.13214038 -0.0903826 -0.022032782 -0.12697573
0.032209203 0.05895497 0.13855271 0.03399211 0.00090046227 -0.031868815 0.10195662 0.007031366
0.0757563 -0.090024516 -0.08481652 -0.085070185 -0.021564335 -0.046547554 0.008896068 -0.13540545
-0.15843311 -0.010381592 0.14725526 0.00783402 -0.077598505 0.08928999 0.07374131 -0.13037004
0.08538331 -0.059952725 -0.03634153 -0.03512999 0.08425432 -0.08165293 0.07817863 0.047177725
-0.11875213 0.14812885 0.072897784 0.072733566 0.14402844 -0.08495223 -0.08614965 0.07815264
0.07941271 0.03412916 0.11094828 0.15672627 -0.10352265 -0.15880862 -0.082766876 -0.16401242
-0.12545332 -0.003550764 0.055908 -0.029527066 0.15304574 -0.15245588 -0.09541666 0.150959
-0.12639788 -0.08836138 -0.123533204 -0.14409347 -0.107068144 0.06302554 0.14582339 0.059513982
-0.1147625 0.04203671 0.08538925 0.04330467 -0.07924711 -0.061793704 -0.05408601 0.100636035
-0.043271884 0.0030144157 -0.048998535 0.12875403 0.060008604 0.05852347 0.1080965 0.012522282
0.03796957 -0.060796857 -0.029104337 -0.050178614 0.074713826 0.1080555 0.010403004 -0.106477134
0.055586725 0.07453661 0.089137234 0.14134489 -0.14495187 -0.01714661 0.036172513 -0.07997792
-0.13799775 -0.09071601 0.060883105 0.070396304 0.022820905 -0.09611734 0.1127006 -0.044562206
0.052467242 -0.07822202 0.01755488 -0.15581302 0.061013818 -0.116888955 -0.12581086 -0.10691799
-0.025714844 -0.14743562 0.05729665 -0.0009017736 -0.022138253 0.028050125 0.10498379 0.091152176
-0.018099993 -0.07676936 0.1289107 -0.13878599 0.10915564 0.13878389 0.018114775 0.02073966
0.0706158 0.029047534 -0.14666551 -0.0043553114 0.14064662 -0.0034008622 0.14778392 -0.1025811
-0.01594925 -0.12894228 0.091560826 0.028335482 0.1178955 -0.13251752 0.072838366 0.09947206
-0.09547682 -0.058549166 0.14561458 0.15296657 -0.14423262 -0.11034188 -0.041531608 -0.09537973

fc1.bias f4 [256]
00000000: a4ae 1fbe 20d7 8e3c 0b3f 1dbe 6207 653d
00000010: c6f3 9abd 6ad5 48bd b7da babd 775b f13c
00000020: f885 e43c 4164 af3d 6942 d5bc d073 023e
00000030: c6ab d83d 18f5 153d db99 bbbd 882d cd3d
00000040: c177 08be f388 0bbe 3340 633b 7f74 d1bd
00000050: dfc5 83bd 3b0e d13d eefd e33d d6d3 0bbd
00000060: fe74 1bbe eb18 cd3d 8ac5 c93d 1456 b73d
00000070: c159 10be 8dc8 d8bd 13f2 aebc abbd 793c
00000080: 496a ebbd af48 a9bd 6050 b3bc 6fe6 c23c
00000090: d01a cd3d 5704 b0bd 5962 a23d 5087 013d
000000a0: 03c0 c53a bb63 bd3d a552 a9bd b5ae c43c
000000b0: 7c45 1bbe 175e 11be 580b b9bd dc82 acbd
000000c0: 7e6f d8bc 3b0d 023e beac 063e 636f cfbd
000000d0: a0eb 393c 42d7 df3c c3dc d93d 1f68 0f3e
000000e0: 5bd6 54bb 0489 9abc 292a 3fbb e320 14be
000000f0: 84d3 f33c 6a44 e03d 08dd c93c 6fec 95bd
00000100: d639 f33d a45b adbd 9fa5 cdbd 24f7 08be
00000110: 844a d7bc a0c9 843d 329d 36be e343 aebc
00000120: 22ae 93bd 1c8f f8b9 bfe4 1bbe a022 1fbc
00000130: 5e5c a53d 0f63 12bd 1274 953c aa5b 103e
00000140: 54f4 b8bd f9fc 143e ba4d 37bd d6fe 0ebd
00000150: 7fd7 893d b164 d4bc 156a 8a3d a20a bf3d
00000160: aa9f e8bd d75c d33c 3bff 85bd 621c 9dbc
00000170: a46e 14bd bb01 21bd 425a 0c3d 47bb d5bd
00000180: 9645 39bd 402a d93d 6768 0a3e 84d6 efbd
00000190: 766d 7ebd 0acb ae3d adff e7bd 3146 d7bd
000001a0: e179 2c3b 5943 cabc 02ea 863d d6a6 883d
000001b0: 49e6 b9bc b964 0c3e 10e4 79bc f399 133d
000001c0: ea05 03be 6a28 b7bd 503f 003d 0210 14bd
000001d0: 8f57 e03d 830b b93d 8ddc 92bd 4871 053e
000001e0: e92f 82bd f9d4 ab3c 8943 ebbc c93d dd3d
000001f0: b563 a7bc df8b 3cbd 37bf 0d3e 0e72 11be
00000200: d15a 18be 29c8 e53d f25b ffbd b262 a4bd
00000210: c2e6 e53d 1f3f bdbd fd01 d73d 1a11 11bc
00000220: 7e57 b2bd 96f6 2ebc 6254 c1bd da1e 053e
00000230: 1404 e9bd 20f9 983d a3f0 873d dc75 c23d
00000240: d65a 0dbd 1f45 a63d b162 123e 502b d83d
00000250: a688 00ba 9676 093d db5c 873d c2e7 6fbd
00000260: 0c94 843d b213 943d 35e4 39bc 1c79 a93d
00000270: 41e1 bebd f0bc 433b 2392 893d e0c3 e8bd
00000280: e92c 9c3d c23e 1f3d 4135 a33b 075d f93d
00000290: 72d2 303d 1f11 1b3e 1429 9bbd 210f ee3c
000002a0: c5a8 96bd e2af 03bd beed 543d 1c7b 1abd
000002b0: f0ca f8bd 0aaf b7bd 1544 cc3d 6ef4 adbc
000002c0: 500b bebc ecf5 00be 2b90 e83d 6048 d2bd
000002d0: 61a7 eabd ba1a 10be d2e8 b53d b892 9abc
000002e0: 0b02 20bd 132c 09be ad85 60bd 6787 02be
000002f0: 7032 563d c57f 193c e6ee bdbd ba40 0fbe
00000300: 6799 05be 0a71 d6bd f8ea 9c3c 0511 93bd
00000310: 18ce 563d 4814 11be 9ffa fabd 091a 08be
00000320: e088 bcbd c85f 4e3c 7a70 9f3d 157b 4abd
00000330: 8e19 94bc 1767 fbbd 0808 62bd 7c28 f13d
00000340: 0673 e4bd 9695 4cbd 7b68 143e bcce 503d
00000350: 9af2 ffbd baec d73d cb39 0f3e 8023 4e3b
00000360: b2f0 cfbd 0b8a d93c c3a4 27be fe66 29bd
00000370: 7484 febd 1b52 983d 3504 cf3b 0c36 0ebe
00000380: e430 a0bc 3c40 e1bc 54c2 9f3b 1b87 4dbd
00000390: e48b e8bd 3073 443d 6dbf 9cbd cdf0 1dbd
000003a0: bd58 d13d ca38 573d 9f2e b93d 8ae5 3dbc
000003b0: ccac 003e 28ad ef3d 27be 8a3d d9bf 33be
000003c0: 90d6 31bc 249f 11bd c0e8 1dbe 7554 403d
000003d0: 15b5 5d3c 81fe f23d 1041 e3bd a256 18bd
000003e0: 3b9d 75bc 1023 d6ba 1a45 57bc 1eba 993d
000003f0: 892c d0bc 5bc2 f03d 4155 733d 108f 4f3d
-0.15593964 0.017436564 -0.1535608 0.055915244 -0.07566027 -0.049031653 -0.09123748 0.02946256
0.027895913 0.08564044 -0.026032643 0.12739491 0.10579638 0.036610693 -0.09160205 0.1001845
-0.13326932 -0.1362646 0.0034675717 -0.10227298 -0.06434225 0.10207792 0.111324176 -0.03413757
-0.15181348 0.10014518 0.09852131 0.08951965 -0.14096738 -0.10585127 -0.021355664 0.015242974
-0.11494882 -0.082658164 -0.021888912 0.02379152 0.1001488 -0.08594578 0.079289146 0.031623185
0.0015087131 0.09247538 -0.08267716 0.024009088 -0.15163225 -0.14196049 -0.09035367 -0.08423397
-0.026420351 0.1270036 0.13151833 -0.10128667 0.011347681 0.027324323 0.1063781 0.14004563
-0.0032476399 -0.018864162 -0.0029169417 -0.1446567 0.029763944 0.10950549 0.024641529 -0.07320487
0.11876266 -0.08464745 -0.10041355 -0.13375527 -0.026280649 0.064837694 -0.17833403 -0.021272605
-0.072109476 -0.0004740887 -0.15223978 -0.009712845 0.08074258 -0.035739 0.018243823 0.14097467
-0.09030977 0.14549626 -0.04475186 -0.034911 0.06730556 -0.02592692 0.06758515 0.093282
-0.113585785 0.025801105 -0.06542822 -0.019178573 -0.036238328 -0.03930829 0.034265764 -0.10436111
-0.045232378 0.10603762 0.13516389 -0.117108375 -0.06211611 0.085348204 -0.11328063 -0.10511435
0.0026317763 -0.024690317 0.06587602 0.066724464 -0.022692816 0.13710298 -0.015252128 0.03603549
-0.12795225 -0.08943255 0.03131038 -0.03614808 0.109542005 0.09035399 -0.07170973 0.13031495
-0.063567944 0.020975577 -0.028718727 0.108028 -0.020433286 -0.04603183 0.13842474 -0.14203665
-0.14878394 0.11219818 -0.12468709 -0.08026637 0.11225654 -0.09240555 0.10498426 -0.008854175
-0.08708094 -0.010678908 -0.09439923 0.1300005 -0.11377731 0.07469392 0.06637695 0.09495136
-0.034510456 0.081186526 0.1429546 0.10555136 -0.00049031747 0.033560358 0.06609508 -0.05857063
0.0647355 0.07230319 -0.011345913 0.08275053 -0.093203075 0.0029867254 0.067173265 -0.11365485
0.076257534 0.03887821 0.0049807136 0.12175947 0.043169446 0.1514325 -0.075761944 0.029059948
-0.07356409 -0.032150157 0.05198454 -0.037715062 -0.12148082 -0.08968933 0.09973923 -0.021234717
-0.023198754 -0.12593812 0.11355623 -0.10267711 -0.11457706 -0.14072695 0.088822976 -0.01886879
-0.03906445 -0.13395719 -0.054814983 -0.12746964 0.052294195 0.009368842 -0.09274082 -0.13989535
-0.130468 -0.10470779 0.01915501 -0.071809806 0.05244264 -0.14167893 -0.122548334 -0.13291182
-0.09205794 0.012596078 0.07785125 -0.049433786 -0.018078592 -0.12275522 -0.05518344 0.117753
-0.111547515 -0.049947344 0.14492981 0.050978407 -0.124974445 0.10543199 0.1398689 0.0031454265
-0.10153331 0.026555082 -0.16371445 -0.041357987 -0.12427607 0.074375354 0.00631764 -0.13887805
-0.019554563 -0.02749645 0.0048754606 -0.050177675 -0.11354807 0.047961414 -0.07653699 -0.038559724
0.102220036 0.052544393 0.090420954 -0.011590371 0.12565917 0.11702949 0.0677455 -0.17553653
-0.010854378 -0.03555216 -0.15420818 0.046955545 0.013531943 0.11864949 -0.11096394 -0.037191994
-0.0149911 -0.0016337354 -0.013139034 0.07506202 -0.025411861 0.1175582 0.059407476 0.050673544

fc2.weight f4 [256, 256]
00000000: 952d 0ebd e253 323d 4068 c5bc 37a0 00bd
00000010: 2d09 2e3c d4fa fc3c 5020 86bb 61d2 673d
00000020: b927 7dbc f04e 563d ee46 4f3d 1290 b9bc
00000030: d440 2cbd cffd cd3c ace9 e73c ad69 62bc
00000040: 3687 b93c 9fc3 d93b c723 42bc a18b 1dbd
00000050: 77e5 c73c a8ba 233d daec b33a 3d23 1f3d
00000060: 0c1a e33c 2e2a 74bd b024 c9bb 6781 c4ba
00000070: 6f7f 2d3d 39c6 2b3d 64e0 d03c ee13 33bd
00000080: 53b1 e53c a911 c6bc 00b2 973b c0fc 2cbc
00000090: 6ac8 0a3d 3096 72bd 1b95 9b3c 5c1e 80bc
000000a0: 823f c3bc 4e07 f2b9 e228 3a3d 7ce1 83bc
000000b0: 48cf 373c ca36 19bd 5644 1b3d 3a42 3d3d
000000c0: ff63 0dbd 6cdf 6dbd 920b 47bd 8805 9a3c
000000d0: 9cae 603d d909 a63c 71b3 3fbd 738b 7cbc
000000e0: 795b 4a3d e36e 16bd a52f e83c 5a9f 76bd
000000f0: 2659 943c 3bbd 423b 16d6 0f3d f0d4 c0bc
00000100: cd4d 283d 40e6 8f3a ed25 8f3c 7f7e 453d
00000110: 5fc7 3abd 7b3f 85bd 24a8 203d ddbb bf3c
00000120: 4258 453d 2964 033d 665b 43bd 40fc fdbb
00000130: 003b bb3c 48a7 9ebc 4f46 c8bc 5089 b3bb
00000140: db96 70bd 0f67 533d 819f 423d 4607 06bd
00000150: 7b60 f2bc d8ce 27bc 9c3d 013b 1f70 1e3d
00000160: 785c 1dbd b3bf 98bc 5a2b 55bd 94b2 06bc
00000170: e8f2 0bbc 10c7 4fbb c554 5bbb 938b 043b
00000180: 6811 e33c 75b6 483d 1616 083c 6806 9f3c
00000190: 7129 683b 4cdd 5e3d a094 17bc 53e7 b5bc
000001a0: 12ca f0bc 7e27 c7bc db8a 2a3d 1850 3b3c
000001b0: 469a 4bbc 8a55 143d 234e 13bc 5db6 7ebd
000001c0: 6a14 74bd 54f1 1dbd 6020 2abd 640e 40bd
000001d0: e4b8 d33b b105 32bd c05f 14bb 164d 983c
000001e0: fa63 833c 7fff 11bd 5f87 babc 9060 81bd
000001f0: fd99 f8bc 8f29 4b3d 8a86 dcba e731 c63c
00000200: 6037 df3b 4d13 653d 20d6 45bd 3a28 f53c
00000210: 8bb0 4cbd 3058 f4bc 788d 203d 3714 2e3d
00000220: 9e4b fa3c bd5d 8c3c 103a 573c 03c2 563d
00000230: 502a 32bd 27ef 073d e3ab 32bd 6d01 bfbc
00000240: c488 d4bc affb e13c 6f08 e0b8 42e9 493d
00000250: 6240 343d ba6e f7bc f564 60bd c4fa 643d
00000260: f89c 103d 2d22 7f3c 7dbf 743c 4da6 4dbd
00000270: 2387 5ebd 38bd ea3c 7ca8 87bc 0046 2f39
00000280: 2a85 233d 6f32 3f3c 3a18 ca3c 4519 17bd
00000290: 55ca debb 0ccc f8bb ad84 fd3c 06dc cf3c
000002a0: d957 173d 7701 36bd 9297 283d c27c 20bd
000002b0: f419 b43c 7bc3 513c 2d2d 12bd 2364 23bd
000002c0: 30c7 b7bb a418 643d f936 8cbd 68de 0dbc
000002d0: c40b 0d3d bce3 41bd 2436 6ebd 80d5 b0ba
000002e0: 990c 6a3c 709c 143c 3171 5bbd 5664 48bd
000002f0: 1bde cebc 267a 7dbd e0f2 e8ba 8476 683d
00000300: cea1 5abd 0705 66bd 06de 613d d441 003d
00000310: 12f5 50bc 8f63 df3c 8829 47bc 7856 183d
00000320: 8c3c 543d 1de0 323d 8ac5 533d 6159 5c3d
00000330: d491 febc 80f4 ccbb 1782 9ebc 1b0b 923c
00000340: 7cf8 5dbd 1a25 733d 06f4 343d c2f1 5fbd
00000350: 1c73 bf3c 2743 e53c 2481 99bc ec73 7bbd
00000360: 64e8 663d 76ba 09bc d9d1 8a3c fecc 79bc
00000370: b2b5 fc3b cff8 fdbc bdf0 a63b 823d 78bd
00000380: 2ddc bc3c 976d 183d 5b7c c1bc 04ec 1e3d
00000390: 022e 5e3d 21b2 0b3d 00cd 053d 1ffd 6bbd
000003a0: ef8c 13bd 56ac 78bd b938 5bbd ebef 0b3d
000003b0: 430b 1c3c 02cb 073d 63b3 7ebc 059a 63bd
000003c0: 3225 7dbd 06d9 21bd 6068 4b3c 73cd 163d
000003d0: a0b5 0bbb cd63 86bd 110a 83bd ced2 123d
000003e0: 893c 253d 0b98 523d b884 6fbd a959 5cbd
000003f0: 961e 293d 0c20 71bd bcd6 303d b12a 8dbc
-0.03471144 0.043537028 -0.024097562 -0.031402793 0.010622305 0.030881323 -0.0040932074 0.056597117
-0.015451365 0.052321374 0.050604753 -0.022651706 -0.042054012 0.02514544 0.028309666 -0.01381914
0.022647481 0.0066456343 -0.01184935 -0.03846324 0.02440141 0.03997293 0.0013727203 0.038851965
0.027722381 -0.05961054 -0.0061384067 -0.0014992178 0.04235786 0.041937087 0.025497623 -0.04372018
0.028038656 -0.024178343 0.0046293736 -0.010558307 0.033882536 -0.05922526 0.018991997 -0.015639476
-0.023833994 -0.0004616328 0.045449145 -0.01609873 0.011218853 -0.037405767 0.037906967 0.046205737
-0.03451919 -0.0580744 -0.04859502 0.018801466 0.05485402 0.020268368 -0.046801988 -0.015414107
0.04940364 -0.036726844 0.028343031 -0.060210563 0.018108916 0.002971484 0.035116278 -0.023539037
0.04108982 0.0010978654 0.01747414 0.04821634 -0.04560029 -0.065062486 0.03922285 0.02340501
0.048179872 0.032077942 -0.047694586 -0.007751018 0.022855282 -0.019366875 -0.024447588 -0.0054790154
-0.058737617 0.051611956 0.047515396 -0.03272178 -0.029587021 -0.0102421865 0.001972056 0.038681146
-0.038418263 -0.018646097 -0.052043296 -0.008221287 -0.0085418 -0.0031704344 -0.0033467275 0.0020224794
0.02771826 0.04900213 0.008306047 0.019412234 0.0035425092 0.054410264 -0.009251744 -0.02220503
-0.02939323 -0.024310824 0.04163633 0.01143267 -0.012426918 0.03621439 -0.008990797 -0.062185634
-0.05958978 -0.038560227 -0.04153478 -0.046888724 0.0064612497 -0.04346246 -0.002264008 0.018591445
0.016038883 -0.03564405 -0.022769628 -0.06317246 -0.030346865 0.04960018 -0.0016824764 0.024193717
0.006812021 0.05592661 -0.04829991 0.029926408 -0.049973052 -0.029827207 0.039197415 0.042499747
0.030553635 0.017134542 0.013136402 0.052431118 -0.043497384 0.033187058 -0.043620955 -0.02331611
-0.025944121 0.027585832 -0.00010682723 0.049294718 0.044006713 -0.030204166 -0.05478378 0.05590321
0.035305947 0.015572113 0.0149382325 -0.050207425 -0.054328095 0.02865468 -0.016559832 0.00016715378
0.039921917 0.011669739 0.024669755 -0.036889333 -0.006799022 -0.0075926837 0.030947054 0.02537347
0.036949012 -0.04443499 0.041160174 -0.03918148 0.021985032 0.012802954 -0.035687614 -0.03989042
-0.005608462 0.05568756 -0.06846423 -0.008658983 0.03443505 -0.047336325 -0.0581571 -0.0013491362
0.01428523 0.009070501 -0.053574745 -0.048923813 -0.025252393 -0.061884068 -0.0017772578 0.05675365
-0.053376965 -0.05615714 0.05514338 0.03131278 -0.012753742 0.027269153 -0.012155898 0.037191838
0.051815554 0.043670762 0.05170206 0.053796176 -0.031075396 -0.0062547326 -0.019349141 0.017827561
-0.05419205 0.059361555 0.04417803 -0.054673918 0.023370318 0.027986122 -0.018738337 -0.06138985
0.05637397 -0.008406272 0.016945766 -0.015246628 0.0077120895 -0.03100243 0.005094616 -0.060605533
0.023054207 0.037213888 -0.023618868 0.0387993 0.054243095 0.034105424 0.032666206 -0.057614442
-0.036023077 -0.060711227 -0.05352089 0.03416435 0.009524169 0.033152588 -0.015545699 -0.055566806
-0.06180305 -0.03951361 0.012415022 0.036817025 -0.0021317974 -0.06562004 -0.063984044 0.03584557
0.040340934 0.05141453 -0.05847618 -0.053796444 0.041288935 -0.058868453 0.043173537 -0.01723227

fc2.bias f4 [256]
00000000: d2d7 cdbc f4ef 66bd ec58 d13c cdf8 55bd
00000010: 7bc8 1a3d 7713 9dbd 7666 07bc 8fe0 4c3d
00000020: 394a ca3c a244 67bd 0c09 a23a e90b 5ebd
00000030: 0750 04bc 3273 04bd 7584 153a 00b8 7cbd
00000040: f17c 15bd 11c9 75bd 1be0 583d b2cd 72bd
00000050: 2232 68bd 3235 37bd 9997 143d ca3a 323d
00000060: da92 40bd ecde f4bc 888d 203d 33fc 5dbc
00000070: 01c3 5eba d108 4fbc da94 943c 1c4a 35bd
00000080: a34b 3ebd 6edc b53b 1f57 ff3b 7364 bc3b
00000090: f879 1dbd 094d 5a3d 2ce1 acbc 0047 6bbd
000000a0: 1623 81bc 2e78 293d 28cf 58bc 4e39 1fbd
000000b0: 8fe1 5bbd d69f 75bd bfc6 dabc b54c 513b
000000c0: 1479 0ebc 9db3 85bd 1467 76bb 23ce 683c
000000d0: fcb0 6cbd 6c39 f33c 26d0 64bc 3089 b7bb
000000e0: b8d3 863c 4e6f 5cbd a2a2 273c cc43 233d
000000f0: b4f5 553d bc8a f73c 1556 cb3c 0869 3fbc
00000100: 37d7 c7bc 030e 0abc 266e 69bc 506c f73b
00000110: d7eb 083d 5f57 d6bc 5f26 2f3d b417 a93c
00000120: 9010 eb3c 3b06 473d 790a 1d3d 2e9d 1a3d
00000130: 33ab b33c f7a6 373d 6e34 5b3d a266 203d
00000140: 90a0 703d f14d 533c 0e67 253d 817f 80bd
00000150: c2ae 5f3d 0607 543d 333d d1bc 3ee9 393c
00000160: 1ef3 38bd 987c 623a 6e38 d4bb afd8 363d
00000170: ea30 8abd e1e9 a13c 6b29 adbb d7b4 3d3d
00000180: 7543 123d 0a16 733c ce5d 82bd 490c b33c
00000190: d410 c63c 4c5c 3bbd e42c 69bd 584f c7bc
000001a0: 5282 04bd 8907 313d fbd2 ec3b e0c0 3f3b
000001b0: d87e a2bb e0f4 eebc 6247 5b3c 6e5b 5dbd
000001c0: 8778 00bd 6592 613d 8f8e 4e3a 2084 cfbc
000001d0: f82a e03c 2c23 65bd 88a7 53bc e42d 4e3d
000001e0: 006c 64bd 0f52 35bb 1204 e73c c011 e5bb
000001f0: 4837 aebc d80f 733d f4e7 c4bc 005a 70bc
00000200: 56e7 28bd edb7 683c b2a3 25bd a190 fabc
00000210: 40e9 a63c 0e2e 173d 109c acbb 8657 893c
00000220: 1316 1d3d 3d01 813c ec7b 0cbd 470b 7dbb
00000230: 57f7 1f3d 44ce 343d 11c3 fb3a d755 c73b
00000240: ee86 873c 1d39 fe3a 0f9d 21bd 0146 0d3d
00000250: 6263 d0bc 8e29 5bbd b259 2bbd 6ef5 6a3d
00000260: 5ab2 203d 00c7 08bb 7ade f83a 26fe 353d
00000270: f741 e4bc 7237 4abd 16af 09bd 392d 9cbd
00000280: 1425 8cbd 7332 463d df00 973c bd50 37bc
00000290: 3de3 343d 4909 4cbc 879c d03c a489 13bd
000002a0: 85de ca3c b10b 2a3d 0933 f13c 19c4 703d
000002b0: e29f e1bb e819 fd3c bf05 703d fe2d d5b9
000002c0: 92fd 2bbc 6269 f6bc e023 ebbb 0c4b fe3c
000002d0: 565a ac3c 9478 d9bb 0867 8bba 83ac aaba
000002e0: 8d83 68bd b4df 083c c941 c6bc d4d3 05bd
000002f0: bcf4 95bc 3145 32bd f7b6 533d 645e 3abd
00000300: 80a7 e6bb 6b73 82bd 5b3a d93c 3874 b03b
00000310: 60b4 013d 62e2 8fbc f4bf 0ebd a898 75bd
00000320: cefa 483c b918 6abc 0b03 ffbc e6ef d43c
00000330: 1113 1a3d 82cd 533d f752 583d 076b b1bc
00000340: 292a d1bb ce05 01bc a758 4a3d acf6 ebbc
00000350: 7161 463d 044c 473d cf75 81bd 796c 83bb
00000360: 4eb9 d23c 73e0 633d 5e5e 29bd eef2 713d
00000370: a012 5cbd 13ea 78bd 19ea ba3c 7787 713c
00000380: a515 a13c c391 683c b278 793d 1069 983c
00000390: 673c 46bd 055e 7fbc a9f2 633d 1931 57bd
000003a0: 16eb 40bc f7f6 45bd 624a 763b 14b5 3fbd
000003b0: eb49 403d 9b94 263d 000d a5ba 206d 67bd
000003c0: 8d85 17bd 04f0 a0bb 095b ec3c 47ff 6cbd
000003d0: 8722 97bc 9b47 473d f7de 16bc 3c02 78bd
000003e0: c89b 783c 835f 3d3c bf19 62bd 023a 4f3d
000003f0: 142b 243d dd47 063b 7249 16bd 573a 533c
-0.025127325 -0.05638118 0.025555097 -0.052239228 0.03778885 -0.07669728 -0.008264175 0.050018843
0.024693595 -0.056461938 0.0012362315 -0.054210577 -0.008075721 -0.03233642 0.00057036366 -0.061698914
-0.036496107 -0.060006205 0.0529481 -0.059278198 -0.056688435 -0.044728465 0.036277387 0.043513097
-0.04701505 -0.029891454 0.039197475 -0.0135488985 -0.0008497686 -0.012636379 0.018137384 -0.04426013
-0.04645885 0.005549959 0.007792368 0.005749279 -0.038446397 0.053296123 -0.021103464 -0.057440758
-0.0157638 0.041374378 -0.013232984 -0.03887301 -0.053681906 -0.059966885 -0.026706098 0.003193659
-0.008695859 -0.06528399 -0.003759806 0.014209303 -0.057785973 0.029690467 -0.013965642 -0.005601071
0.016458377 -0.053817086 0.010231646 0.039859578 0.052236274 0.03021752 0.02482132 -0.011682756
-0.024394615 -0.008426192 -0.014247453 0.0075507537 0.03342804 -0.026164709 0.042761203 0.020641185
0.028694421 0.048589926 0.038340066 0.037747554 0.02193222 0.044836964 0.053516798 0.03916038
0.058746874 0.012897001 0.040381484 -0.062743194 0.05461002 0.05176451 -0.025541877 0.011347113
-0.04515373 0.0008639782 -0.0064764535 0.04464024 -0.06747611 0.019764842 -0.0052844784 0.04631504
0.035708863 0.0148367975 -0.06365548 0.021856444 0.024177946 -0.045742318 -0.056927577 -0.024329826
-0.032350846 0.043220077 0.0072272993 0.002925925 -0.0049589686 -0.0291695 0.013383718 -0.054042272
-0.031364944 0.055071253 0.0007879519 -0.025331557 0.02736424 -0.055941746 -0.0129183605 0.050336733
-0.05576706 -0.002766732 0.028200183 -0.0069906414 -0.021266595 0.05934128 -0.024036385 -0.014669895
-0.041236244 0.014204008 -0.040439315 -0.030586543 0.020374894 0.036909156 -0.0052676275 0.016765367
0.03835113 0.01574766 -0.03429787 -0.0038611458 0.03905424 0.044142023 0.0019207915 0.006083231
0.016543832 0.0019395683 -0.039456423 0.03449059 -0.025438014 -0.053506427 -0.041833587 0.057362966
0.03923259 -0.0020870566 0.0018987202 0.044431828 -0.027863486 -0.049369283 -0.03361424 -0.07625813
-0.068430096 0.048387956 0.018433033 -0.011188683 0.044162024 -0.012453386 0.025465263 -0.036019936
0.024764309 0.041515056 0.02944328 0.058780763 -0.0068855146 0.030896142 0.05859923 -0.00040660793
-0.010497468 -0.030079547 -0.0071759075 0.031041645 0.02103917 -0.0066366885 -0.0010635564 -0.0013021383
-0.05676608 0.008354116 -0.02420129 -0.03267272 -0.018305175 -0.043523017 0.05168816 -0.045500174
-0.0070390105 -0.063696705 0.026517084 0.005384948 0.03166616 -0.017564002 -0.03485103 -0.059960037
0.012266828 -0.014288121 -0.03112938 0.025993299 0.03761584 0.05170966 0.052813496 -0.02165748
-0.0063831997 -0.007874919 0.04940095 -0.028804146 0.04843277 0.04865648 -0.06321298 -0.0040107337
0.025723126 0.055633973 -0.04134976 0.059069566 -0.0537287 -0.060770106 0.022816705 0.01474177
0.019663641 0.014194909 0.06090612 0.018604785 -0.048397448 -0.015586381 0.05565134 -0.052537058
-0.011774799 -0.048331227 0.0037580957 -0.04680355 0.046945494 0.040669065 -0.0012592375 -0.056500554
-0.0369926 -0.0049114246 0.028852003 -0.05786064 -0.018449081 0.048652273 -0.009208432 -0.060549006
0.01517386 0.011558416 -0.055200335 0.05059243 0.040080145 0.0020489611 -0.036691137 0.012892327

fc3.weight f4 [256, 256]
00000000: 5aed 663d bd8b 8cbc 5334 2d3d 9c6a 483d
00000010: c118 3b3b 26fe 473c 84fd 2f3c 6d49 a1bc
00000020: c20c a13c 60e9 49bd bc8c 123d 5fe2 4f3d
00000030: f913 9f3c dc65 c3bc 4cd9 413d c0d3 58bd
00000040: 5ca8 173d 277a e13b 4a87 8fbd 681f 13bc
00000050: c994 00bd 3a7d 083d bdf8 2a3d 2373 c6bb
00000060: 3453 8c3c 825e 2bbd 0463 303d e021 6bbd
00000070: 621a 81bd 3561 ce3c 1a8b 193d 90f2 38bc
00000080: 8b2b 46bd 735b 3f3d 9e08 55bd 5340 91bd
00000090: 0ed3 2bbd 5496 07bd b2d6 67bd f4fa 5b3d
000000a0: c0c1 aa3c 2ced 1fbd 40cb 82bc fa1b 143d
000000b0: f8f3 efbc 7022 0bbc 614c cc3c dcc8 183d
000000c0: 0001 363d 5de8 2dbd 92e6 5bbd 6107 593d
000000d0: 343d fabc 0f93 fe3c 495f 09bd c375 0f3c
000000e0: e371 67bb 424d 04bd a891 013d d3da 44bd
000000f0: d078 a2bc 5c7a bcbb 3afb 8abc 55a7 c8bc
00000100: db73 003d 3a20 72bb 2e66 88bd c0cc 45bc
00000110: 580b 21bd d817 c93c 7f51 0cbd 080a 363d
00000120: 2f48 14bd c9df 623c 3922 5c3d d0d5 9abc
00000130: c9a5 7bbc 3657 5abd 8792 3f39 8cb5 16bd
00000140: 3ecc dbbc affc 7cbb 12ab 70bd 36e1 963c
00000150: 6c88 a9bc 0112 813b b901 1abb ecd1 6cbd
00000160: caed 71bd 3d6b 3f3d a964 5dbb a8cc cbbc
00000170: df80 083d df23 6a3c dc43 223d 2626 59bc
00000180: 7692 0d3d 6c5d a23c 4f71 c3bd f1b1 13bd
00000190: 81d9 84bd 62dc 3e3c ac92 603c 2b22 c4bc
000001a0: f10a 5cbd ad49 4a3d bc85 95bd c05e dbbc
000001b0: 097c ac3b 07ac 233d 8592 f43c 80f8 663b
000001c0: 15e3 73bc 7431 0f3d 3b1e 34bd 3935 5a3c
000001d0: d3c5 2abd 509e 11bc a870 0c3d 6f8e c13b
000001e0: 6b8d b0bc 69f0 a1bd 8ed0 043d 3a4d 49bd
000001f0: 709f c9bc 8646 c4bd a3af 06bd b327 98bc
00000200: 4e62 54bd 1bbe da3c aea2 4bbd dbce 893c
00000210: ec9b 10bc 0f2b 00bd 544c 163d b772 ec3c
00000220: 7f09 283d bcea 243d d82a 7d3d a947 c03b
00000230: b307 433d 53bf babc fa27 5bbd 4896 cf3c
00000240: 5622 563d d57f 12bd e9ce eebc e1cc a93b
00000250: 96fb f9bc 28bd 08bc b884 efbc ae8f 4d3d
00000260: fb76 2a3c 602e db3b 4091 56bd 8b22 29bd
00000270: 2ff4 cebb 1a52 3a3d 2b41 333d 8dcf 94bc
00000280: 181e 1abc 21d8 84bc 3ebb 193d 86fd 403c
00000290: e9b1 393d ae90 4ebd ef6e ad3c b4de 2e3d
000002a0: 9453 d3bc 5659 efbc a8ac 80bd d3a5 16bd
000002b0: 3126 323d f7a4 17bc d53e 52bd 36e7 a53c
000002c0: 0f7f 60bd e312 89bd 9ed0 7f3d ee37 d4bc
000002d0: e2b3 ff3c 2640 2c3d 1408 f93c 2337 21bc
000002e0: 072c a4bc 482f 813b 6672 71bd d006 bc3b
000002f0: 5a75 3ebd 5b94 823c 9cde cd3c 64ad 143d
00000300: a85d b03c 442c 5d3d e327 1cbc 14c2 99bc
00000310: c2d3 debc bf77 37bc 237e 72bd 4477 cf3c
00000320: fa35 b4bd 0d1a c03c fba6 15bd d448 123d
00000330: 7048 87bd 5b7f 61bd 9772 f03c 5bf0 97bd
00000340: 3e9d bb3c 0960 163d 3450 2b3d e00a 5a3d
00000350: 8fe3 1c3b 0de0 17bd 3730 563d a131 273d
00000360: b144 89bd 14f2 03bb b80f bd3b 955e 053c
00000370: 94eb 843c 9710 03bd ba14 5fbd ef35 d73c
00000380: 8f6e 4ebd 849d 74bc 9f1a d9bd 91d5 24bd
00000390: ff04 1a3d b75b 31bd cb14 8abc ea46 013c
000003a0: 4119 a5bc 6fb7 9dbc abdb 3e39 aa2e 33bd
000003b0: 440f 4dbd b29b dabc 5005 833b dbff 833c
000003c0: 6007 56bd d5d8 99bc b5cf 3a3d 9a13 573c
000003d0: 5f1b 3cbc a33a 0a3d 0e53 b4bc 2c3f c23c
000003e0: 26a8 083d 720c 6fbd 9582 52bd c1de 37bc
000003f0: a0e1 433d f578 0bbc da67 873d 7d7c e53c
0.0563787 -0.017156476 0.04228623 0.048929796 0.002854869 0.01220659 0.010741595 -0.019688332
0.019659404 -0.04929483 0.035778746 0.050752994 0.019418703 -0.023852281 0.04732637 -0.052936316
0.037025794 0.006881017 -0.07008226 -0.008979656 -0.031391893 0.03332255 0.04174112 -0.006056206
0.017129518 -0.041838177 0.04306318 -0.057405353 -0.0630386 0.025192836 0.037486173 -0.0112883
-0.04838137 0.046718072 -0.05201017 -0.07092347 -0.041949324 -0.03310235 -0.056601234 0.053706124
0.02084434 -0.039044544 -0.015966058 0.036159493 -0.029291138 -0.008492097 0.024938764 0.03730093
0.044434547 -0.042457927 -0.053686686 0.052985553 -0.030546762 0.031075982 -0.033538137 0.008756104
-0.0035315685 -0.03230024 0.03163305 -0.04806025 -0.019832999 -0.005751891 -0.016965497 -0.024493853
0.03136049 -0.0036945478 -0.06660114 -0.012072742 -0.03931746 0.024547502 -0.03425741 0.04444316
-0.036201652 0.0138473 0.053743575 -0.018900782 -0.0153593505 -0.053305827 0.00018269765 -0.03679423
-0.026830789 -0.003860276 -0.058756895 0.018417936 -0.020694934 0.003938914 -0.0023499562 -0.057817385
-0.059064664 0.04673313 -0.0033781922 -0.024877861 0.033326026 0.014290779 0.039615497 -0.013253724
0.034563504 0.019819938 -0.09543096 -0.03605837 -0.06486798 0.011649223 0.013706844 -0.023942074
-0.053721372 0.04938667 -0.073008984 -0.026778579 0.0052638096 0.03995898 0.029855022 0.0035243332
-0.014885684 0.03495927 -0.043974143 0.013318353 -0.041692566 -0.008887842 0.034287125 0.005906872
-0.021551808 -0.07907183 0.032425456 -0.049145915 -0.024612159 -0.09583764 -0.032882344 -0.018573618
-0.051851563 0.026701977 -0.04971569 0.01682227 -0.008826237 -0.031291064 0.036693886 0.028863294
0.04102468 0.040262923 0.061808437 0.0058679176 0.047614764 -0.022796309 -0.05350492 0.025340214
0.05227884 -0.03576644 -0.029151397 0.005181894 -0.030515473 -0.00834588 -0.02923809 0.05018585
0.010404344 0.006688878 -0.052384615 -0.04129271 -0.00631573 0.045488454 0.04376332 -0.018165374
-0.009406589 -0.01621634 0.037532084 0.011779195 0.045335684 -0.050430946 0.021171061 0.042692855
-0.02579669 -0.029217403 -0.062829316 -0.036779236 0.043493453 -0.009255639 -0.051329453 0.020251852
-0.054808673 -0.066930555 0.062454812 -0.025905576 0.031213704 0.042053364 0.03039936 -0.009839806
-0.020040525 0.003942404 -0.05894699 0.005738117 -0.046498634 0.015939882 0.025130562 0.03629817
0.021529034 0.053997293 -0.009530994 -0.018769301 -0.027200583 -0.011197983 -0.059202325 0.025325425
-0.08799358 0.023449922 -0.036536198 0.035713986 -0.06605613 -0.055053096 0.029351516 -0.07418891
0.022902127 0.03671268 0.041824535 0.053233027 0.0023939346 -0.037078906 0.052292075 0.040818814
-0.06702555 -0.0020133303 0.005769696 0.008140226 0.016225614 -0.031998243 -0.054463126 0.026270835
-0.050398406 -0.014930133 -0.10600781 -0.040242735 0.03760242 -0.043300357 -0.016855618 0.007890442
-0.020153644 -0.019252507 0.00018201645 -0.043745674 -0.050063387 -0.02668557 0.003998436 0.016113212
-0.052253127 -0.018780151 0.04560824 0.013127232 -0.011481135 0.033747327 -0.02201226 0.023711763
0.033363484 -0.05836148 -0.051394064 -0.011222542 0.047822595 -0.008512725 0.06611605 0.028013462

fc3.bias f4 [256]
00000000: 352f d33c b277 583c 9b01 58bc 4c85 e33b
00000010: a8f4 56bd 19f3 0a3d a946 d8bc ce03 0fbd
00000020: 34bc 65bd 27aa 0dbd 71a0 843c ffd0 383d
00000030: 29ef 1dbc 0b88 023d dabd 48bd 897d 193c
00000040: 0f9b 63bb 4aeb 1d3c 0d1a a7bb 9b3c 263d
00000050: 666d 873d 6e1d 8abc a38f d63c 59b0 9cbc
00000060: 21a8 133d 7a09 15bd 490b 30bd 381f 603d
00000070: aa79 403d 3427 72bd 7e04 1b39 2ffe 743c
00000080: 00f1 0fbd a1c9 0e3d d422 a7bc e61c 28bd
00000090: 3e04 57bd 799e 24bb 5c99 2cbd 8663 aa3c
000000a0: 2062 03bd fc7a 523d 1d94 18bc 6865 8cbd
000000b0: 72c4 09bd 7f9b 18bc 150a 743d 90b4 383d
000000c0: b8bf f53c e517 673d da6e 6f3d ec70 813d
000000d0: a24f 413d 374a 2c3d 5aa5 45bd 504a a1bc
000000e0: 5f08 5f3d ced8 27bd b456 333d 0050 5b3c
000000f0: 5c4e 17bd 8e0a 5c3d dc92 4bbd d607 b93b
00000100: 7d69 203c 06d7 e33c 6837 46bc 409f db3c
00000110: f10d 203d 83ec c33c ba48 10bd 07ef 803c
00000120: 028b 9c3c 0ce6 383d ca4a 51bd dc2c 65bd
00000130: 9232 0d3d 5382 f63c ca3d 32bd 6010 f9bb
00000140: 0ae1 4abd af16 fcbc 66ea 67bd 8ff0 45bc
00000150: 93c4 b9bc 1a95 393d b12d 313d e400 63bd
00000160: 4559 cebc 9f44 843c 2052 653d a5fe 603c
00000170: 9193 3cbd dc53 e0bb 1021 38bd 78b1 bfbc
00000180: fb37 fd3b 2386 0dbc bc93 5abd 4f15 3cbd
00000190: 56df 4c3d d1e2 e4bc 671c 2f3d 004b 4abd
000001a0: a855 c8bb 4815 803d 0da6 503d fcb1 683d
000001b0: b898 f0bc 60e1 8d3d b66e 613c 3b89 74bc
000001c0: 4b04 183b a182 173d a662 52bc 39bb e3bb
000001d0: f9af 0ebd eb43 81bd e776 7f3c 96bb c9bb
000001e0: b9b0 35bb 5888 203d d8c2 0ebd cf9d 7fbd
000001f0: 5553 ec3b 3225 15bd fdaf 593d 73dc 193c
00000200: ec86 54bc 7da2 013d c11b e6b9 f0dc 86bc
00000210: 7e01 743c 5fb6 b3bc 5864 57bb dde9 4cbd
00000220: 0f2f 8d3d 69ca 67ba a08d b23c 4c86 573d
00000230: 7e74 933c 2724 3fbd fe57 853d f2cb 843c
00000240: d860 2fbd 6d30 81bd 174b 4fbd ab56 ba3c
00000250: 4138 473d 5b9b 41bd 2efa 463c 5d0f e33c
00000260: 7520 4cbd 0215 243d 2ce6 663d 7612 003d
00000270: 3d50 8f3c db24 1fbc 6fab 4a3d 5e69 3c3a
00000280: 16d4 703d 383f 6a3c 30b3 5cbd 1c8c 1b3d
00000290: faa2 8c3c b965 8d3c 2a07 623d 72d5 10bd
000002a0: 6415 0e3d edf2 7f3d 22f9 3abd 5890 abbc
000002b0: 4226 213d d8cd 7dbd fa42 5bbd 5c05 30bd
000002c0: 182b b53a 62b7 473d a4cb 60bd 1d90 29bc
000002d0: 9286 0a3b 9a23 85bd 2f42 df3b 384b 2b3c
000002e0: 21d3 0bbc cee5 3bbd 1650 2c3a 51dd ff3c
000002f0: 28fb 39bd 3cb6 4ebd f30d eb3c 7e5f 66bd
00000300: 9949 a33c 0c83 84bd 1753 333d 9eff 6a3c
00000310: f4db b5bc b341 9b38 02d8 e13c 619b 7a3d
00000320: 7e03 39bd e316 1f3d 4a93 3ebd 0092 4abd
00000330: 577a a93b c67e b4bc 5913 213d b10d 80bc
00000340: 0646 f2bc 4cdd bc3b 8859 223d 483f 7cbd
00000350: 62a0 cb3c fe0d 60bd c293 883b 1869 73bd
00000360: c4cc 5c3d 74a3 3a3d 7c0f 303d 522b 7fbc
00000370: c85f ff3c 808b 3d3d fa83 aebc 2812 c33c
00000380: 5327 393d 0a90 503d 0ea3 923c 6263 7dbd
00000390: 9260 65bd 5895 b73b 94ee 58bd 433c 3f3d
000003a0: 6b79 9f3c f078 da3b e91a f3bc 5f0e 28bc
000003b0: 0379 093d 3e38 9cb8 9b80 1f3c a66c 68bd
000003c0: 443a a53a 6983 2bbd 3fdc a5bc 45ff 973b
000003d0: 50ea 6dbc eade 343d dc57 76bd 2dcf 1ebc
000003e0: 584d 6ebd 71bd 233c 247e 9f3c ee4a 313c
000003f0: 70bc 04bd e288 32bd 5ac8 3ebd edbc e4bc
0.025779346 0.013212131 -0.0131839765 0.0069433805 -0.052479416 0.033923242 -0.02640088 -0.034915738
-0.056087688 -0.034586098 0.016189786 0.04512119 -0.00963954 0.031868022 -0.04900918 0.009368309
-0.0034729873 0.009638617 -0.005099541 0.04058514 0.06612663 -0.016859736 0.026191538 -0.019127058
0.036049012 -0.03638599 -0.042979512 0.054717273 0.046991028 -0.05911942 0.00014783625 0.01495318
-0.035141945 0.034860257 -0.02040235 -0.041043185 -0.05249428 -0.002511887 -0.042138442 0.02079941
-0.032076 0.05138682 -0.009312657 -0.06855279 -0.03363461 -0.009314417 0.059579927 0.045094073
0.029998645 0.056419272 0.058455326 0.06320366 0.047195084 0.042062964 -0.048253395 -0.019688755
0.054451343 -0.040978245 0.04378386 0.013385773 -0.036939964 0.053721003 -0.049700603 0.005646686
0.009790775 0.027812492 -0.012098171 0.026809335 0.039075796 0.023916489 -0.035225607 0.015738977
0.019109253 0.045141265 -0.051096715 -0.055950984 0.034472056 0.03009144 -0.043515958 -0.007600829
-0.04953102 -0.030772535 -0.056620024 -0.012081279 -0.022676742 0.04530821 0.043256465 -0.05542077
-0.025189051 0.016146002 0.055986524 0.013732587 -0.046039168 -0.0068459343 -0.044953406 -0.023400053
0.0077276207 -0.008637938 -0.053363547 -0.04591876 0.050017677 -0.027940186 0.042751696 -0.04938793
-0.0061137266 0.06254059 0.05093961 0.056810364 -0.029369697 0.069277525 0.013759306 -0.014925296
0.0023195918 0.03698981 -0.012840902 -0.006949809 -0.03483579 -0.063117824 0.015592313 -0.006156395
-0.0027723743 0.039192528 -0.034853786 -0.062406357 0.0072120824 -0.036412425 0.05314635 0.009390938
-0.012971621 0.0316491 -0.00043889697 -0.016462773 0.014892934 -0.021937547 -0.0032866206 -0.050027717
0.06893741 -0.0008842112 0.021796048 0.05261831 0.017999884 -0.046665337 0.06510924 0.01621053
-0.042816967 -0.063080646 -0.05060872 0.022746405 0.048637632 -0.0472673 0.012144608 0.027717287
-0.04983564 0.040059097 0.056371853 0.031267606 0.017494315 -0.009713377 0.049479898 0.0007187332
0.05879601 0.014297299 -0.053881824 0.037975416 0.017167557 0.01726042 0.055182613 -0.035359807
0.03468837 0.06248753 -0.045647748 -0.020942852 0.039343126 -0.061963886 -0.05353067 -0.04297386
0.0013822047 0.04875887 -0.054881707 -0.010349301 0.002113734 -0.06500931 0.0068133096 0.010454945
-0.008534224 -0.045873456 0.0006573213 0.031233462 -0.045405537 -0.05046676 0.028693175 -0.056243412
0.019932555 -0.06470308 0.043780413 0.01434317 -0.022199608 7.4032134e-05 0.02756882 0.061183337
-0.045169346 0.038840186 -0.046527185 -0.049455643 0.0051720547 -0.022033107 0.039325092 -0.015631529
-0.029574405 0.0057636853 0.039636165 -0.061583787 0.02485675 -0.054700844 0.0041680047 -0.059426397
0.053906217 0.045566037 0.042983517 -0.015574293 0.031173602 0.046275616 -0.021303166 0.023812369
0.045203518 0.050918616 0.017900016 -0.061862357 -0.0560003 0.00560252 -0.0529619 0.04668833
0.019467076 0.006667249 -0.029675918 -0.010257333 0.03356267 -7.4491356e-05 0.009735252 -0.05674424
0.0012605865 -0.04187337 -0.020246623 0.004638585 -0.0145211965 0.0441579 -0.060142383 -0.009692949
-0.05817923 0.009993897 0.019469328 0.010821087 -0.03240627 -0.043587573 -0.04657779 -0.027922118

fc4.weight f4 [2, 256]
00000000: e97f 01bd 0abc b1bc 1d44 51bd 07bf 56bd
00000010: 9c12 dbbc e5ff 813c 5685 8abc a0b6 4fbc
00000020: 1163 cd3c 92cc a13d 160b ddbc 5006 883d
00000030: 118c 9dbd e858 3c3d 147f c53c d520 aabc
00000040: 1ac3 173d fd60 543d 3aab dbbc 0057 093d
00000050: 2bbe 483d 4923 6abd a90f 653d 9a41 933d
00000060: 27e1 433c 43f0 b8bc e527 273d 347d 893c
00000070: f55f 093d 51a3 01bc 3b42 2fbd aceb e3bb
00000080: 7cfb 2abd 7b1b 53bd 2dd9 f4bc 3e6f 92ba
00000090: 1000 96bc f8a8 fdbb 186b 7f3d 31ff a1bb
000000a0: 30b5 f23c def4 f33b 25af c43c c046 833d
000000b0: 184f 393c 22a0 97bc 2df8 ecbc 5fe8 3ebc
000000c0: 23a1 5c3d c31b 833c 1aa1 643d 2d06 05bd
000000d0: 5c58 3ebc 0a4a 213d 4c34 57bd 9e0d 413d
000000e0: 154d acbc 58d4 01bd b38d 31bd 947c 22bd
000000f0: 0899 523c 3aa2 143d d25c a23a c2e4 5c3d
00000100: 28f4 68bd 9840 08bc 2c62 5c3d 8655 0dbd
00000110: 921d 753c 0e3d 9e3c 2019 52bb 5eab 443d
00000120: b3c5 0f3d e9a6 84bd d61b 7ebd b069 eebc
00000130: 2f92 30bd f5ab 7e3d 9da5 0c3d 009a 48bd
00000140: f8fb 98bc 1de4 37bc 786b d63c 4b80 633d
00000150: 06e6 ab3d bfad 77bc e61a b83c 34f5 00bd
00000160: 9ae0 58bd 8027 41bc a49e ae3c 678d cb3b
00000170: 0ab3 fc3c 2042 6b3d badc 793d cad0 39bb
00000180: 7917 573d c82a 4b3d 20c9 2ebc b5fe 363d
00000190: 8ea8 283d 2209 3dbd e705 113d b69b 763d
000001a0: 9333 48bc 038a 94bc f222 44bc 0bf0 203d
000001b0: 13c9 21bd b8b1 3b3d 9266 a3bb c511 6fbd
000001c0: e9d0 c1bc 1e23 e63c cb82 e9bc e3c1 533d
000001d0: 3b3c 293d b838 233d ed22 4f3d 4ee6 413b
000001e0: 717c a8bb 3ddb 59bd d388 2abd 2a53 f33c
000001f0: 71c9 d5bc ba2d 6fbd c728 0abd 334d 2bbd
00000200: ed28 d93c 3c27 c33c cdec 48bc 8174 3c3d
00000210: e536 293c b4e3 ff3c 9ce9 9ebc e955 debb
00000220: 2d81 623d b348 59bc 534c 30bc 81a9 ffbb
00000230: ad95 5dbd 5e70 073d ddd8 ce3b f990 48bd
00000240: 3229 60bd ca2f 22bd cb3d 693d 74f7 743d
00000250: 68cb 26bd 07b0 7f3c 0484 0bbc ca90 2cbd
00000260: 71ee aebb edff 483d 2337 893d 93a2 57bb
00000270: 1383 633d 06e5 b7bb 8342 4b3d 4512 24bd
00000280: 2195 4fbd 1036 45bc be64 34bd 91c9 d93c
00000290: 3d14 6cbd fc36 81bc 0273 6c3d e032 603b
000002a0: 5154 b8bc e904 f93c 7136 47bd 2738 f03c
000002b0: c68a dd3c e4a9 7e3c 706a 95bb f280 5d3c
000002c0: e872 093c b72f 0f3d b81b 413c 048c 19bc
000002d0: d51f 9d3d c26a d33d 9ac2 17bc 6625 2ebd
000002e0: 560a 41bd f8ed f33c 6d62 363d 41dd 6d3d
000002f0: 48e1 7c3c 18ca 32bd 7f94 b33b a864 6e3c
00000300: 88fa 8abd 876a 7b3d a1f9 463d e50f 4eb9
00000310: 5afa 303d 20cb 3fbd 6602 15bd 4d69 073c
00000320: ce52 33bd 7799 673c fb9a 1c3d 18f4 0d3c
00000330: 1049 8b3c 98e8 fabc 3238 a83c f77f 7ebd
00000340: 0698 b33d 2f8d 4c3d d9f4 c83c 4e8f 6dbd
00000350: a7af 9e3c a0dd 0cbb 0c3d f73c c117 793c
00000360: 622c 7a3d dddc 0bbc 70ab 5c3d 2e93 863d
00000370: 5bc5 76bc b3bb 263d 9762 343d f4ba 2bbd
00000380: 7ee5 0c3d 0b64 8f3c 7fd7 5a3d 8c4b 813c
00000390: f3ab 12bd e815 85bc 3bce 77bd 6b68 37bd
000003a0: 29fc 5e3d 58e6 8f3d c0c1 5dbc b196 aeba
000003b0: 8542 393d 8248 54bd a78f 45bc 984f 41bc
000003c0: 4613 ef3c 7619 e13c f37c a2bc 71ab cabb
000003d0: 0a94 d2bc 2284 593d 5dce f1bb c84f 2fbd
000003e0: 62dd 10bd bc98 0c3d 9711 84bd 0c6d 753b
000003f0: e6ba 423d 615d 7ebc 609e 1ebb 61b7 903c
-0.031616125 -0.02169611 -0.05109035 -0.05242827 -0.026742272 0.01586909 -0.016909283 -0.012677819
0.025071653 0.07900347 -0.026982825 0.06641829 -0.07692731 0.045983225 0.024108447 -0.020767609
0.037051298 0.051850308 -0.026815046 0.033530235 0.049009483 -0.057162557 0.055923138 0.07190247
0.011955536 -0.022575503 0.04080953 0.016783334 0.033538777 -0.007912473 -0.04278777 -0.0069555845
-0.04174374 -0.05153988 -0.029888714 -0.0011172069 -0.018310577 -0.00774109 0.062357992 -0.0049437513
0.029627413 0.007444962 0.024009297 0.06409979 0.011310361 -0.018508974 -0.028926933 -0.011652081
0.05386461 0.016004449 0.0558177 -0.032476593 -0.011617746 0.03937725 -0.05254011 0.047132127
-0.02103285 -0.031696647 -0.043348026 -0.03966959 0.012853868 0.036287524 0.0012387282 0.053929098
-0.05687347 -0.008316182 0.05380456 -0.03450539 0.014960663 0.019316223 -0.0032058433 0.04801499
0.03510065 -0.06477148 -0.062038265 -0.02910313 -0.04310816 0.06217571 0.03433763 -0.04897499
-0.018674836 -0.01122382 0.026174292 0.05554227 0.08393483 -0.015117108 0.022473764 -0.031483844
-0.05294857 -0.011789203 0.02131588 0.006211925 0.030847091 0.05743611 0.061001517 -0.0028353208
0.05251262 0.049601346 -0.010668069 0.0446765 0.04117637 -0.046151288 0.03540602 0.06020709
-0.0122193275 -0.018132215 -0.011971222 0.039291423 -0.0394984 0.045823783 -0.0049865926 -0.058366556
-0.023659186 0.028092917 -0.02850475 0.051698577 0.041317206 0.039849013 0.050570417 0.0029586735
-0.0051417877 -0.053187598 -0.041634392 0.029702742 -0.026097031 -0.058393218 -0.033730295 -0.04182167
0.026508773 0.02382242 -0.012263489 0.046009544 0.010328029 0.031236507 -0.019398503 -0.0067851436
0.055298973 -0.013261962 -0.010760385 -0.007802189 -0.05409782 0.033066146 0.006312473 -0.04896638
-0.054726787 -0.039596356 0.056943696 0.059806302 -0.040721327 0.015605933 -0.008515362 -0.04213027
-0.005338483 0.049072195 0.066999696 -0.0032903298 0.055544924 -0.0056120185 0.049623977 -0.040056486
-0.05067933 -0.012036815 -0.044041388 0.026585372 -0.05763649 -0.015773289 0.057726867 0.0034210011
-0.022501143 0.03039785 -0.048635904 0.02932365 0.027043711 0.015543435 -0.0045598075 0.0135195125
0.008389212 0.034957614 0.011786394 -0.009371761 0.07672087 0.10323097 -0.009262705 -0.042516135
-0.047128998 0.029776558 0.04452746 0.058072332 0.015434571 -0.043649763 0.0054803486 0.0145503655
-0.06786066 0.06138089 0.04857791 -0.00019651612 0.043207504 -0.046824574 -0.03637924 0.008264852
-0.04378014 0.01413571 0.03823374 0.0086641535 0.017002612 -0.030628487 0.020534609 -0.062133756
0.087692305 0.04993933 0.024530815 -0.057997994 0.019370867 -0.0021494403 0.030180477 0.015203417
0.061077483 -0.008536545 0.053874433 0.06571041 -0.015061702 0.040706348 0.044039335 -0.04192634
0.03439855 0.017503759 0.05342817 0.015783094 -0.035808515 -0.016245797 -0.06049941 -0.044777315
0.054439697 0.070263565 -0.013534963 -0.0013320056 0.045229454 -0.05182696 -0.012058175 -0.011798762
0.029183995 0.027477961 -0.019834971 -0.006184988 -0.025705356 0.053104527 -0.0073793367 -0.042800695
-0.035367377 0.034325346 -0.064486675 0.003744903 0.04754152 -0.015525193 -0.0024203286 0.017665567

fc4.bias f4 [2]
00000000: 2d9d 273d b084 073d
0.04092138 0.033085525
