ann_wn.pth (torch, 573044 bytes, 8 tensors)

fc1.weight f4 [256, 40]
000000 ab 61 e1 3d c3 e2 cc 3c 1e dd 72 bd b0 2c 03 3d
       0.11004957 0.025010472 -0.059292905 0.03202504
000010 cf 54 e2 3d d0 13 94 3b c4 22 2f bd a1 b8 0d 3e
       0.11051332 0.0045189634 -0.042757764 0.13839962
000020 4c 2e 1d bd 1b d6 0d be 01 e8 02 be 0a b0 ac bd
       -0.03837423 -0.13851206 -0.12783815 -0.08432014
000030 65 73 11 3e 03 da 80 3c c0 22 1d 3d 4a 7f ce bd
       0.14204176 0.015728956 0.03836322 -0.10082872
000040 9b 11 a1 3c 60 f1 32 3d 73 4c 8f bc e6 14 97 bd
       0.019661715 0.043687224 -0.017492509 -0.07377033
000050 cf 25 14 be ff 8b 1a be 18 1e 22 3d 1a 04 0d be
       -0.14467548 -0.15092467 0.03957948 -0.13771096
000060 5e 17 fc bd 39 d0 1f 3e 0d 60 19 be 87 d3 02 3e
       -0.123091444 0.15606774 -0.14978047 0.12776004
000070 44 1b 1f 3d ff d0 b9 bd a1 95 04 be e0 99 db bc
       0.038844362 -0.09073066 -0.12947704 -0.026806772
000080 e9 1f 21 3e 5f 3a 8f bd 00 71 c3 bc 05 0c 12 be
       0.15734829 -0.06993555 -0.023857594 -0.14262398
000090 fc b8 84 3d 81 63 c1 bd de 19 b2 bd ff 7d 20 3e
       0.064805955 -0.09442807 -0.0869634 0.15673064
0000a0 30 30 9f 3c 73 c3 11 3e c1 67 f8 bd 18 b9 f1 bc
       0.019432157 0.14234714 -0.121291645 -0.029507205
0000b0 a2 37 8f 3d 0e 0d 9e 3d 68 d0 bb bd b8 8c b2 bc
       0.06993033 0.07717334 -0.0917061 -0.021795616
0000c0 17 19 06 be 8a 04 af 3d d0 da a4 bc b0 a5 98 bc
       -0.13095509 0.08545788 -0.02012387 -0.018633693
0000d0 7e f5 f7 3d 68 3b 92 3c 36 eb da bd 64 57 12 3d
       0.12107371 0.017850593 -0.10689394 0.035727873
0000e0 01 a1 e7 bd 46 9f e0 bd 2c e9 44 3d 60 71 dc bc
       -0.11310006 -0.10967879 0.048073933 -0.02690953
0000f0 87 ea 05 3e 63 27 14 3e 23 42 10 3e c8 80 f9 3c
       0.13077746 0.1446815 0.14087729 0.030456915
000100 02 e9 85 3d a8 39 4f 3d f2 54 99 bd f0 cb 1e be
       0.06538583 0.050592095 -0.07486905 -0.15507483
000110 40 a7 32 bd 3a d0 4d bd 40 2c 11 bc 1d 26 14 3e
       -0.043616533 -0.05024741 -0.008860648 0.14467664
000120 ad 1f 9b bd 27 7a 0b 3e 10 01 75 bc c5 cc 15 be
       -0.07574401 0.13620816 -0.014953867 -0.14628895
000130 a4 0b 79 3d 00 08 68 bc 00 d6 20 3d 0e 66 ef bd
       0.060802117 -0.014162064 0.039266586 -0.11689387
000140 82 77 b9 bd 74 f5 22 3d 3b 56 69 bd d0 ce 00 be
       -0.090559974 0.039784864 -0.056967 -0.12578893
000150 8a 2b d5 bd 09 c2 0b bd 01 5b db 3d 0f 6f 0d bc
       -0.10408695 -0.034120593 0.10710717 -0.008632435
000160 4f cc 00 3d 0c 15 06 3e 2b 1c da 3d a0 b7 bd bd
       0.031444844 0.13093966 0.10649904 -0.09263539
000170 cb b1 75 bd a4 e3 09 3e 76 60 26 be 10 d5 02 bd
       -0.05998401 0.13465744 -0.16247734 -0.031941473
000180 fa fe 05 3e 3c 5c e0 bc ba 9c 05 bb 23 91 13 3c
       0.13085547 -0.02738773 -0.0020387606 0.009006771
000190 ce 99 eb bd 37 09 99 3c 9a 01 8d bd 3d 08 80 3c
       -0.11503945 0.018681152 -0.06885071 0.015628928
0001a0 a2 66 91 bd 48 59 e0 3d 4c 28 17 3c f1 79 8f bc
       -0.07099654 0.10954529 0.009225916 -0.0175142
0001b0 5c 46 4e 3d 17 7e 28 be 94 4b dc 3d a9 d6 a5 3d
       0.05036007 -0.1645435 0.10756603 0.08097584
0001c0 73 a6 18 bb ee ae c0 3d 2f 7c eb 3d e6 6d a8 3d
       -0.002329257 0.09408365 0.114982955 0.082240865
0001d0 81 3d f8 bd 0a 64 d7 3d 89 4d c3 3d fb 06 8e bd
       -0.12121106 0.10517128 0.09536273 -0.06934925
0001e0 ac bd d2 bd ec d8 f9 bd 08 fc f7 3c 80 59 f1 bd
       -0.10290083 -0.12199578 0.030271545 -0.11784649
0001f0 00 09 b9 bd 69 6c 17 3e 4d a0 8e bd c0 02 86 bb
       -0.0903492 0.14787449 -0.06964169 -0.0040896833
000200 eb fb 1a be 73 3b fb bd 3a f1 0e be 8b 96 04 3e
       -0.15135162 -0.122671984 -0.13959208 0.12948053
000210 36 8a ac 3d c8 ec 80 bd d1 ad 0c 3e 6e 18 18 be
       0.08424799 -0.062951624 0.1373818 -0.14853069
000220 80 a8 c0 bb 38 99 a1 bc f4 12 16 3d c0 7e d4 bb
       -0.0058794618 -0.01972638 0.03663917 -0.0064848363
000230 02 ba fa 3d 03 cb 1c 3e c4 d4 44 3d 37 e3 85 bd
       0.122425094 0.15311818 0.04805447 -0.065374784
000240 b8 22 bf bc 90 14 80 3c ca d2 d4 3d d4 ef 9a 3d
       -0.023331985 0.015634805 0.10391767 0.07565275
000250 b8 52 f5 3c e0 3d b8 bb 15 25 1b 3e 60 e1 9d 3d
       0.02994667 -0.0056226104 0.15150864 0.077090025
000260 b8 45 d9 bd 44 c8 88 3d fb be a7 bd d8 6d 88 3d
       -0.10609001 0.06678823 -0.081907235 0.06661576
000270 0f 68 8c bd b1 77 9c bd 54 1b 51 3d 56 56 15 be
       -0.06855785 -0.07640017 0.051051453 -0.14583716
000280 ce 99 85 bd dd e8 7b bd d3 5b 24 3d 86 71 8b bd
       -0.065234765 -0.061501373 0.040126633 -0.06808762
000290 83 87 24 be a4 17 63 3d 41 2d ea 3d d2 b0 ac bd
       -0.16067319 0.055442467 0.11434413 -0.08432163
0002a0 1e f4 b7 bd ee ad 88 3d 89 42 d6 3d b5 8d 85 bd
       -0.089821085 0.066737995 0.10461909 -0.06521169
0002b0 8a 72 ae bc c9 d7 1e 3e 04 a4 96 bd 58 96 e2 bd
       -0.02129485 0.15512003 -0.07355502 -0.11063832
0002c0 0b 52 07 be d2 06 aa 3c 51 5e 90 3d 6f 92 38 bd
       -0.1321489 0.020755205 0.070492394 -0.045061525
0002d0 20 13 c2 bd 43 a5 8d bd 4f 28 29 be e5 fb 83 bd
       -0.09476304 -0.06916287 -0.16519283 -0.064445294
0002e0 c1 a6 80 bd e2 53 1e be b7 d9 13 be 74 1f 56 3c
       -0.06281806 -0.15461686 -0.1443852 0.013069022
0002f0 97 b6 45 3d 85 ad a2 bd d3 2a 2a be 76 8d 9d 3d
       0.048269834 -0.079432525 -0.16617899 0.07692997
000300 88 d2 3b 3c ca a1 79 bb be 7e 21 be ec 9c c3 3d
       0.011463769 -0.0038090819 -0.15771005 0.09551415
000310 cf 96 00 3e 7e 79 f4 3c 43 b6 0a bd 18 30 41 be
       0.12557529 0.029843088 -0.033865225 -0.18866003
000320 a7 5b 16 be aa d4 e6 3d 18 0c 0e be ba 4b 12 be
       -0.146834 0.11271031 -0.13871801 -0.142867
000330 cc 6c 23 3d db 4e 20 be 04 2d bf 3d 63 99 01 3e
       0.03989868 -0.15655081 0.09334758 0.12656169
000340 de 26 93 3d e0 9b 28 3e 2f 03 0d 3c 48 e7 2a 3e
       0.07185148 0.16465712 0.008606716 0.1668979
000350 04 75 34 bd 59 84 b7 3b 93 8c 05 be a6 36 87 bd
       -0.044056907 0.005600494 -0.13041906 -0.0660222
000360 fd 9f b9 bd 0f d3 12 3e 10 79 8e 3c a6 09 01 bd
       -0.090637185 0.14338325 0.017391711 -0.031503342
000370 c8 01 2d bd d6 99 33 3d df 30 a7 3a 23 0f 06 bd
       -0.042238027 0.04384788 0.0012755654 -0.03272928
000380 05 77 18 be 34 e5 0b 3e 7d 4a bb 3c 8e c0 fb 3d
       -0.14889152 0.13661653 0.022862667 0.12292586
000390 7f 2c 1a 3e b1 41 52 3c c7 27 2c 3d 36 01 b4 bd
       0.15056036 0.012833045 0.042030122 -0.087892935
0003a0 47 65 f9 bd 0f 4a f2 3b 34 d0 0c 3e a2 31 1b 3d
       -0.1217752 0.0073940824 0.13751298 0.03788913
0003b0 12 36 0f be 34 10 e9 bd f2 4e 88 bd 2c 21 b2 39
       -0.1398547 -0.113800436 -0.066556826 0.0003397552
0003c0 13 30 d6 bc e1 b5 2a 3c aa 26 a5 bd 5d 3b 1f 3e
       -0.02614597 0.01041934 -0.08064015 0.15549989
0003d0 ab 2b 19 3e f6 4b 8e bc f0 ce 9d 3d ea f4 33 bd
       0.14958064 -0.017370205 0.07705486 -0.04393474
0003e0 6d 48 8e 3d b3 f9 78 3d 3e 5d ef bd bc 2e ac bd
       0.06947408 0.060785007 -0.116877064 -0.084073514
0003f0 8f 9d 20 3e 74 39 30 3d 7e a2 c9 bd b5 56 1c 3e
       0.15685104 0.04302354 -0.09845446 0.15267451

fc1.bias f4 [256]
000000 2b 0e f1 bc d3 e8 c8 bd a0 6e c1 bd fa 1f f9 bd
       -0.029425701 -0.09810033 -0.09444928 -0.12164302
000010 63 a2 ad 3d 49 42 ad 3c 6b ff c0 bd 73 03 ee 3d
       0.084782384 0.021149771 -0.09423717 0.11621752
000020 3a fc 8b 3d fe bc af 3d 35 0c 9b 3d 59 fc f3 3d
       0.06835218 0.08580969 0.07570688 0.11913366
000030 6b be 4c bc 0b 29 bf bb a9 e5 a0 bd 21 c0 31 3d
       -0.012496571 -0.00583375 -0.07856304 0.04339612
000040 94 4c 37 3d 5f 61 c2 3d 17 72 2f 3c 16 cf 99 3d
       0.044750765 0.09491228 0.0107083535 0.07510202
000050 22 b4 73 3d 48 77 7a bd 6d 10 b2 bc 46 0c 19 be
       0.05949796 -0.06114891 -0.021736348 -0.14946088
000060 d4 6e 91 bd ca 99 85 3d 07 1a 4e 3d d0 d6 82 bc
       -0.07101217 0.065234736 0.05031779 -0.015971571
000070 47 bf f7 bd 6f 00 ca 3d 40 c7 b8 3d 2f 45 1b bd
       -0.1209703 0.09863364 0.09022379 -0.037907775
000080 ad 8c 45 3d 3b 80 f9 3d 18 fa 1d be 5b d6 e5 3d
       0.048229862 0.12182661 -0.15427434 0.11222526
000090 86 a9 c6 3c 36 c2 f5 3d 6a 7e 06 3e 29 eb 03 be
       0.024250757 0.119999334 0.1313416 -0.12882675
0000a0 1b ad 9f bd d6 79 f1 bd 80 95 1f be 84 02 cd 3d
       -0.07796689 -0.117908165 -0.15584373 0.100102454
0000b0 61 9f 38 3d 98 97 95 3c 20 34 80 bd 9e 64 ed bd
       0.04507387 0.018260762 -0.06259942 -0.11591457
0000c0 6b 39 14 bc a7 f3 e3 3c cd 91 81 3d 41 4b 9b 3d
       -0.009046893 0.027826143 0.063266374 0.07582713
0000d0 95 ff a5 3d dc fd ba 3d c0 b4 14 3d 64 10 55 bd
       0.08105389 0.09130451 0.03630519 -0.052017584
0000e0 41 f5 8f bd 69 f6 39 3d 45 cb 1d be bc 93 5b bd
       -0.070292 0.04540101 -0.15409572 -0.053607687
0000f0 f5 7f 25 3d c6 b9 cc 3d 09 d2 86 3d 75 38 e4 3d
       0.040405232 0.09996371 0.0658303 0.11143581
000100 2f e1 f8 bd 21 fd 0e be dd 6a a1 bd e0 83 8f bb
       -0.12152325 -0.13963749 -0.07881711 -0.0043797344
000110 80 1e cd 3d 1e be d5 bd 8d 69 89 bd 44 67 cd 3d
       0.10015583 -0.104366526 -0.06709585 0.10029462
000120 4a 5f a0 3d b9 2c bd 3c f8 ab c4 3c d9 a7 f3 bd
       0.07830675 0.023092614 0.024007782 -0.11897249
000130 67 10 89 3d 92 22 15 be 22 7a de b9 33 48 ae bd
       0.066925816 -0.14563969 -0.00042434136 -0.08509865
000140 91 a4 9a 3d 3e 2f 79 3d 8e b7 d4 bd 2f 99 be 3d
       0.0755092 0.06083607 -0.10386573 0.09306561
000150 d1 cc 91 bd 28 a9 7d bd d4 87 6c bd ad b9 4a 3d
       -0.07119144 -0.061928898 -0.057746723 0.04949348
000160 5b a0 56 3d cd b3 14 be c7 d7 2d 3d 3d ac e7 3d
       0.05239902 -0.14521714 0.04244211 0.11312149
000170 1b 20 e9 bd 19 fb ea 3d cf df a1 3d e4 50 5a 3d
       -0.11383077 0.11473674 0.07904016 0.0532998
000180 f4 de 23 bd f3 8a 22 3d 7e 12 e4 3b 32 1d 77 bc
       -0.040007547 0.039683294 0.0069602123 -0.015082644
000190 b8 89 bd bd 2c a7 b0 bd ec 50 ba bd a3 b9 87 3d
       -0.092547834 -0.086256355 -0.09097466 0.06627204
0001a0 0c f0 3d 3d e7 44 f7 3d 70 34 7a bd da 0f e1 3d
       0.046371505 0.12073689 -0.061085165 0.109893516
0001b0 73 34 01 bc 1c 36 ec 3d d4 18 11 be 1d 25 b8 ba
       -0.00788604 0.11533758 -0.14169627 -0.0014049147
0001c0 da 1d 2d bd a8 fb 03 be bd ac 06 be 8f 72 82 3d
       -0.042264797 -0.12888968 -0.13151832 0.063695066
0001d0 80 c2 ee bc b2 e5 9b bd 35 5d e6 3d b8 32 c4 3c
       -0.02914548 -0.0761217 0.112482466 0.023949966
0001e0 fe ae 20 be 54 95 ac bd 2f f6 77 bd 9e 93 a1 3d
       -0.15691754 -0.084269196 -0.060537513 0.07889484
0001f0 74 46 05 be e5 ca a1 3d 23 b6 48 3d f4 e4 c5 3d
       -0.13015157 0.07900027 0.049001824 0.0966281
000200 d1 47 e7 bd 2c 17 e2 bd 82 ee ee 3d 8d 9e 91 bd
       -0.11292995 -0.11039576 0.116665855 -0.07110319
000210 79 37 1f bc 0c 57 f4 bd 6e 56 37 3d d0 2f 5f bd
       -0.009717816 -0.119306654 0.04476016 -0.054488957
000220 b6 13 4a 3d 10 53 37 bd 18 29 85 bd 16 e5 b6 3d
       0.049335204 -0.04475695 -0.06501979 0.089304134
000230 dd c0 28 bd 50 ba ea bc a0 55 18 be 7a ce c3 3d
       -0.041199554 -0.028653294 -0.14876413 0.09560867
000240 30 b8 5e 3c 3c 24 d1 3d fb cc f7 3d 40 a4 fc bc
       0.013593718 0.10211989 0.12099644 -0.03084004
000250 5e ad be 3d e3 cf 74 3d f0 0b 4e 3d a6 3d d1 3d
       0.09310411 0.05976857 0.050304353 0.10216837
000260 8e ce b9 3c 13 42 b4 bd e4 30 98 3d c2 22 e7 bd
       0.0226815 -0.08801665 0.074312 -0.112859264
000270 fa b9 e1 3d 99 6a 09 bd e7 d9 09 3e 3d 6f 88 3b
       0.110218 -0.033548925 0.1346203 0.0041636513
000280 06 29 26 bd 4f 59 26 be 56 12 17 be c8 ed d7 3c
       -0.040566467 -0.16245006 -0.14753088 0.0263585
000290 5a 58 2c 3d e0 41 a5 bc 03 77 c4 bd c8 f0 7f 3d
       0.042076446 -0.020173013 -0.09593012 0.062485486
0002a0 a5 e0 d7 bd 56 27 b0 3d cf 7f 00 3e ff e8 b4 3d
       -0.105408944 0.08601253 0.12548755 0.08833503
0002b0 e3 47 c1 3c 5e 8e 9c 3c c0 39 bd 3d 18 32 ab 3d
       0.023593849 0.019110855 0.092395306 0.08359164
0002c0 88 98 87 3c 2c b5 67 bd 74 90 cc 3d 78 d5 01 3e
       0.016552225 -0.056569263 0.0998849 0.12679088
0002d0 69 60 89 bd c7 3e 23 bd 76 35 02 be 7d 74 2c be
       -0.06707842 -0.03985479 -0.12715706 -0.16841312
0002e0 57 b5 60 3d ac b4 2f bd 71 d4 10 bd a9 e1 48 3d
       0.05486044 -0.04289691 -0.03535885 0.04904333
0002f0 c9 09 c3 3d 3a 40 3e bd a8 c4 f3 3d f8 54 85 bd
       0.09523351 -0.04644797 0.119027436 -0.06510347
000300 0d f1 3d bd 07 c5 58 3d b4 91 3b bd 9c ec d0 bc
       -0.046372462 0.052922275 -0.04579325 -0.02550345
000310 79 3d b3 bc aa 14 c1 bd fb e4 02 3d 26 dc e0 3d
       -0.021879898 -0.094277695 0.031956654 0.1097949
000320 b2 e5 0c bd 7f 80 10 be b3 7a b8 bd 22 5b ba 3c
       -0.034398742 -0.14111517 -0.09007778 0.022748534
000330 60 2d f0 3d 4e 10 99 bd d2 00 de bd b2 6e 0c 3e
       0.117274046 -0.07473813 -0.1084 0.13714102
000340 26 06 6f bd 29 ba 07 3e d7 be 16 bd c5 32 90 3d
       -0.058355473 0.13254608 -0.036803093 0.070409335
000350 b7 cc f5 3d 36 8d 87 3c 14 a3 c0 bd 26 b5 fb bd
       0.12001937 0.016546827 -0.09406105 -0.12290411
000360 ce 84 a9 bd 67 17 a1 3d 32 d2 88 bd d4 9b e2 bc
       -0.082772836 0.07865792 -0.066807166 -0.027662195
000370 54 2d 9e 3d 9f 34 9e bd d1 12 29 ba 20 a8 3a 3d
       0.077234894 -0.077248804 -0.0006449642 0.045570493
000380 0b 89 6a bc ee 58 18 3c 8b b9 0e be 8d 90 b0 3d
       -0.0143149 0.009298546 -0.13937967 0.08621321
000390 a8 de c4 bd 38 ed c1 bc 90 16 7d bd cd dc b8 bd
       -0.09612781 -0.023672685 -0.061789095 -0.090264894
0003a0 71 5b 43 3d 8e 70 f4 bd a7 aa bf 3d 43 f0 06 be
       0.047694627 -0.119355306 0.09358721 -0.1317759
0003b0 a9 2d 07 be 15 2f f8 bc 8b e6 87 3d c8 8e 4a bd
       -0.13201012 -0.030295888 0.066357695 -0.049452573
0003c0 84 f1 5a 3c 7f 01 1c bd 23 76 16 be 08 8a cc 3c
       0.013363246 -0.038087364 -0.14693503 0.024968162
0003d0 ea 4f 29 3d dd 87 99 3d 25 da f9 3c b1 b0 d5 3d
       0.041335978 0.07496617 0.030499527 0.10434092
0003e0 dc 2d d8 3d 4d d1 b6 3c ce c5 a8 bd 7b da c8 3d
       0.10555622 0.0223166 -0.08240853 0.09807297
0003f0 80 97 0b be 04 b0 aa 3d 14 6d d8 bd 21 d0 2e 3d
       -0.13632011 0.083343536 -0.1056768 0.042678956

fc2.weight f4 [256, 256]
000000 ac a8 1c bd 18 b0 ee bc 90 57 ff 3c ac ad 3a 3d
       -0.038246796 -0.029136702 0.031169683 0.045575783
000010 60 d4 af bc c0 5a 7c 3d f4 7b ed 3c ee a3 4e bd
       -0.021463573 0.061609983 0.02898977 -0.050449304
000020 ec 82 3c 3d 60 35 35 bd 28 29 63 3c 2a ca 78 bd
       0.046023294 -0.044240355 0.013864793 -0.060739674
000030 f8 be 7d bc da c2 32 3d 70 a0 ec bb 66 17 70 bd
       -0.015487425 0.043642856 -0.007221274 -0.058616064
000040 4a 94 1a bd 50 b4 54 bd 30 6a 40 3c 86 e7 15 3d
       -0.037739076 -0.051929772 0.011744067 0.03659775
000050 b0 41 a5 3c ec 25 f7 3c 88 74 50 3d 6a e9 37 bd
       0.020172924 0.03016945 0.050892383 -0.044900335
000060 8e 8f 48 3d 00 2a 57 3b 86 6d 61 bd 48 b8 02 bc
       0.04896503 0.003283143 -0.05503609 -0.007978506
000070 be c3 3b 3d 0e fa 4c bd 38 28 6c bc 12 99 20 3d
       0.04584097 -0.05004316 -0.014413886 0.03920848
000080 a0 e9 1d 3d 98 2a 09 bd 78 85 7a bd 00 9c 38 3d
       0.03855288 -0.033487886 -0.061162442 0.04507065
000090 86 f9 50 bd 20 bf 7a bc 72 7b 38 bd e0 d7 38 bc
       -0.051019214 -0.015304357 -0.0450396 -0.011281937
0000a0 e2 f6 4a bd 4e d0 7f 3d f8 bf 71 3d 32 7f 34 bd
       -0.049551852 0.062454514 0.059020966 -0.044066615
0000b0 ca 5c 79 bd 80 00 9a ba 80 84 5d bd 08 5b 71 3c
       -0.060879506 -0.0011749417 -0.05408144 0.014731176
0000c0 f4 93 63 bd d8 da 98 bc 0a fa 0b 3d 00 28 fa 39
       -0.05556102 -0.01865904 0.034174003 0.00047713518
0000d0 88 c3 ee 3c 20 60 c2 3b d8 36 7e 3c 32 8c 17 3d
       0.029145971 0.005931869 0.015516005 0.036998935
0000e0 e0 eb 3b 3b a2 3f 40 bd 58 7f 31 bd cc e1 4d bd
       0.0028674528 -0.046935685 -0.043334335 -0.050264165
0000f0 9a f5 0e bd f0 c9 9c 3b 7a 9d 60 3d 24 64 69 3d
       -0.034902193 0.004784815 0.05483768 0.056980267
000100 20 4a e0 3c c0 6f da 3c aa cf 71 3d c6 65 47 3d
       0.027379096 0.026664615 0.059035935 0.048681043
000110 f8 c0 7b bd e4 a1 8b bc ac 77 3a bd d8 66 51 3c
       -0.061463326 -0.017044969 -0.045524284 0.0127808675
000120 58 6e c8 bc 40 be 0a 3b 8a 49 36 3d b4 8f 96 bc
       -0.024466679 0.0021170527 0.044503726 -0.01837907
000130 16 db 62 bd 68 53 37 bd 3c b1 f1 bc 4a 25 55 3d
       -0.055384718 -0.044757277 -0.029503457 0.052037515
000140 e0 ff b2 3b 1c c7 91 bc f8 80 6c bc 00 e8 54 b8
       0.0054626316 -0.017795138 -0.014435045 -5.0760806e-05
000150 10 7b 8a 3c 92 db 48 bd 28 a6 40 bd b8 20 30 bd
       0.016904384 -0.049037524 -0.04703346 -0.042999953
000160 4c 87 7a bd e6 77 03 3d d0 06 7c 3d fc 0d 42 3d
       -0.061164185 0.032096766 0.061529934 0.047376618
000170 68 92 2a bd 08 dd 86 3c b4 49 a9 bc 7c 85 ae bc
       -0.04164353 0.016462818 -0.020665027 -0.021303885
000180 e8 ff 87 3c b0 ed 0a 3d 6a e9 08 bd 16 7d 3b 3d
       0.016601518 0.033918083 -0.033425726 0.045773588
000190 06 d9 1a bd cc ff e9 3c fc 11 90 bc 60 89 32 3d
       -0.037804626 0.028564356 -0.0175867 0.043588042
0001a0 a0 66 80 3c b0 b9 f7 bb 40 5a e9 ba 94 80 06 bd
       0.015673935 -0.0075599775 -0.0017803386 -0.032837465
0001b0 ee df 05 bd ce c1 78 bd 80 5b 20 3d c0 d6 31 bd
       -0.03268426 -0.0607317 0.03914976 -0.043417692
0001c0 74 46 2c bd 1c 14 fa 3c 58 5b 3e bc 1e a2 5a bd
       -0.042059377 0.030527167 -0.011618458 -0.053377263
0001d0 56 71 01 3d 4c 4b f4 bc 58 9d 97 3c e8 f3 61 bd
       0.031602226 -0.02982106 0.018507645 -0.055164248
0001e0 0c dd 46 3d 76 71 0a bd b0 cd e8 bc 10 36 62 3d
       0.04855065 -0.03379961 -0.028418392 0.05522734
0001f0 40 04 09 bd 54 22 cb bc 48 08 46 3d d4 ba 8d 3c
       -0.03345132 -0.024796642 0.04834774 0.017301
000200 18 5e a6 3c 58 c5 79 3d c6 0c 7d 3d ce 39 00 3d
       0.02030854 0.060979217 0.06177976 0.031305127
000210 0e 05 48 3d d0 66 22 bd 50 37 2b bd 88 e8 47 3c
       0.048832946 -0.03964883 -0.041800797 0.012201436
000220 08 80 db 3c 00 96 5e bc 1a 27 2a bd 50 a9 93 bc
       0.026794448 -0.0135855675 -0.041541196 -0.01802507
000230 92 13 57 bd 36 48 53 3d 32 c0 62 3d 20 72 fd 3c
       -0.052508898 0.051582538 0.055359073 0.030938208
000240 ce 6d 7d bd aa c7 39 bd ca 52 2c 3d a0 12 50 bd
       -0.061872296 -0.04535643 0.04207114 -0.050799012
000250 06 f1 6b bd 60 50 7d 3c a0 85 54 bb 70 5e 89 bc
       -0.057602905 0.015461057 -0.003242828 -0.016768664
000260 c2 61 37 3d 96 a0 03 3d 54 a9 93 3c 26 bf 6c bd
       0.044770963 0.03213557 0.018025078 -0.05779948
000270 06 62 25 bd 98 83 1c 3d 66 8a 70 bd 94 cb ed 3c
       -0.040376686 0.038211435 -0.058725737 0.029027738
000280 3a 55 13 3d 40 13 00 3b 68 5a fe bc 60 d7 d2 3c
       0.03596995 0.0019542724 -0.031048968 0.025737464
000290 0c 76 0e 3d 00 a4 7e 3b 00 7d e2 3a 58 08 7c bc
       0.034780547 0.0038855076 0.0017279685 -0.015382849
0002a0 24 81 3f bd f0 70 a9 3c e8 2a df 3c 80 20 64 3d
       -0.046754017 0.020683736 0.027242139 0.055695057
0002b0 64 35 f5 bc 74 d1 58 bd 7a eb 58 3d 80 b2 25 bd
       -0.029932685 -0.052934125 0.052958943 -0.040453434
0002c0 5a 19 16 3d 8c 69 ee 3c 88 81 60 bc 80 e5 a7 3b
       0.03664527 0.029103063 -0.013702758 0.005123794
0002d0 5a bc 50 bd 14 b1 8c bc 90 03 93 3b 1e 5b 08 3d
       -0.050960876 -0.017174281 0.0044865087 0.03329002
0002e0 8e 34 6d 3d 80 ae df bb 9c bd 95 bc c0 51 ca 3b
       0.05791145 -0.006826222 -0.01827889 0.006174296
0002f0 d0 f4 08 bd 20 83 b8 bc 2e 99 2f bd 60 a4 b2 3b
       -0.033436596 -0.022523463 -0.042870693 0.005451724
000300 58 64 5b 3c 10 c9 ee bc de 68 70 bd 20 94 17 bd
       0.013390623 -0.029148608 -0.05869376 -0.037006497
000310 f2 16 00 bd 90 6e 11 bd 3a e4 2b bd 0c fd 1c bd
       -0.031271882 -0.03550583 -0.0419657 -0.03832726
000320 c8 d3 a6 bc 86 25 07 3d 52 d9 71 3d 76 c7 48 3d
       -0.020364657 0.03299477 0.059045143 0.049018346
000330 e6 56 19 3d 02 fa 3c 3d 1a 67 67 3d e4 45 63 bd
       0.03743639 0.046136864 0.05649481 -0.055486575
000340 38 df 43 bd ac 31 ef 3c 98 0c fb 3c 54 6b d2 3c
       -0.0478203 0.02919849 0.030645654 0.025685944
000350 e8 ca fa bc 90 ed ed bb ce 97 5e 3d 78 c6 7a 3d
       -0.030614331 -0.0072609857 0.05434399 0.06122443
000360 c0 5c a1 3a 78 32 ff bc 64 6b 2a bd 00 c6 bc b9
       0.0012310967 -0.031151995 -0.041606322 -0.00036005676
000370 f0 7d a1 3c f4 5a c6 bc 44 91 1e bd 04 b3 26 3d
       0.019713372 -0.024213292 -0.038712755 0.040698066
000380 68 73 ab 3c 40 60 18 bd 00 d2 25 bd ae f9 7a bd
       0.020929053 -0.037201166 -0.040483475 -0.06127327
000390 bc 18 a4 3c c2 34 72 3d 5a 24 60 bd 60 af 10 3b
       0.020031326 0.059132345 -0.054722168 0.0022077188
0003a0 60 ca a4 bb 94 fd a8 3c 66 5b 7b bd 60 ff 43 bc
       -0.005029008 0.020628728 -0.06136646 -0.011962742
0003b0 60 e5 8d 3b c8 c7 76 bd b4 8d 10 3d 82 33 55 3d
       0.004330322 -0.06024912 0.03529139 0.052051075
0003c0 ec b9 92 bc 1e 86 5e bd 72 dc 7e 3d 80 5e 8a bc
       -0.01791092 -0.054327123 0.06222195 -0.016890764
0003d0 8a 20 34 bd d0 66 b4 bb f8 d3 c7 3c 6a 9f 6c bd
       -0.043976344 -0.0055054203 0.024393067 -0.057769217
0003e0 f8 ce 2e bc 7c 41 46 bd 20 92 a8 3c bc d1 4a bd
       -0.010669462 -0.048402295 0.02057749 -0.049516425
0003f0 9e 17 5e 3d 3e c7 21 3d e4 8a e8 bc ca 9e 09 bd
       0.05422174 0.039496653 -0.02838654 -0.0335987

fc2.bias f4 [256]
000000 52 96 54 bd ae ff 62 bc ac 56 2f bd 9b 92 2c 3d
       -0.05190117 -0.013854904 -0.042807266 0.042132
000010 18 2e 9a bc 9c 76 e9 bc 4c 04 e6 3a 68 13 1f bc
       -0.018820807 -0.02849894 0.0017548888 -0.009709217
000020 4c ec a8 bc 30 97 5f bc df 36 8b 3c b0 9c 28 3d
       -0.020620488 -0.013646886 0.016993938 0.041165054
000030 50 cd c4 bb 2c 2b 4d bd 78 cf 39 3d a6 26 1b 3c
       -0.0060059205 -0.05009 0.045363873 0.009469664
000040 c8 70 9f bc e9 6d 8e 3c 81 6a 5e bd 80 d5 d6 bc
       -0.019462958 0.017386394 -0.05430079 -0.026224852
000050 71 be 3b 3c 77 3f d1 3b 8b 11 61 bb 70 88 62 bd
       0.011458979 0.0063857394 -0.0034342732 -0.0553059
000060 14 1b ff bc e4 51 3a bc ee 3e 25 bd 6a 5c e4 bb
       -0.031140842 -0.011372063 -0.040343218 -0.0069690244
000070 6b cd a3 bc c0 49 55 bd cb 81 7e bc b9 4b 1e 3d
       -0.019995412 -0.052072287 -0.015533875 0.038646434
000080 c3 07 59 bd e2 34 68 3d 22 cc 41 3c d2 31 57 3c
       -0.052985918 0.056691058 0.011828454 0.013134437
000090 ce 01 6d bd 5d 7b 1c bd e3 2a 1b 3d 1e 67 62 3d
       -0.05786305 -0.038203586 0.037882697 0.05527412
0000a0 c7 9e b4 3b 12 df 8f bc b0 b6 d4 3b 90 99 81 bb
       0.005512092 -0.017562423 0.0064915046 -0.0039550737
0000b0 e2 4d 43 3d 77 13 b2 3c f7 3c 3e bb fa 2d cd 3c
       0.047681697 0.021737797 -0.0029028037 0.025046337
0000c0 c7 1c 73 3c 00 a9 67 3b fb 6a 6d 3b d8 d6 7d bc
       0.014838404 0.0035348535 0.0036227095 -0.015493117
0000d0 d5 5d ac 3c a0 35 69 3d 47 51 b1 3c e5 cd 5d bd
       0.021040836 0.056935906 0.021645201 -0.054151434
0000e0 b2 96 a2 3c e1 4e ac 3b d8 d4 22 bd 5a 89 57 bd
       0.019847248 0.0052584265 -0.039753765 -0.052621223
0000f0 60 09 68 bd 44 f8 ff bc 3b 85 7a bb a8 41 0f 3d
       -0.056649566 -0.031246312 -0.0038226384 0.034974724
000100 ea 92 b8 ba f0 ce 17 bd bd 94 59 bb ad ee 35 3c
       -0.001408187 -0.037062585 -0.0033200227 0.011104268
000110 e9 cf c1 bc 84 4d e4 3c 3a 3c 43 bd 17 67 9a bb
       -0.02365871 0.027868994 -0.04766486 -0.0047119963
000120 48 19 12 3d a2 3d 8a 3b 6a dc 8e 3c 0c 45 3e bd
       0.03566864 0.004218773 0.017439086 -0.046452567
000130 52 d5 84 3b 9c eb 4f bd 88 51 75 bd 9e a7 6c b8
       0.00405375 -0.050761804 -0.059892207 -5.642289e-05
000140 2a 65 ae bc 37 61 a3 bc 8a 50 00 3d bc 9c cd 3c
       -0.021288473 -0.019943817 0.031326808 0.02509915
000150 22 38 c8 3c e1 c5 4e bd 46 99 41 bd 4e 16 0f bd
       0.024440829 -0.05048168 -0.047265314 -0.03493338
000160 a1 53 e8 bb 70 1f 81 bd 24 d0 16 3d ad 7a 97 3c
       -0.0070900475 -0.06304824 0.036819592 0.018491114
000170 bc 31 af bc 81 c5 89 3b 4d b5 2b 3d b0 c3 16 3d
       -0.02138602 0.0042044525 0.04192095 0.036807716
000180 d4 4e 13 3d 55 54 a4 3c b5 25 ab bc ab c5 16 3d
       0.03596385 0.020059744 -0.020892004 0.036809605
000190 b9 28 72 bc 42 75 26 3d 87 2c 3c bd df 90 46 bd
       -0.014780217 0.04063917 -0.045940902 -0.048478004
0001a0 dd 00 7b bd a7 2e e2 bb 34 57 ab bc b2 d4 c9 bc
       -0.06128012 -0.006902534 -0.020915605 -0.024637554
0001b0 1d ab 15 bd 22 ca af 3c a4 1c 55 3c 6b 77 bb 3c
       -0.03654014 0.02145869 0.013007317 0.022884091
0001c0 58 e0 fc bc 80 ec ce 3c 66 68 a9 bc ad 24 af bc
       -0.030868694 0.025259256 -0.020679664 -0.021379793
0001d0 ff 80 5d bd 3e 7d 7a 3c ee 98 3f 3d 5a 35 95 bc
       -0.0540781 0.015288649 0.046776704 -0.018213917
0001e0 6d 3c 66 bd 15 43 9a 3c 83 15 07 3d 98 97 23 bd
       -0.05620997 0.018830815 0.0329795 -0.039939493
0001f0 30 37 02 bd 82 51 aa 38 32 d4 31 bd 20 e9 29 3d
       -0.031790912 8.121414e-05 -0.043415256 0.04148209
000200 54 da ab 3c fe 34 63 3b ed bf 49 3d c3 95 53 3c
       0.02097813 0.0034669037 0.0492553 0.012914124
000210 39 3d d5 bc 41 44 18 bd 00 83 5a 3c 69 49 8e 3c
       -0.02603017 -0.037174467 0.013336897 0.017368989
000220 30 f3 8f 3c 6f fa 87 3c cf 9b 8d bd d3 66 26 bd
       0.017572016 0.016598908 -0.06914484 -0.040625405
000230 a3 84 58 bd f2 4e 47 bd 03 f1 f9 3c 17 49 86 bd
       -0.052860867 -0.048659272 0.030510431 -0.065569095
000240 13 4c 28 bd d4 a2 28 3d c2 ba 4c bd 01 ec 5f bd
       -0.041088175 0.04117091 -0.049982794 -0.05466843
000250 ae a5 7d bc 42 1b 4e bc b3 44 76 bd c2 c8 76 bd
       -0.015481396 -0.012579741 -0.06012411 -0.06025005
000260 b6 d1 57 3d 5e 11 82 bc e7 40 c7 3c ea 66 77 bb
       0.05269023 -0.015877422 0.02432294 -0.003775055
000270 70 97 d9 bc 99 c4 85 bd 3f 4d 10 3c 05 0a 1f 3d
       -0.026561469 -0.06531639 0.008807479 0.038827915
000280 fe 71 bf bc f0 8d 1e 3d 9f 20 f5 bc 00 d0 3c bb
       -0.023369785 0.03870958 -0.029922782 -0.00288105
000290 4e 6a 5d 3d 77 c5 63 bc ca 46 26 3d 79 8c ef bc
       0.05405646 -0.01390206 0.040594853 -0.029241787
0002a0 c9 f3 fb bc 50 9d 9d 3c c5 b9 66 bd 2a 68 2b 3d
       -0.030755894 0.019240052 -0.056329507 0.041847385
0002b0 f9 eb 0b bd 61 2d b0 bc b8 a3 bd 39 3a f9 1a bd
       -0.034160588 -0.021506013 0.0003617087 -0.037835337
0002c0 ad d2 16 3d ba 03 5f bc ed a1 1a bd 5a 61 f4 bb
       0.03682201 -0.013611728 -0.03775208 -0.0074578943
0002d0 68 97 b8 bb a4 fc 0f bd c9 b6 17 bd a8 5c 17 bd
       -0.0056332834 -0.035153046 -0.037039552 -0.0369536
0002e0 8f 77 16 3d 20 aa 23 3d 7e 92 2e 3d c7 61 fd bc
       0.036735114 0.039957166 0.042620175 -0.030930413
0002f0 33 bf b3 3c 44 46 c4 bc f7 e0 a1 bc d4 43 2a bd
       0.021941757 -0.023959287 -0.019760592 -0.041568592
000300 c8 ba ff bb 48 bc 2d 3d 9c 7d 20 bd 83 65 55 bd
       -0.0078042485 0.042415887 -0.03918229 -0.052098762
000310 d6 67 81 3c a9 8a 00 3d c6 2b 63 bd 2f 99 60 bd
       0.015796583 0.031382237 -0.055461667 -0.054833587
000320 ed 02 b3 bd 38 3c 26 3d 1b b5 1a 3d 48 b4 91 3c
       -0.087407924 0.040584773 0.037770372 0.01778616
000330 39 d3 14 3d 62 56 14 3d af d7 07 3d 24 1b 18 bd
       0.03633425 0.036215194 0.033164676 -0.03713526
000340 cd 95 3c 3d 60 37 fe bc c8 d1 5c bd 96 a4 63 bd
       0.0460413 -0.031032264 -0.053911 -0.055576883
000350 64 4a 52 bd d2 d3 50 bc 00 4f 4f 3c f2 7f 4d bd
       -0.051340476 -0.012745814 0.012653112 -0.050170846
000360 20 10 16 bd 4c ed 05 bc a7 59 40 3d dc a3 64 bd
       -0.03663647 -0.008174252 0.0469605 -0.05582033
000370 ca 2e 6c bd 37 9b a5 bb 77 4b 2a 3b 94 8c 74 39
       -0.05766181 -0.0050539034 0.0025984922 0.00023322023
000380 d4 e7 15 3d 85 ab 9c 3b fe 77 b9 3c 4c 89 a1 3c
       0.03659804 0.004781189 0.022640225 0.019718789
000390 28 ff a7 bc 06 27 80 3c bd cb ff 3c 49 4b 5b 3c
       -0.02050741 0.015643608 0.03122508 0.013384649
0003a0 84 e8 16 bd 66 36 a1 bb ff 63 90 bd 1d 9a 3c b9
       -0.036842838 -0.004919815 -0.07050323 -0.00017986489
0003b0 bd 89 0f 3d 37 19 d3 3c ac a2 17 bd 00 6b 33 bc
       0.035043467 0.02576886 -0.03702037 -0.010950804
0003c0 d6 5a 4d bd 84 3c 82 3c a2 d6 9c 3c 69 21 98 bc
       -0.050135456 0.015897997 0.019145314 -0.018570619
0003d0 97 8d 37 3d d1 f9 29 bd 65 f7 04 3d 5e 77 a2 3c
       0.044812765 -0.04149801 0.032462496 0.01983231
0003e0 10 12 68 bd ca 3f 25 3d 64 0e 7f bd d3 fd d2 bc
       -0.05665785 0.040344037 -0.062269583 -0.025755798
0003f0 60 87 07 bd 17 4d 1f 3d 61 85 e6 bc e0 e2 b1 3c
       -0.033088088 0.038891878 -0.028139772 0.021714628

fc3.weight f4 [256, 256]
000000 dc c4 7a bd a9 ea 3d 3d 88 ad 17 3d c6 c0 87 bd
       -0.061222896 0.046366367 0.037030727 -0.066285655
000010 a6 39 29 3d 12 b1 3e 3d 82 5f 5d bd 3f ae df 3c
       0.041314743 0.046555586 -0.05404616 0.027304767
000020 fc 41 8f 3c 68 0c 46 3d f3 18 9b bc 1c 31 25 3d
       0.017487518 0.048351675 -0.018932795 0.040330037
000030 68 16 47 3d 18 1a 22 bd e7 a1 21 bd 1b 89 26 3d
       0.048605353 -0.039575666 -0.039461043 0.040658098
000040 ec 60 6c 3d 6a d6 8d bd 5c 32 68 3d 9c f5 68 bd
       0.05770962 -0.06925662 0.05668865 -0.056874856
000050 04 7d 1a bc d2 6e c0 bb 9f 9c 64 bd ee b2 1b 3d
       -0.00942922 -0.005872586 -0.055813428 0.038012438
000060 34 c7 57 bd 14 af ad 3c 86 68 a0 3c b0 a3 e6 bb
       -0.05268021 0.021201648 0.01958109 -0.007038556
000070 27 90 f9 bc 6a e5 1b 3d a1 b4 24 3d 98 3e a2 3c
       -0.030464245 0.038060583 0.040211324 0.019805238
000080 5e e7 0a 3d b6 a2 9a bd 62 9c 80 bd 73 cd 50 3c
       0.033912055 -0.07550566 -0.06279828 0.012744295
000090 38 f0 07 3c 9e a7 04 bd b3 91 49 3c 2c f0 ca bd
       0.008297019 -0.032386415 0.012302804 -0.099090904
0000a0 1d cd 37 39 dc da 50 ba d4 b9 96 bd f6 3f a5 bd
       0.0001752865 -0.0007967183 -0.07359663 -0.0806884
0000b0 b2 cb 92 bd 0e 4e bf 3c 66 79 6b bc f2 72 0d 3d
       -0.07167758 0.023352649 -0.014372205 0.03453345
0000c0 d8 3b 8b 3d c8 65 c2 bd d1 2e 31 3c 2a f3 73 bd
       0.06798524 -0.094920695 0.010814385 -0.05955807
0000d0 8e 62 a7 bd e4 0e 21 3d 31 d3 4e 3d 9b 01 28 3d
       -0.08173095 0.03932084 0.050494377 0.041017156
0000e0 64 43 81 bd 85 64 0e bc 98 14 02 3c 12 fb 1a bd
       -0.06311682 -0.008690958 0.00793948 -0.037837096
0000f0 20 4b 16 3b dd 1e 20 ba 2c 7b 31 bc d2 3e a0 3c
       0.0022932962 -0.00061081146 -0.010832589 0.019561205
000100 34 4e 92 3c ba 48 42 bd bd 6f b2 3b 56 ff 1c 3e
       0.017859556 -0.04743264 0.005445449 0.15331778
000110 0b aa 5e 3c 7d 8a d2 bc f0 66 10 bd fe 84 b2 bd
       0.013590346 -0.025700802 -0.03525442 -0.087167725
000120 81 72 3c bd 5b 94 07 bd f4 fa f9 bd c1 b5 cf 3d
       -0.046007637 -0.033100467 -0.12206069 0.10142089
000130 10 b7 52 bd 10 d7 de bc 14 21 b3 3b d8 b2 f7 bc
       -0.051444113 -0.02720216 0.0054665897 -0.030236647
000140 7c d4 c1 bc 54 72 13 bd dd f7 16 3d 17 d2 9f bd
       -0.02366089 -0.035997704 0.036857475 -0.07803743
000150 4c db 97 bd 7a 3b 38 bd a0 94 b3 3c 1e 5f 81 bd
       -0.074148744 -0.044978596 0.021921456 -0.0631697
000160 6c a3 37 bd 18 e2 94 3c cc c2 17 bd a5 83 95 bd
       -0.044833586 0.018174216 -0.037051007 -0.073005
000170 c8 14 9d bc e8 38 07 3d 36 2d 5d bd 2d a4 18 bb
       -0.019174948 0.033013254 -0.053998195 -0.0023291216
000180 15 46 12 3c da 48 0a 3d 96 89 1f bd 8a 8a 6f 3b
       0.008927842 0.033760883 -0.03894957 0.0036551082
000190 f1 f6 2e bd b8 24 0b bb 6f 15 cc bc 62 ea 2c bd
       -0.04271597 -0.0021231603 -0.024912564 -0.042215712
0001a0 8c 06 d0 3c b5 4b 7d bd 99 32 56 3b 46 40 99 bc
       0.025393747 -0.061839778 0.0032683967 -0.018707406
0001b0 fc c7 45 bd 58 e1 e7 3c f0 68 df 3c 51 95 89 3c
       -0.048286423 0.028305694 0.027271718 0.016794832
0001c0 69 10 7a 3d 69 5a 08 3c 46 13 35 bd 48 c7 48 bc
       0.061050806 0.008322337 -0.044207834 -0.012254544
0001d0 5c 29 4e 3d 0d c4 e1 bd 7a 3c ad b9 7e 91 1d bc
       0.050332412 -0.11023722 -0.0003304219 -0.009617208
0001e0 d1 e6 73 bd a0 66 b0 3d 3d 60 8c bd 10 25 b9 bb
       -0.059546296 0.08613324 -0.068542935 -0.00565017
0001f0 9c 89 d3 3c 79 35 e2 3c 46 db 35 bd 48 10 36 3c
       0.025822453 0.027613388 -0.04439857 0.01111228
000200 23 01 ec 3c 41 ae 46 3c bd 3e 50 bd b3 21 ad bb
       0.028809136 0.012126506 -0.050841082 -0.0052835583
000210 9e 11 b6 3b 58 aa a4 bc cf 13 62 bd e3 82 3e bd
       0.0055562994 -0.020100757 -0.055194672 -0.046511542
000220 69 38 e1 3c b4 83 41 3d 78 4f 43 3d cd 52 68 bd
       0.027492719 0.047244743 0.04768321 -0.05671959
000230 40 da 2f 3d ee 2a 77 bd 8c e4 37 bc 00 ed 09 3d
       0.04293275 -0.060343675 -0.011223923 0.033673286
000240 b2 6e 48 bd d5 3d 07 bd 2c 5d cb bc ec 29 19 bd
       -0.048933692 -0.033017952 -0.024824701 -0.037393495
000250 45 2f 83 bc d3 bd c6 bb 9c 63 35 bd c0 4b 10 bb
       -0.01601375 -0.0060651093 -0.044284448 -0.0022017807
000260 27 d2 ae 3c 9d b7 d3 3c 9e 54 ec bc df 5d ca 3c
       0.021340443 0.02584439 -0.028848942 0.024702964
000270 7c 23 86 bc 87 ff 07 bd 0b c5 89 3c 38 44 ba bd
       -0.016374342 -0.033202674 0.01681759 -0.09095043
000280 11 ac df b8 3e 30 86 3c 30 e6 8d bc 02 79 21 3d
       -0.000106655185 0.016380426 -0.017321676 0.039422043
000290 78 22 b2 bd e3 b5 1b 3e 49 4a a9 bd 8e 7a c9 3b
       -0.08697981 0.15206103 -0.08266122 0.006148643
0002a0 a0 62 e0 bc d2 05 12 3d 5e 17 16 bd f2 60 87 bd
       -0.027390778 0.035650082 -0.03664338 -0.06610288
0002b0 96 7a 5b bd e6 0c c0 3b ee 56 03 3b 06 c3 8b 3d
       -0.053583704 0.0058609126 0.0020040828 0.06824307
0002c0 64 f1 57 bb 0d 2d fe bc 07 89 6e 3c 80 03 1f bd
       -0.0032950277 -0.031027341 0.014559037 -0.038821697
0002d0 70 01 2e bd ad 24 0b bd 97 b8 83 bc 30 17 12 bc
       -0.04248184 -0.033970524 -0.01607923 -0.008916661
0002e0 dc f6 25 3d e7 c3 73 bd 87 6a 0b bd f6 b0 4d 3d
       0.040518627 -0.059513 -0.03403714 0.05021759
0002f0 cb 0e 07 3d 78 87 51 3c 4b c8 4f 3d a0 fe 5b bc
       0.032973092 0.012788646 0.050728124 -0.013427407
000300 3b a6 06 3e ad c4 6a 3d b6 1d 67 bd f8 6a a1 bc
       0.1314935 0.05731647 -0.05642482 -0.019704327
000310 5f b2 81 3d 37 87 70 bd 40 3a 86 3b b1 60 16 bd
       0.0633285 -0.0587227 0.0040962994 -0.036713306
000320 62 b0 11 bd 83 c5 b3 bc 40 bc d9 bb 93 96 94 bc
       -0.035568602 -0.021944767 -0.0066447556 -0.018138206
000330 72 a6 b0 3c 65 ef af 3b 63 16 9f bc 30 c0 22 3d
       0.021563742 0.005369114 -0.019419855 0.039734066
000340 cd 22 84 bd 25 c6 a7 3c 57 b5 87 bb 38 6e 43 bd
       -0.0645195 0.020480225 -0.0041414904 -0.047712535
000350 0e 6e 22 bb 0f 4f 77 bc ac 37 1e 3c 74 bf ad 3c
       -0.0024784836 -0.015094533 0.009656828 0.021209456
000360 66 5f 2b 3d cf f7 0b 3e 7d bc 17 3c d4 4f d7 bc
       0.041839026 0.1366875 0.009261248 -0.026283182
000370 24 46 be 3c 60 db 2e 3d 3d 9f 3f bd 40 1e af 3b
       0.023226805 0.04268968 -0.04678272 0.0053441823
000380 71 50 60 3d bf 30 11 bd 86 8e 97 bd dd e8 24 bd
       0.054764215 -0.03544688 -0.07400231 -0.04026114
000390 cd a3 be bd 8b 30 84 bd ff 8c 41 3d f9 be 2b 3d
       -0.09308586 -0.06454571 0.047253605 0.041930173
0003a0 98 e9 1a bd d0 e6 16 3d 38 e1 07 bd 50 98 c4 3d
       -0.03782043 0.036841214 -0.03317377 0.09599364
0003b0 f8 57 0d 3c 06 f2 3d 3d 34 4a 8a 3c c4 f4 e5 3c
       0.00862693 0.04637339 0.016881086 0.028070815
0003c0 c0 a0 67 3c 2c 22 10 bd 20 a3 84 3b c4 c2 24 bd
       0.014137447 -0.03518884 0.0040477663 -0.040224805
0003d0 3f 1a c6 bc e2 45 54 bd 5c 10 7b bd ff 18 12 3b
       -0.024182437 -0.051824458 -0.0612949 0.002229273
0003e0 64 09 26 bd 33 61 e8 bb 52 5f 1f 3d e6 02 41 bd
       -0.0405363 -0.007091665 0.038909264 -0.047121905
0003f0 38 69 44 3d 21 95 27 3d 44 65 1f 3d 9b 6e c4 3c
       0.047951907 0.040913705 0.038914934 0.023978522

fc3.bias f4 [256]
000000 ca c2 1f bc 9a b0 54 3d 5f db 1d 3c 33 de 81 3d
       -0.009751031 0.051926233 0.009634822 0.06341209
000010 26 0e 23 3d f2 af 97 3c 10 e5 ce bc 3c ec b8 bc
       0.039808415 0.018516514 -0.02525571 -0.022573583
000020 4a 9f 65 bd 42 d0 11 3c 58 b2 0d bd e0 ac 3d bc
       -0.056060113 0.00889975 -0.03459391 -0.011576861
000030 01 cf d7 3c 88 f3 6e bc 02 dd 53 bd 7c 21 8e 3c
       0.026343824 -0.01458443 -0.05172444 0.017349951
000040 94 71 ac 3c 26 06 7f bc 47 66 39 3d 71 bb 31 bd
       0.021050252 -0.015565431 0.045263555 -0.04339165
000050 48 07 02 3d 28 0d 75 3d 74 25 61 bc 97 72 23 3c
       0.031745225 0.059827 -0.01374184 0.009976051
000060 54 e4 74 bd 92 a4 c3 3c ac 0b 75 bb cc 3f 59 bd
       -0.059788063 0.023882184 -0.003739099 -0.053039357
000070 90 aa 32 3d 3c 0a af 3c a3 15 2c bc 4d 57 48 3d
       0.043619692 0.021367185 -0.0105032055 0.04891138
000080 e7 08 0c 3d 9d c1 e4 3c 8e 31 46 bd 71 dc ff 3b
       0.034188177 0.027924353 -0.048387103 0.007808261
000090 05 64 84 bd c7 ed 1f 3c 68 ff 61 bd 9b 23 26 3d
       -0.0646439 0.00976128 -0.055175215 0.0405613
0000a0 7e e3 70 3c 51 fd eb 3c 96 47 8b bc a5 6b 1a bd
       0.014702676 0.028807314 -0.017001908 -0.037700314
0000b0 ed f2 a7 3b 81 84 53 bc a8 5e 23 bd e2 c9 4e bd
       0.0051253946 -0.012910009 -0.039885193 -0.0504855
0000c0 42 a9 b8 bc c3 15 f3 3c b6 77 79 bd 88 e9 29 3d
       -0.022541646 0.029673463 -0.06090518 0.04148248
0000d0 cb 6d 88 bc a2 92 d4 bb 49 56 3f bb e5 20 2f bd
       -0.016653916 -0.0064872066 -0.0029195717 -0.04275598
0000e0 0b a3 09 bd 68 d2 8e 3d 40 cb 13 3d 1e 00 71 3c
       -0.033602756 0.069737256 0.036082506 0.014709501
0000f0 0c 56 07 3d 2b 43 2f bd ac 32 32 bd 4b f7 35 3d
       0.033041045 -0.042788666 -0.043505356 0.04442529
000100 fb e0 d2 bc 22 c4 82 3b 38 47 bd bc 6d 44 c6 3c
       -0.025742045 0.003990666 -0.023105249 0.02420255
000110 54 dc 2c bc 6c ba 1c 3d e8 da 1f 3d 61 22 7e bb
       -0.010550577 0.038263723 0.039027125 -0.0038777816
000120 1c 45 39 bd 65 bc 05 bc c8 74 3d 3c 6c 49 41 3d
       -0.045231923 -0.008162593 0.011563487 0.04718916
000130 a0 2a 0d 3d a2 9f 8b bc cd 78 0a bd 93 6e 30 bd
       0.03446448 -0.017043892 -0.03380661 -0.0430742
000140 ea 66 82 bd 21 8f 4f 3c ca 47 9b 3b cc cd 87 3c
       -0.063672855 0.012668402 0.0047387825 0.016577624
000150 5e 8b 31 bd 2d 31 41 bc 21 8e 12 bd 60 4a e3 bc
       -0.0433458 -0.01179151 -0.035780076 -0.027745426
000160 67 c5 1e 3c 88 8e 40 3d 78 7e 18 3d e4 45 e0 bb
       0.009690619 0.04701093 0.037229985 -0.006844269
000170 42 a1 f2 bc 3a 0a 43 bd 82 ed 43 bd f7 c3 ad 3c
       -0.02961791 -0.047617175 -0.047833927 0.021211607
000180 2e 23 9b bc 42 47 db bc d2 d7 16 3d 62 2d 5d bd
       -0.018937673 -0.026767377 0.036826916 -0.05399836
000190 e1 42 3b bc 41 20 34 3d 2a d8 12 3c 2e e4 1a 3d
       -0.011429519 0.043976072 0.00896267 0.037815265
0001a0 6f 7d ef 3c 1a b5 f3 3c 93 bb 15 3c 6c 55 95 bc
       0.029234616 0.029749442 0.009138959 -0.018229209
0001b0 58 3f 03 3c 85 57 80 3d 46 dc 1d 3d d4 f8 b0 3c
       0.008010708 0.06266693 0.038540147 0.021603025
0001c0 ba ec 07 bd 82 63 66 3d b3 f5 94 3b b7 91 57 3c
       -0.033184744 0.05624724 0.004545891 0.0131573
0001d0 4e 01 98 3c be 3e cf bb 18 6b 58 bd 78 fd f9 3c
       0.01855531 -0.006324618 -0.052836508 0.030516371
0001e0 5a 99 16 3d 26 00 5d 3d 39 20 f5 bb 29 02 20 3c
       0.03676734 0.05395522 -0.007480648 0.00976614
0001f0 69 b6 7b bc e0 d4 2b bd a3 fe de 3c d5 aa 79 bc
       -0.015363314 -0.04195106 0.02722103 -0.015238483
000200 28 2f 52 3c 18 44 50 bd 76 d2 5b bd e2 d2 bc bc
       0.012828626 -0.05084619 -0.053667508 -0.023049776
000210 11 3b 10 3d 10 a2 84 3d 77 f3 7a bd 69 89 cb 3c
       0.03521258 0.064762235 -0.061267342 0.024845796
000220 37 36 1f 3d 67 55 36 3d f6 35 36 bd 67 29 61 bb
       0.038870063 0.04451504 -0.044485055 -0.0034356953
000230 fe fe fe 3c 9c 4d a4 bc f1 95 5e 3b 53 c5 50 bd
       0.03112745 -0.020056538 0.0033963884 -0.050969433
000240 79 1c 2a 3c fd 72 09 3d 64 3b 7b 3c 9e 9e c6 ba
       0.010382765 0.033556927 0.015333984 -0.0015153473
000250 e2 ac c2 3b 38 1a ad bc fd 61 40 3d 41 8c 96 bc
       0.0059410194 -0.021130666 0.04696845 -0.018377425
000260 01 13 17 3d 4d 8b 20 3d 54 c0 c3 bc 07 9d 10 bd
       0.036883358 0.039195348 -0.02389542 -0.035306003
000270 8d ce 46 3c 14 29 a5 bc 3c d6 28 bd 78 85 fb 3c
       0.0121342065 -0.02016119 -0.041219935 0.030703291
000280 32 c5 27 bd 53 a2 39 3b d6 4f 0e bd e8 f9 5d bd
       -0.040959544 0.0028325513 -0.034744106 -0.054193407
000290 30 0c 03 3c c1 ac 05 bd d2 a6 68 bb 17 de de 3c
       0.007998511 -0.032635454 -0.0035499823 0.02720551
0002a0 d4 e6 16 3d 63 a1 95 bb 32 0e 7d bd de d0 4d bd
       0.03684123 -0.004566358 -0.061781116 -0.05024802
0002b0 2e 6d 48 bd d6 ae f2 3c 7d d4 c9 bc 15 9a 98 3c
       -0.048932247 0.029624384 -0.024637455 0.01862816
0002c0 1d 9e ca bc 32 07 52 bd 04 96 67 3d fa f1 4e bd
       -0.024733597 -0.051276393 0.05653955 -0.050523736
0002d0 98 41 54 3d ec 24 51 bc f5 59 1c 3d a6 97 c4 bb
       0.051820368 -0.0127651505 0.038171727 -0.005999523
0002e0 7c 4b c4 bc 55 17 13 bb 90 a4 32 bd 21 9c 73 bd
       -0.023961775 -0.0022444327 -0.04361397 -0.059475068
0002f0 a9 d9 59 bd f0 39 8b 3c bf 11 5f 3d a6 8a cb 3c
       -0.053186093 0.0169954 0.054460283 0.024846386
000300 ab a5 85 3c 70 ec 78 bc 0d 8b 3c 3d 40 46 0f bd
       0.016314348 -0.01519309 0.046031047 -0.034979105
000310 7d 39 58 3d c3 c5 17 ba 31 6c 39 bd 40 7c 80 3c
       0.0527892 -0.00057896617 -0.045269195 0.015684247
000320 f0 e9 a3 bc fb 1d e2 3c 2a 9d 32 bd 52 0f 91 bc
       -0.020009011 0.027602186 -0.043606915 -0.0177075
000330 42 8a 13 bd 5a 48 3e 3d cd 4d 41 3c ce 79 59 3d
       -0.036020525 0.04645572 0.011798334 0.053094678
000340 54 b9 33 bd d9 0b aa 3c 15 2b cc 3b 92 23 b0 3c
       -0.043877915 0.020757603 0.0062307217 0.021501336
000350 01 a6 67 3c 2a 80 22 3d 84 45 ca bc d0 28 e9 bc
       0.0141386995 0.039673008 -0.02469135 -0.028461844
000360 e0 dd 0b 3d 47 2c 5b 3d e3 2d eb bc e5 4d 27 bd
       0.034147143 0.053509023 -0.028708404 -0.04084577
000370 68 1e 65 bd 13 83 2e bd 39 cb 06 3d 38 de 81 3d
       -0.0559372 -0.04260547 0.032908652 0.06341213
000380 56 ab 60 bd f3 7a 1a 3d 9a 67 dc b9 9c c7 f0 bc
       -0.0548509 0.03771491 -0.0004203886 -0.029392056
000390 8b f5 40 3d a3 12 3c bc 5c fb 21 3c 44 33 7c bc
       0.047109168 -0.011479053 0.009886589 -0.015393082
0003a0 c0 b4 de bc 88 ce 2d 3d 93 e9 be 3c 65 73 b2 bc
       -0.027185798 0.04243329 0.023304736 -0.02178354
0003b0 c0 06 12 bd e6 e7 44 3d eb da 3e 3d 4a 32 56 bd
       -0.03565097 0.048072718 0.046595495 -0.052294053
0003c0 eb 59 e2 ba bd 8c 65 3c 98 46 89 3c b8 6c ac bc
       -0.0017269229 0.014010605 0.016757295 -0.021047935
0003d0 c2 2f 92 3c 39 20 fc bc 15 0f d7 3c fc 4d 64 bd
       0.017845038 -0.030777084 0.026252309 -0.055738434
0003e0 f9 bf d8 bb 3a 83 78 bd 74 48 08 bd aa 19 5b bc
       -0.006614682 -0.060672022 -0.03327222 -0.013372818
0003f0 6d 3b 8e 3d 2e 9f 86 bd ab 55 6d 3d 8d d3 d2 3c
       0.06944928 -0.0657333 0.057943027 0.02573564

fc4.weight f4 [2, 256]
000000 5b 41 63 3d df 09 16 3d 6e 1d 14 3d e9 83 ea 3c
       0.05548225 0.036630508 0.03616088 0.028627353
000010 73 ed 20 bd 60 a3 fe bc 6a f7 50 bd f7 ca b4 3b
       -0.03928895 -0.031083763 -0.051017202 0.0055173594
000020 50 35 00 3c 18 27 1e bd 8e 22 7e 3d 01 1a 3b 3c
       0.007825211 -0.0386115 0.062044673 0.011419774
000030 f4 e1 63 3d 50 82 89 3c c6 fe 13 3d 72 d1 27 bd
       0.055635408 0.01678577 0.036131643 -0.040971227
000040 5a 32 8e 3d f3 11 0b 3d 80 43 0c bd cc 8c 16 bb
       0.069431975 0.033952665 -0.03424406 -0.0022972105
000050 55 04 e4 bb 79 a1 48 3d 72 10 51 bd 14 8a a7 3a
       -0.006958524 0.048982117 -0.051041074 0.0012782239
000060 e7 81 5a 3c 9a 36 99 3d 79 6e 51 3d 6c d9 5f 3d
       0.013336635 0.074811175 0.051130746 0.05465071
000070 77 b8 68 3d 81 31 df 3c 36 1c ae bc d0 8b 01 bd
       0.056816544 0.027245285 -0.021253686 -0.031627476
000080 85 00 4d 3d 38 84 72 3d 40 42 5c 3c cc 48 94 3c
       0.050049324 0.059208125 0.01344353 0.018101119
000090 e9 23 58 bd 12 28 8e 3d 24 0b 32 3d 41 b5 8c 3d
       -0.05276862 0.069412366 0.043467656 0.06870509
0000a0 5b 79 8b 3d b2 62 2c 3d 33 02 6c 3c 60 bf ce 3c
       0.06810256 0.04208631 0.014404821 0.02523774
0000b0 52 10 11 bd 8e 75 46 3d ef 2b 23 3d 14 92 de 3c
       -0.035415955 0.048451953 0.03983682 0.027169265
0000c0 65 05 b2 3c f9 50 9a 3c c2 85 44 3d 5c ce 4b 3d
       0.021731088 0.018837439 0.047979124 0.049757347
0000d0 e0 50 dd 3c 7d bc 14 bd 23 00 d9 bc df fe 0f ba
       0.027016103 -0.03631257 -0.026489323 -0.0005492996
0000e0 14 eb f9 ba 62 44 98 3c dc d0 6a bd d7 89 96 bc
       -0.0019067251 0.018587295 -0.05732809 -0.018376274
0000f0 e6 ca 1d bd 97 7f 10 3d 84 c9 b0 3c 72 09 1b 3d
       -0.038523577 0.03527793 0.021580465 0.037850805
000100 6d b5 aa 3c f7 a8 6c 3d c8 41 2f 3d 90 98 10 bd
       0.020838464 0.057778325 0.042787343 -0.035301745
000110 43 4a 48 bd 95 58 1c bb 45 a6 1f bc 62 c7 66 3d
       -0.048898946 -0.002385651 -0.009744232 0.05634249
000120 80 af 72 bd c1 0e 20 bd e4 1a e9 bc 74 27 79 3d
       -0.0592494 -0.03907657 -0.028455205 0.06082864
000130 50 18 32 bd 7c 39 70 bc cf 09 5e 3d f9 98 ef bb
       -0.043480217 -0.014662143 0.054208573 -0.007311937
000140 22 bb 5d ba d9 54 8b 3b c8 80 84 3d 0b 16 63 3d
       -0.0008458366 0.004252058 0.064698756 0.055440944
000150 ca 22 15 3c f6 90 d8 bb 44 29 f9 bc 4a 7a 9e bc
       0.009102533 -0.0066090776 -0.030415185 -0.019345421
000160 a8 a7 37 bd b2 d7 81 bd 18 06 62 bd 35 5a 46 ba
       -0.044837624 -0.06339969 -0.055181593 -0.00075665425
000170 bf 2d 93 39 b0 f2 88 3c 0d 19 e8 bc 8b 96 84 bc
       0.00028072108 0.016717285 -0.028332258 -0.016185066
000180 80 79 b2 bb f0 5d fd bd e3 06 8f 3d 52 ff 6c 3d
       -0.005446613 -0.12371433 0.069837354 0.05786068
000190 ed e5 01 3d 8d 12 1d 3d 54 2f ae 3b c8 d8 58 3c
       0.031713415 0.03834777 0.0053157005 0.013235278
0001a0 9e 60 e6 bc b5 6d 8e 3b 28 4b c9 3d f0 f0 16 bd
       -0.028122243 0.004346574 0.09828788 -0.03685087
0001b0 71 1d 41 3d 68 7d 6d 3d 5f ff 5d bd d9 c9 66 3d
       0.04714722 0.057980925 -0.05419862 0.05634484
0001c0 f0 f5 66 bd 46 97 91 3d 04 44 9d bb 95 40 e3 ba
       -0.056386888 0.07108931 -0.004799368 -0.0017337973
0001d0 ec 9a 10 bd f5 bf e5 bc e8 2d 3d bd 42 dc bc bc
       -0.035303995 -0.028045634 -0.046186358 -0.023054246
0001e0 81 ad 5d 3d 1f 64 8a 3d a9 16 4d 3d c0 12 ee 3b
       0.054120544 0.06757378 0.05007044 0.007265419
0001f0 b4 a2 ea bc a4 30 25 bd cc f6 81 bc 68 e9 25 3c
       -0.028642036 -0.04032959 -0.015864752 0.010126449
000200 c4 f9 d5 bc 36 d7 1a 3d 1a 62 1b 3d 67 c3 0f 3e
       -0.026120074 0.037802897 0.037935354 0.14039384
000210 38 11 1a 3d 61 6f 8d 3d af f5 30 bc d3 dc 30 3d
       0.037614077 0.069060095 -0.010800763 0.043179344
000220 06 74 40 3c 21 0c ec 3c 51 24 2d 3d 9a bf 25 3d
       0.011746412 0.028814377 0.042270962 0.04046593
000230 4c ee 82 3c a8 bf 9b 3d 42 91 15 bd c2 f8 5c 3b
       0.01598277 0.07604915 -0.03651548 0.0033717607
000240 76 e9 91 3d e9 85 23 bc d3 b4 32 bd b1 f2 12 3d
       0.07124607 -0.009980657 -0.04362948 0.03587598
000250 54 e3 30 bd 7c 81 8b bc 8d 50 81 3d 49 01 5f 3d
       -0.043185547 -0.017029516 0.06314192 0.054444585
000260 3e c3 61 bd ad fa d3 3c f8 f7 47 3d 49 5c 2d 3d
       -0.055117838 0.025876367 0.048820466 0.042324338
000270 7d d1 b2 bc ae 5b 44 bd 2c c0 5b 3c 7b ec 0f bd
       -0.021828407 -0.047938995 0.013412517 -0.035137635
000280 a0 54 07 3d f1 42 2b 3d be c2 b4 bd 3c ce 5b bd
       0.03303969 0.041811887 -0.088262066 -0.053663477
000290 2d f3 18 bd 93 ad f6 bc fa 27 84 bc c2 87 d3 bc
       -0.037341285 -0.030112064 -0.016132344 -0.02582157
0002a0 2e 62 2b bd dc eb ba bc 38 0f c5 bc 3c 5e 22 3d
       -0.04184168 -0.022817545 -0.024055108 0.03964065
0002b0 0a 3c 00 3d 67 dc df 3c 7d fa 00 3d 96 8c 4d bd
       0.031307258 0.027326776 0.031488884 -0.0501829
0002c0 83 98 cc bc 54 29 58 bc 42 56 49 3d 56 f1 0a 3d
       -0.024975067 -0.013193447 0.049154527 0.033921562
0002d0 c1 85 72 3d 23 94 f3 bb 0c 99 16 bc ac 69 0a bd
       0.05920959 -0.0074334308 -0.009191763 -0.033792183
0002e0 40 94 d3 3b 19 5d a3 3c da a2 37 bd b2 90 81 bc
       0.0064568818 0.019941853 -0.04483304 -0.015816066
0002f0 ea fc 83 3d ae ed 68 3d e9 28 79 3d 44 39 8a 3d
       0.06444724 0.056867294 0.06083003 0.06749204
000300 1e 7b 82 3d ee 76 af 3d 0f f8 82 3d 4f a0 05 bc
       0.06371139 0.08567606 0.0639497 -0.008155896
000310 23 51 8c 3b d2 aa 93 bc e9 ed 4c 3b 0e 68 14 3d
       0.004282133 -0.01802579 0.0031269735 0.036232047
000320 ea af 89 3c d0 18 33 bd 7a da 85 bc 54 c2 a1 3d
       0.016807515 -0.043724835 -0.01633953 0.07898393
000330 67 29 5c bd 58 a6 2c bd 44 e2 b0 bb a2 5a 44 3d
       -0.05375042 -0.042150825 -0.0053980667 0.047937997
000340 b6 20 56 bd 08 76 cd 3c 9a 22 0a bd b1 bc 2f bd
       -0.05227729 0.025080696 -0.033724405 -0.04290456
000350 f0 0b 2d 3d 59 c4 a2 3c 9d 01 0f 3d 28 c3 02 3c
       0.042247713 0.019869016 0.034913648 0.007981099
000360 26 16 d9 bc 8b b0 88 bd 5c e7 83 bd c1 2e 8d 3b
       -0.026499819 -0.06674298 -0.06440613 0.004308552
000370 ca a2 22 bd 79 bb 67 bd 37 c0 e7 bc e7 7a 25 3d
       -0.03970603 -0.056575272 -0.028289897 0.040400412
000380 2c b4 91 bc 58 18 88 3d e7 32 8f 3c 97 f2 32 3d
       -0.017786108 0.06645268 0.017480327 0.043688383
000390 25 87 56 3d f2 9e 0a bc 10 b3 52 3c a0 18 2b bd
       0.052374978 -0.008460747 0.012860075 -0.04177153
0003a0 82 4e 7d bd 3d 51 00 bd 97 d0 99 3d ef ee 5a bd
       -0.06184245 -0.031327475 0.075104885 -0.05345052
0003b0 7c 8f 60 3d 87 c1 80 3d 63 08 a8 bc ce 7a 33 bd
       0.054824337 0.062869124 -0.020511812 -0.043818288
0003c0 f3 38 2e 3c a0 ec 01 bc a5 28 9d bc a0 95 dd 3b
       0.010633695 -0.007929951 -0.01918442 0.0067622215
0003d0 e8 24 e7 bc 2d c6 0b bd f8 18 0a 3d de d1 2b 3d
       -0.02821584 -0.034124542 0.03371522 0.04194819
0003e0 fe b3 d9 3c de 99 02 bd 98 ad 38 be c0 6f 1f 3d
       0.026575085 -0.03188502 -0.18034971 0.038924932
0003f0 08 b2 41 3d a8 3c a2 bc 4a 90 d3 3c 4c 1f 3b ba
       0.047288924 -0.019804314 0.025825638 -0.00071381475

fc4.bias f4 [2]
000000 07 8a 17 bc 56 f3 80 3d
       -0.009249217 0.06296413
