ann_pitched.pth (torch, 573552 bytes, 8 tensors)

fc1.weight f4 [256, 40]
0	0x3def450b	0.11683091
1	0xbda8c27d	-0.08240221
2	0x3daf5e87	0.085629515
3	0xbcada224	-0.021195479
4	0x3db4ee97	0.0883457
5	0xbd449808	-0.04799655
6	0xbdc48bec	-0.095970005
7	0xbd55a9e2	-0.052163966
8	0xbd4be184	-0.049775615
9	0x3d62875e	0.055304877
10	0xbd0d20fd	-0.03445529
11	0xbd82499e	-0.063616976
12	0x3e0b101e	0.13580367
13	0x3d2e413e	0.04254269
14	0x3e1423be	0.1446676
15	0x3d041792	0.03224904
16	0x3dc5f7cf	0.09666406
17	0xbe209a24	-0.156838
18	0xbdae5c65	-0.085137166
19	0xbc7ba167	-0.015358306
20	0x3d121cac	0.035671875
21	0xbddcd3b6	-0.10782568
22	0xbda19608	-0.07889944
23	0xbd8167fb	-0.06318661
24	0x3d3ed3b8	0.04658863
25	0xbe1c9699	-0.15291823
26	0xbda43c24	-0.080192834
27	0x3c5d90c0	0.013523281
28	0xbe17cf4c	-0.14825171
29	0xbd626ff8	-0.055282563
30	0xbcb72b78	-0.022359595
31	0x3e0ccb27	0.13749371
32	0x3d9b36a6	0.07578783
33	0xbde8e554	-0.11371866
34	0x3d5f96e8	0.054587275
35	0xbc094c30	-0.008379981
36	0x3e0c4117	0.13696705
37	0xbe1c41a3	-0.15259413
38	0xbd874b5c	-0.066061705
39	0x3e079a5b	0.13242476
40	0xbdb8348e	-0.08994399
41	0x3d96a1dc	0.07355091
42	0x3e192919	0.14957084
43	0x3cc779c0	0.024350047
44	0x3d248224	0.040163174
45	0xbd1d7c6e	-0.038448744
46	0x3d852baa	0.06502469
47	0x3e1b6e65	0.15178831
48	0xbcabd648	-0.0209762
49	0x3c0cb870	0.008588895
50	0xbe02f0db	-0.12787192
51	0xbd039544	-0.032124773
52	0xbd7b2458	-0.061313957
53	0xbe143e31	-0.14476849
54	0xbd9d344d	-0.07675991
55	0x3e0653c7	0.13117896
56	0xbc31da50	-0.010855272
57	0xbd2ed162	-0.04268015
58	0x3d499114	0.049210623
59	0xbd9410e8	-0.07229787
60	0x3dc8179e	0.097701296
61	0xbccc08d8	-0.02490656
62	0xbd0b30a0	-0.03398192
63	0xbe05a728	-0.13052046
64	0xbdcc46dc	-0.09974453
65	0x3dcfe16a	0.10150416
66	0x3be15ce0	0.0068775266
67	0x3cc42a38	0.023945913
68	0xbe19ea42	-0.15030769
69	0x3d9dcf88	0.07705599
70	0xbe16c15a	-0.14722195
71	0x3b917ce0	0.004439935
72	0x3cca5090	0.024696618
73	0x3e06458f	0.13112472
74	0xbcf6db68	-0.030133918
75	0x3ceae3a0	0.028672993
76	0x3dc0e7c6	0.09419207
77	0xbd13bc12	-0.03606803
78	0xbe1bc7ca	-0.15212932
79	0x3cf58970	0.029972762
80	0xbe02f1c8	-0.12787545
81	0x3aa5ed6a	0.0012659256
82	0x3c443664	0.011975858
83	0xbd1e3db1	-0.038633052
84	0x3e076adf	0.13224362
85	0x3e0fb5a2	0.14034131
86	0x3d474ffd	0.048660267
87	0xbccc31b3	-0.024926042
88	0xbe0cd2c4	-0.13752276
89	0xbe0037c6	-0.12521276
90	0x3db96a01	0.09053422
91	0x3d2026c6	0.039099477
92	0x3dbafadc	0.09129879
93	0x3dcb490e	0.099260435
94	0xbd553f82	-0.05206252
95	0x3e18bfb5	0.1491688
96	0xbbb33d79	-0.0054699746
97	0xbadd8e5b	-0.0016903387
98	0x3d7c8f97	0.061660375
99	0xbe073cf7	-0.1320685
100	0xbc61fe32	-0.013793515
101	0x3d91d4cf	0.07120668
102	0x3d53d3a0	0.051715493
103	0x3e135dcd	0.14391251
104	0xbdc61514	-0.09671989
105	0x3e03335a	0.12812558
106	0x3d802a34	0.062580496
107	0xbdfed5e7	-0.124431424
108	0x3d965009	0.07339484
109	0x3dfff399	0.124976344
110	0xbdea9e9b	-0.11456033
111	0x3dbfe08f	0.09369003
112	0xbe06341e	-0.13105819
113	0xbcb116f5	-0.021617392
114	0xbd1ea9cd	-0.038736153
115	0x3e1fb28a	0.15595451
116	0xbdef5ce8	-0.11687642
117	0xbe0f9258	-0.1402067
118	0x3dd8aec2	0.105802074
119	0x3e30e67a	0.1727542
120	0xbd1f8b54	-0.038951233
121	0x3d6286f4	0.055304483
122	0xbd5b1a08	-0.053491622
123	0xbe1c3e25	-0.15258081
124	0x3d9508a8	0.07277042
125	0x3abe3500	0.0014511645
126	0xbe1104d8	-0.14162004
127	0x3d97ab72	0.074057475
128	0xbe169967	-0.14706956
129	0x3d09fe78	0.033689946
130	0xbe110318	-0.14161336
131	0xbd886373	-0.066595934
132	0xbc3c6030	-0.011497542
133	0x3dcff7b2	0.10154666
134	0x3e05f647	0.13082229
135	0x3dcff7f6	0.10154717
136	0xbd562618	-0.052282423
137	0xbe0019de	-0.12509868
138	0x3cf65b28	0.030072764
139	0x3bcc4020	0.0062332302
140	0x3c8184d8	0.015810415
141	0x3e0ce365	0.13758619
142	0xbdad20c9	-0.08453519
143	0xbddf3b4f	-0.10899984
144	0x3ddb4c56	0.10707919
145	0xbd25466c	-0.040350363
146	0xbdb01b21	-0.085989244
147	0xbd23208c	-0.03982596
148	0xbdd26ad4	-0.10274282
149	0xbd16f484	-0.036854282
150	0x3d785030	0.060623348
151	0xbda9a7c0	-0.08283949
152	0x3e0a6165	0.13513716
153	0xbce23260	-0.027611911
154	0x3cb8ae18	0.022543952
155	0x3dd24f46	0.102690265
156	0x3d355858	0.044273704
157	0x3d674730	0.056464374
158	0x3dd9d586	0.106364295
159	0xbd622116	-0.055207334
160	0x3989053b	0.00026134573
161	0xbda8cd85	-0.08242325
162	0x3d239e22	0.03994573
163	0xbe1124ba	-0.14174166
164	0x3d66b8ee	0.056328706
165	0xbdcd16a7	-0.10014086
166	0x3dd22235	0.10260431
167	0xbda0530d	-0.07828341
168	0xbe26fb62	-0.16306832
169	0x3e142c23	0.14469962
170	0x3c951dba	0.018202651
171	0x3e19667c	0.14980501
172	0xbdec4cef	-0.115381114
173	0xbd475cd6	-0.04867252
174	0x3d2dca2a	0.042429127
175	0xbdc6215d	-0.09674332
176	0xbc0a6b0f	-0.008448376
177	0x3e0037a1	0.1252122
178	0x3c1bd1fc	0.009510513
179	0xbd824afb	-0.06361958
180	0x3d57a69a	0.052649118
181	0x3d96552b	0.07340463
182	0xbde70605	-0.11280445
183	0xbdceb505	-0.100931205
184	0xbe1015ec	-0.14070863
185	0xbd52ad7f	-0.05143499
186	0x3d735710	0.0594092
187	0x3dd2b257	0.10287922
188	0xbc0c3d1d	-0.008559492
189	0x3e15d3c2	0.1463156
190	0x3da37881	0.07981969
191	0x3ccfd9df	0.025372444
192	0x3dd73486	0.10508065
193	0xbdcc5026	-0.099762246
194	0x3c35b5e5	0.01109073
195	0x3e035d67	0.12828599
196	0xbe05be20	-0.13060808
197	0x3dd9aa9a	0.10628243
198	0x3d282ac9	0.041056428
199	0xbe02d61a	-0.12776986
200	0x3e141c6a	0.14463964
201	0x3d410084	0.047119632
202	0x3dd6fb7f	0.10497188
203	0x3cd1a330	0.02559051
204	0xbe0fa978	-0.14029491
205	0xbe124500	-0.14284134
206	0xbe10d3d5	-0.14143308
207	0xbd0e516f	-0.03474563
208	0xbd478381	-0.048709396
209	0x3ca5c311	0.020234616
210	0xbdd73ec9	-0.10510022
211	0x3c86b257	0.016442461
212	0x3d818249	0.06323678
213	0x3c2bce3a	0.01048618
214	0x3d7fc9f4	0.062448457
215	0xbd741a46	-0.05959537
216	0xbd8a995e	-0.06767534
217	0x3e2049d3	0.15653162
218	0x3db12fca	0.08651693
219	0x3d479c15	0.048732836
220	0x3d2db7d4	0.04241164
221	0x3d02f795	0.031974394
222	0xbb55c297	-0.0032617205
223	0x3e120270	0.14258742
224	0x3bb44116	0.005500923
225	0x3dd6b2d8	0.104833305
226	0xbe2d0f70	-0.1690042
227	0xbe2acceb	-0.16679733
228	0xbde53e8e	-0.11193572
229	0x3da4691f	0.08027863
230	0xbe249420	-0.1607213
231	0xbd2357dc	-0.03987871
232	0xbe000ccd	-0.12504883
233	0x3da2fb7f	0.07958125
234	0xbdc3bf79	-0.09558005
235	0xbadc2ee4	-0.0016798642
236	0xbdfac036	-0.122436926
237	0x3d925c03	0.07146456
238	0xbd4b7f1a	-0.04968176
239	0xbb494eeb	-0.0030717205
240	0xbd53e76d	-0.051734377
241	0xbc9873e8	-0.018609956
242	0xbe0a2986	-0.13492402
243	0xbe1997ec	-0.1499936
244	0xbd292f6b	-0.041304987
245	0x3d8339c3	0.064075015
246	0x3e0937c5	0.1340018
247	0x3c57addc	0.01316401
248	0x3d3009bf	0.042978045
249	0x3e007348	0.12543976
250	0xbd145d69	-0.036221895
251	0x3e3f6cff	0.18693922
252	0xbd46cca6	-0.04853501
253	0xbda3da5c	-0.08000633
254	0x3d86b9d9	0.065784164
255	0xbd95f4f4	-0.07322112

fc1.bias f4 [256]
0	0xbe0afb44	-0.13572413
1	0xbda4c0ae	-0.08044563
2	0xbe2cb7c4	-0.16866976
3	0xbe11b220	-0.14228106
4	0xbd0b8d51	-0.034070317
5	0x3deb15b1	0.11478747
6	0x3d2ed2a4	0.04268135
7	0xbe12965e	-0.14315173
8	0x3d479425	0.048725266
9	0x3c2322f4	0.009957064
10	0x3cd76011	0.026290925
11	0x3e020622	0.12697652
12	0xbbed496b	-0.007241418
13	0xbdc6a7e2	-0.0969999
14	0x3ddd14cb	0.107949816
15	0x3e1f4aef	0.15555929
16	0xbd1112d0	-0.03541833
17	0x3d9215f5	0.07133094
18	0x3debe846	0.11518912
19	0xbd893f8e	-0.06701575
20	0xbb927404	-0.0044693965
21	0x3dae15dc	0.08500263
22	0xbc8a676b	-0.016895017
23	0xbdaf8c60	-0.08571696
24	0x3d079587	0.033101585
25	0x3c6ed16c	0.014576297
26	0x3dd5c6f8	0.10438341
27	0x3de117d0	0.1099087
28	0x3d449820	0.04799664
29	0x3d2d635a	0.042331077
30	0xbe1a569c	-0.15072101
31	0xbd9dc5e8	-0.07703763
32	0x3cf0a218	0.029374167
33	0xbe0f5979	-0.13998975
34	0xbe107daa	-0.14110437
35	0x3cdf0dc7	0.02722825
36	0xbdaf9dba	-0.08575006
37	0xbe01d20b	-0.12677781
38	0x3dd9b4c4	0.106301814
39	0x3b5d709b	0.0033789042
40	0x3d22da30	0.03975886
41	0x3c7be061	0.01537332
42	0xbd4d3a13	-0.050104212
43	0x3dbb78e9	0.09153921
44	0xbe004568	-0.12526476
45	0x3dd33471	0.10312737
46	0xbde137b2	-0.10996951
47	0x3dcc2e78	0.09969801
48	0xbde4617e	-0.11151408
49	0xbe07cccb	-0.13261716
50	0xbdaf6c72	-0.08565606
51	0x3d5521ad	0.05203407
52	0xbd8ba223	-0.068180345
53	0xbca63df0	-0.020293206
54	0xbe1646f1	-0.146755
55	0xbdb6f9b9	-0.089343496
56	0xbe109749	-0.1412021
57	0x3dd6fd36	0.10497515
58	0x3e045c0c	0.12925738
59	0xbdcad81c	-0.09904501
60	0x3d82a429	0.06378967
61	0xbe082e63	-0.13298945
62	0xbd97c6f8	-0.07410997
63	0x3cc59246	0.0241176
64	0x3c4d8833	0.012544679
65	0xbdee285e	-0.11628793
66	0x3e0bceca	0.13653103
67	0x3e063660	0.1310668
68	0x3cd5e028	0.026107863
69	0x3c7dba56	0.0154863205
70	0xbd805d38	-0.0626778
71	0xbd5402db	-0.051760536
72	0xbd336389	-0.043796096
73	0x3c733e7a	0.014846439
74	0xbe075fb1	-0.13220097
75	0xbde5bc05	-0.112175025
76	0x3c80ddb9	0.015730726
77	0x3de48fbb	0.11160227
78	0x3dda421b	0.1065714
79	0x3e0a3fef	0.13500951
80	0xbb741808	-0.003724577
81	0x3c98c074	0.018646456
82	0xbd793bec	-0.06084816
83	0x3daff97a	0.08592506
84	0xbe1004a8	-0.14064276
85	0x3d8979f7	0.06712716
86	0xbdab15bf	-0.08353757
87	0x3cb0bc7c	0.021574251
88	0xbe011c0c	-0.12608355
89	0xbe0ca986	-0.13736543
90	0x3df69fb9	0.120421834
91	0xbc3f09b0	-0.0116600245
92	0xbc9c5f2e	-0.019088354
93	0xbe0d515e	-0.1380057
94	0x3c8530f0	0.016258687
95	0x3df4a3a5	0.11945275
96	0x3c53af7f	0.0129202595
97	0xbc73f6d0	-0.014890388
98	0xbbcce060	-0.0062523335
99	0xbddbd35c	-0.10733673
100	0x3defb224	0.117038995
101	0xbc9d11c0	-0.019173503
102	0x3dca9f75	0.09893695
103	0x3e0533ce	0.13008043
104	0xbdc60239	-0.09668393
105	0xbd84f139	-0.06491322
106	0x3c1ca2d0	0.009560302
107	0xbdbc3b7c	-0.09191033
108	0xbd42acdf	-0.047528144
109	0x3e029e5a	0.12755719
110	0x3d4dd2a5	0.050249714
111	0xbc75a5d8	-0.0149931535
112	0x3d852817	0.06501787
113	0xbe24d824	-0.16098076
114	0xbb84e579	-0.0040556756
115	0xbb33ef40	-0.0027455837
116	0xbc23ce17	-0.009997866
117	0xbe077e7f	-0.13231848
118	0xbdc2e0d0	-0.09515536
119	0x3db77e62	0.089596525
120	0x3d073891	0.03301293
121	0x3d5fd66c	0.054647848
122	0xbdbbe11e	-0.09173797
123	0xbc45008d	-0.012024057
124	0x3dac804b	0.084229074
125	0xbdeafc0c	-0.114738554
126	0x3df57523	0.11985233
127	0xbdc2e5f1	-0.09516514
128	0x3d06613f	0.032807585
129	0xbd962336	-0.07330935
130	0x3dd1515d	0.10220597
131	0xbdab879a	-0.08375473
132	0xbdb32df4	-0.08748999
133	0x3d82b2b4	0.06381741
134	0xbd98d924	-0.07463291
135	0xbd907445	-0.07053427
136	0xbe1b60e7	-0.15173684
137	0xbd64016e	-0.055665426
138	0x3c544f7c	0.012958404
139	0xbe08fa81	-0.1337681
140	0x3d5b61a3	0.05355991
141	0xbdc2ff58	-0.09521359
142	0x3b8ac1d5	0.0042345324
143	0xbc536850	-0.012903288
144	0x3d65911a	0.056046583
145	0x3d293c2e	0.041317157
146	0xbde0557e	-0.10953806
147	0x3d864459	0.06556005
148	0xbdad4f4f	-0.084623925
149	0x3d47ff9e	0.04882776
150	0x3e05a792	0.13052204
151	0xbd46b86f	-0.048515733
152	0x3db3dfe0	0.08782935
153	0x3dda3828	0.10655242
154	0xbdad4a51	-0.0846144
155	0x3cff01d0	0.031128794
156	0x3dea8a7e	0.114521965
157	0xbd877b3f	-0.06615304
158	0xbd95b64a	-0.073101595
159	0x3c89821f	0.01678568
160	0x3dcf37ff	0.10118102
161	0xbcd9191c	-0.02650123
162	0xbe19d527	-0.15022717
163	0x3d2cc6c3	0.04218174
164	0xbbe1e599	-0.0068938253
165	0xbd8f2e3d	-0.06991241
166	0x3d2adde0	0.041715503
167	0x3bd5680b	0.006512647
168	0xbdc7424e	-0.097294435
169	0x3c969663	0.018382257
170	0xbc5506ef	-0.013002141
171	0x3be39e87	0.006946388
172	0xbc9e9e58	-0.019362614
173	0x3def11f2	0.11673345
174	0x3dc2decc	0.095151514
175	0xbde8694c	-0.11348209
176	0x3e0b1608	0.13582623
177	0xbda1b43b	-0.07895704
178	0xbd088a24	-0.033334866
179	0xbdd678f1	-0.104722865
180	0x3d9e1680	0.07719135
181	0x3ce105c5	0.027468571
182	0xbd37a0c4	-0.044831052
183	0x3dc6bb0c	0.09703645
184	0x3dc0a461	0.09406353
185	0xbdf748b8	-0.12074417
186	0xbcba8be7	-0.022771789
187	0x3d837ba2	0.064200655
188	0xbd4a4d0d	-0.049389888
189	0xbdabbcb4	-0.08385602
190	0xbd4e2b3a	-0.050334193
191	0xbb3b8400	-0.0028612614
192	0x3e0310b1	0.12799336
193	0xbd6a1622	-0.057150014
194	0x3a942500	0.0011302531
195	0x3c766cd6	0.015040597
196	0x3d162ffd	0.03666686
197	0x3cd14a98	0.025548264
198	0x3cd01cc1	0.025404336
199	0x3df83446	0.12119345
200	0xbdb89b0d	-0.090139486
201	0x3d5f7b52	0.054560967
202	0x3cb76d43	0.022390967
203	0xbd838691	-0.06422151
204	0x3ded1d3a	0.1157784
205	0x3db87f60	0.0900867
206	0xbda8e003	-0.08245852
207	0xbc906327	-0.017625405
208	0xbe0cca57	-0.13749062
209	0xbcec5110	-0.028847247
210	0x3d8113b2	0.06302585
211	0xbe0c30f3	-0.13690548
212	0x3dac8715	0.08424202
213	0xbbb1bf20	-0.005424395
214	0x3c1180fc	0.00888085
215	0x3d84979c	0.0647423
216	0xbd629ac3	-0.055323374
217	0xbe2b85c6	-0.1675025
218	0xbd98b450	-0.07456267
219	0x3dce3507	0.10068708
220	0xbd289d80	-0.04116583
221	0x3d6d84e3	0.05798806
222	0x3de08006	0.109619185
223	0x3b9733bf	0.004614323
224	0x3dc79631	0.097454436
225	0xbdc8d8ac	-0.09806952
226	0xbdb19f1b	-0.08672925
227	0xbd5e06a8	-0.054205567
228	0xbc851864	-0.016246982
229	0x3c5d5dfa	0.013511175
230	0x3da63e3e	0.081173405
231	0xbd0ad98a	-0.033898868
232	0xbe165557	-0.14680992
233	0x3c9ad21f	0.018899022
234	0x3c93ed3f	0.018057464
235	0xbe4d5da1	-0.20055248
236	0xbd30bb3e	-0.043147318
237	0xbe0b8aaf	-0.13627122
238	0x3d845955	0.06462351
239	0xbc806e05	-0.015677461
240	0x3de7eff7	0.113250665
241	0x3dd748bf	0.10511922
242	0x3cfc82ef	0.030824153
243	0xbd813d15	-0.063104786
244	0xbb1f9b06	-0.0024353876
245	0x3df0c9ec	0.117572635
246	0xbe280c5b	-0.16410963
247	0x3dc3ed1a	0.09566708
248	0xbcde753e	-0.027155515
249	0xbe025b04	-0.12730032
250	0xbd847642	-0.064678684
251	0xbe3c8b44	-0.184125
252	0x3dc719a2	0.09721686
253	0x3dd741a4	0.10510567
254	0xbd0212a2	-0.03175605
255	0x3d62de21	0.05538762

fc2.weight f4 [256, 256]
0	0x3d440b85	0.04786255
1	0xbd1c4a06	-0.03815653
2	0xbd90c5ef	-0.07069003
3	0xbc96f724	-0.018428393
4	0xbcade653	-0.021227991
5	0xbc9dfa70	-0.019284457
6	0xbb5f23bd	-0.0034048401
7	0x3d5d6f22	0.054061063
8	0x3ce30fc3	0.027717477
9	0x3db40c16	0.08791368
10	0x3d7efb1c	0.062251195
11	0x3c135dad	0.008994502
12	0xbd3b37e8	-0.045707613
13	0xbd21df36	-0.03951951
14	0x3d8298c0	0.06376791
15	0xbd6f96e8	-0.058493525
16	0xbd1eedb2	-0.038800903
17	0x3de14974	0.11000338
18	0xbc9b8fe8	-0.018989518
19	0x3c347587	0.011014349
20	0x3cc369ba	0.023854125
21	0x3d67d490	0.0565992
22	0x3d17a9bb	0.037027102
23	0xbd0d982e	-0.034568958
24	0x3a00c890	0.00049126986
25	0x3cf2be07	0.029631628
26	0xbd2d3d7d	-0.042294968
27	0x3d855df3	0.0651206
28	0x3dc67e97	0.09692114
29	0xbd7ef1fe	-0.0622425
30	0xbbc6e060	-0.006069228
31	0xbbf36010	-0.007427223
32	0x3b6fed7c	0.0036610058
33	0xbd6a9008	-0.057266265
34	0xbb3b1fe0	-0.0028552935
35	0xbd6bb8e9	-0.05754939
36	0xbd2239d2	-0.039605923
37	0xba1cef41	-0.00059865793
38	0x3c960604	0.018313415
39	0x3b666a7f	0.0035158691
40	0xbd7677e5	-0.060172934
41	0xbd8addcc	-0.06780586
42	0xbd49032b	-0.049075287
43	0xbdec5f1f	-0.115415804
44	0xbcaecfad	-0.021339262
45	0x3cedc04c	0.029022358
46	0x3d1ea944	0.038735643
47	0x3d143052	0.036178894
48	0x3c747e69	0.014922717
49	0xbd51ad22	-0.051190503
50	0xbcd4c77c	-0.025974028
51	0x3d824f2e	0.063627586
52	0xbc65eb74	-0.014033187
53	0x3bfa2010	0.0076332167
54	0xbc858998	-0.016300961
55	0xbc631b28	-0.013861455
56	0xbd523e58	-0.051328987
57	0xbd672dce	-0.056440167
58	0x3d8678a9	0.06565983
59	0xbcc2f2b8	-0.023797378
60	0x3d0b12be	0.03395342
61	0x3c6f7b38	0.01461678
62	0xbd233897	-0.03984889
63	0xbcaaa7f8	-0.020832047
64	0xbc1a11cb	-0.009403656
65	0x3cc7274c	0.02431073
66	0x3c92462d	0.017855728
67	0x3b2ba6d1	0.002619196
68	0xbdb40057	-0.08789127
69	0xbd47509d	-0.048660863
70	0x3c46acf2	0.012126194
71	0x3b800165	0.0039064162
72	0xbd226f79	-0.03965709
73	0x3d05e127	0.032685425
74	0x3c516058	0.012779318
75	0x3cd2bf52	0.025725994
76	0xbe59507d	-0.2122211
77	0x3d1c0ba6	0.038097046
78	0x3c25f0ef	0.010128244
79	0x3a8f5e21	0.0010938087
80	0xbd459452	-0.048237152
81	0xbdbef7b6	-0.09324591
82	0xbc76842f	-0.015046163
83	0xbd061fa6	-0.032745026
84	0x3cf1b3e0	0.029504716
85	0xbc9ca13a	-0.019119848
86	0x3dab18c7	0.08354335
87	0xbbc4e4a2	-0.0060087005
88	0xbd5fcc1c	-0.054638013
89	0xbd594e3a	-0.05305312
90	0xbcf9f1a6	-0.030510735
91	0xbcef9537	-0.029245956
92	0xbd3697eb	-0.044578474
93	0x3b9ac31d	0.0047229663
94	0x3d820d71	0.0635022
95	0xbd64e5a7	-0.055883076
96	0x3d545b42	0.051844843
97	0x3d266daa	0.040631928
98	0x3b361460	0.002778314
99	0xbd482d02	-0.048871048
100	0x3d4ac36a	0.049502768
101	0x3c3c7ac0	0.011503875
102	0x3cfbb81b	0.030727437
103	0x3c533b75	0.012892594
104	0xbcc8197c	-0.024426214
105	0x3d438c08	0.047740966
106	0xbdd2df7e	-0.10296534
107	0x3c0f4ba7	0.008746064
108	0xbb276afb	-0.0025545943
109	0x3d34bfc5	0.0441282
110	0xbd1b9004	-0.03797914
111	0xbd2cbbae	-0.042171173
112	0x3c869051	0.016426237
113	0xbd217be5	-0.039424796
114	0x3d968996	0.07350461
115	0x3cfb0910	0.03064397
116	0x3e172cec	0.1476323
117	0xbc0cee38	-0.008601718
118	0xbd21c9a0	-0.039498925
119	0xbd0fa493	-0.03506906
120	0xbaf1e3fc	-0.0018454785
121	0xbc5f75c8	-0.013638921
122	0x3d0809e9	0.033212576
123	0x3ca28a39	0.0198413
124	0xbd2cbba1	-0.042171124
125	0x3d1c7c5a	0.03820453
126	0xbd7df773	-0.062003564
127	0x3d35023a	0.044191577
128	0x3d2c4f8c	0.04206805
129	0x3976c200	0.00023532659
130	0xbd227b12	-0.03966815
131	0xbd065f60	-0.0328058
132	0xbd43def6	-0.047820054
133	0xbc93935e	-0.018014606
134	0x3dbb68c5	0.091508426
135	0x3cf8061e	0.030276354
136	0xbc4917de	-0.012273757
137	0xbd87230e	-0.06598483
138	0x3dc1adc0	0.09456968
139	0xbd2b163f	-0.041769262
140	0x3cf52e2b	0.029929241
141	0xbdaf997b	-0.08574196
142	0x3d3f0539	0.04663584
143	0xbda68e6d	-0.08132634
144	0xbcbb425b	-0.02285879
145	0x3d86198b	0.06547841
146	0x3c15d558	0.009145103
147	0xbd9371c4	-0.071994334
148	0xbd691803	-0.056907665
149	0x3e0d83f0	0.13819861
150	0xbd009621	-0.031393174
151	0xbcd79856	-0.026317757
152	0xbd0da1ae	-0.034578018
153	0x38da2988	0.00010402786
154	0x3cdc5c40	0.026899457
155	0x3d896a15	0.06709687
156	0x3d89e9c3	0.0673404
157	0xbb57b156	-0.0032912097
158	0x3ac2f637	0.0014874403
159	0x3d6208f7	0.05518433
160	0x3d5fbd41	0.054623846
161	0xbd67da46	-0.056604646
162	0x3d5480c4	0.051880613
163	0x3d673f59	0.056456897
164	0x3cd01fb5	0.025405744
165	0xbc3c1680	-0.011479974
166	0x3cb57cf8	0.022154316
167	0x3af5d00b	0.0018754018
168	0x3d47f6a4	0.0488192
169	0xbd94aa0d	-0.07258997
170	0x3d94adb9	0.072596975
171	0x3d50efc8	0.051009923
172	0xbbe91690	-0.0071132854
173	0xbd7cd773	-0.061728906
174	0x3d366d30	0.044537723
175	0x3c022aa0	0.007944733
176	0x3d209c9d	0.039211858
177	0x3c4c04b8	0.012452297
178	0x3cd1ceeb	0.025611361
179	0x3d767268	0.0601677
180	0xbd39bd34	-0.045346454
181	0x3c5405ad	0.012940806
182	0x3c2c6fb0	0.010524675
183	0x3d237187	0.03990319
184	0xbd87d373	-0.066321276
185	0xbcb52b18	-0.022115275
186	0xbd443c2b	-0.047908943
187	0xbc38bf8f	-0.01127614
188	0xbd3e626a	-0.046480574
189	0x3bd55c40	0.006511241
190	0x3d14aa46	0.036295198
191	0x3c1af898	0.009458683
192	0x3da12847	0.078690104
193	0xbb6b6480	-0.0035918057
194	0x3d19d9cc	0.037561223
195	0x3bae7140	0.005323559
196	0xbb482cc1	-0.0030544254
197	0xbcedb469	-0.02901669
198	0xbc5f9c20	-0.013648063
199	0x3c9716ad	0.01844343
200	0x3c291b9d	0.010321525
201	0x3e2f5508	0.1712228
202	0x3cbfa7c1	0.023395421
203	0xbc8734c5	-0.016504655
204	0xbc6728c9	-0.014108845
205	0x3d6d8c17	0.05799493
206	0x3c92f249	0.017937796
207	0x3bddb159	0.0067655263
208	0x3cff1465	0.031137655
209	0x3d7f9761	0.062400226
210	0xbd057c18	-0.03258905
211	0xbc39be08	-0.011336811
212	0x3d4f4290	0.05060059
213	0x3d154a9c	0.036448106
214	0x3d830c3a	0.063988164
215	0xbd1f170e	-0.038840346
216	0x3ccf3b16	0.025296729
217	0xbca9d31c	-0.020730548
218	0xbd9ef12b	-0.07760843
219	0xbbd74c1f	-0.0065703536
220	0xbd8f537f	-0.069983475
221	0xbdff8e64	-0.12478331
222	0x3cc34f6a	0.023841579
223	0x3afc1f8c	0.0019235476
224	0x3cfe8306	0.031068336
225	0xbd003619	-0.03130159
226	0x3ba5b5c2	0.0050570676
227	0xbd739e2a	-0.05947701
228	0xbc26ef05	-0.010188823
229	0x3beebfb6	0.0072860373
230	0x3caeb844	0.0213281
231	0x3c6fd260	0.01463756
232	0xbcd4a178	-0.0259559
233	0x3ced7a5a	0.028989006
234	0x3d37105b	0.044693332
235	0x3cae3e71	0.021270009
236	0xbd64b0c6	-0.055832647
237	0xbd455dca	-0.048185147
238	0x3b354bac	0.0027663512
239	0x3da56be0	0.08077216
240	0x3cba6bb9	0.022756444
241	0xbd4039f1	-0.046930257
242	0x3d84eb73	0.06490221
243	0xbcaa8f2c	-0.020820223
244	0x3d25ef76	0.04051157
245	0xbd2473ed	-0.040149618
246	0xbd828d42	-0.06374599
247	0x3e3ec471	0.18629624
248	0x3d11bf7b	0.035583
249	0x3d03783e	0.032097094
250	0x3d55f0ae	0.052231483
251	0x3ceed06f	0.029152123
252	0xbce4ff62	-0.027953807
253	0xbcb16f19	-0.02165942
254	0xbcc1afaa	-0.023643333
255	0xbd98b789	-0.074568816

fc2.bias f4 [256]
0	0x3c11c497	0.008896968
1	0x3ca6c49d	0.020357424
2	0x3ca2c3f9	0.019868838
3	0x3c0a384f	0.008436277
4	0xbd033b57	-0.032039013
5	0xbd55ae04	-0.052167907
6	0x3c186c21	0.009303124
7	0x3c85e0cf	0.016342549
8	0x3bdd40ce	0.00675211
9	0x3bff4ad8	0.0077909045
10	0xbcaf69e3	-0.021412795
11	0xbd6c6ae2	-0.05771912
12	0x3cf0c34a	0.029389996
13	0x3d2b0aeb	0.04175846
14	0x3c94596d	0.018109048
15	0xbce44033	-0.027862644
16	0xbd83c918	-0.0643484
17	0xbd3aee53	-0.04563744
18	0xbcecc2bd	-0.028901452
19	0xbd2862df	-0.041109916
20	0xbc03eefd	-0.008052585
21	0x3c704db8	0.014666967
22	0xbcf93796	-0.030422013
23	0x3d3d659b	0.046239477
24	0xbd5cc6a8	-0.05390039
25	0x3c9d8909	0.019230383
26	0x3d121200	0.035661697
27	0xbcc6528d	-0.024209285
28	0xbc3e4e9c	-0.011615422
29	0xbd4d2d97	-0.050092306
30	0x3c80ae8a	0.015708227
31	0x3d19771c	0.037467107
32	0x3c89052c	0.016726099
33	0xbd42c9a7	-0.047555592
34	0xbd859634	-0.065227896
35	0x3b5fdbe1	0.0034158158
36	0xbc972316	-0.018449347
37	0xbd5756f0	-0.052573144
38	0x3d341d25	0.043973107
39	0x3d31e92f	0.04343527
40	0xbd2d5dd6	-0.042325817
41	0xbc22c860	-0.009935468
42	0xbcd0675c	-0.02543991
43	0x3c5277fb	0.012845988
44	0xbd829261	-0.06375576
45	0x3d21d648	0.039510995
46	0xbb7ad9c0	-0.0038276762
47	0xbc3246da	-0.01088115
48	0xbd5070ea	-0.050888933
49	0x3caab6ef	0.020839183
50	0x3cb30cef	0.021856753
51	0xbd37da89	-0.044886146
52	0x3c9933e6	0.018701505
53	0xbd7176be	-0.058951132
54	0x3cc88f4e	0.024482395
55	0xbd10e591	-0.03537518
56	0xbd337a49	-0.043817792
57	0xbc308251	-0.010773257
58	0xbd217e8b	-0.03942732
59	0x3cf290da	0.029610086
60	0x3cde44d2	0.027132425
61	0xbd87c598	-0.06629485
62	0xbd5832cc	-0.05278282
63	0xbd571384	-0.052508846
64	0x3c968b60	0.018377006
65	0xbd0bf31a	-0.034167387
66	0x3ccdb57d	0.025110954
67	0xbd840e62	-0.06448056
68	0xbd251132	-0.0402996
69	0x3ce96730	0.028491586
70	0x3cd7c23b	0.026337733
71	0x3c218280	0.009857774
72	0xbd3b306a	-0.045700468
73	0xbc0ac520	-0.00846985
74	0xba8ecdcf	-0.0010895076
75	0x3cc1a4c4	0.023638137
76	0xbd0d791b	-0.034539323
77	0xbc81eac0	-0.015859008
78	0x3d187a20	0.037225842
79	0x3d19e3a5	0.037570614
80	0xbd53b0d4	-0.05168231
81	0x3d6a9420	0.05727017
82	0xbd0c2b60	-0.034221053
83	0x3d2e8316	0.042605482
84	0xbd57391f	-0.05254471
85	0xbc9b71a4	-0.018975087
86	0x3c7fc35b	0.015610541
87	0xbd47af40	-0.048751116
88	0xbc131eae	-0.008979483
89	0xbd093997	-0.033502188
90	0x3cef7484	0.029230364
91	0xbd7ae5c2	-0.06125427
92	0xbc9211cc	-0.017830752
93	0x3d23f562	0.040028937
94	0xbd63c6d4	-0.05560954
95	0xbc44bfa0	-0.012008578
96	0x3ba24687	0.004952255
97	0xbcced2d0	-0.025247008
98	0xbb89d8c2	-0.0042067477
99	0xbd51026e	-0.051027708
100	0xbbc664f4	-0.006054515
101	0xbd19d0d4	-0.03755267
102	0xb9137a14	-0.0001406449
103	0xbb1236d2	-0.0022310507
104	0x3d03e070	0.032196462
105	0xbd131b74	-0.035914853
106	0x3d45d8cc	0.048302457
107	0x3c92b06e	0.017906394
108	0xbd176a1e	-0.036966436
109	0xbc3e4342	-0.011612715
110	0x3d1df675	0.038565118
111	0x3c87dc72	0.016584609
112	0x3cebdad7	0.028790874
113	0x3d00ac16	0.031414114
114	0xbcfb0424	-0.030641623
115	0x3d3b810d	0.04577737
116	0xbc2be310	-0.010491148
117	0xbd8381e5	-0.0642126
118	0xbbcde820	-0.006283775
119	0x3d5687eb	0.052375715
120	0xbd926734	-0.07148591
121	0x3c3071e9	0.010769346
122	0x3cda1678	0.026622042
123	0x3d22ef36	0.03977891
124	0xbcbd7588	-0.023127332
125	0xbd4e111b	-0.05030928
126	0xbcc143c3	-0.023591882
127	0x3d03d401	0.032184605
128	0xbce482d4	-0.027894415
129	0x3c367fbd	0.011138854
130	0x3c785133	0.015156078
131	0x3ce634a8	0.02810128
132	0xbccbb17d	-0.024864906
133	0x3cbcb94a	0.023037571
134	0x3c9f77bb	0.019466272
135	0x3cc3f3e1	0.023920001
136	0xbd17690d	-0.03696542
137	0xbd240ef6	-0.04005333
138	0x3d410da9	0.047132168
139	0x3d1cb0cb	0.03825454
140	0x3c5c35e5	0.013440584
141	0x3d1e0be9	0.038585577
142	0xbd354aee	-0.04426091
143	0xbd0240c7	-0.031800058
144	0xbd81a0f1	-0.06329525
145	0x3cef5641	0.029215934
146	0xbd36a07e	-0.04458665
147	0x3c0c95dc	0.008580651
148	0xbc2eb8f8	-0.010664217
149	0xbc2c178f	-0.010503664
150	0xbad1ccbc	-0.001600645
151	0xbce58bdc	-0.028020792
152	0xbc4152f4	-0.011799563
153	0xbd1d9488	-0.03847173
154	0x3cec2afa	0.028829087
155	0x3d174119	0.036927316
156	0xbcac19f0	-0.021008462
157	0x3d2210c9	0.03956679
158	0x3d054f56	0.032546364
159	0xbd2ce87b	-0.0422139
160	0x3cff6804	0.031177528
161	0x3cebbb89	0.028775947
162	0xbd7d7574	-0.06187959
163	0xbd073f72	-0.03301949
164	0x3c8cc08a	0.017181654
165	0x3d0ef2cb	0.034899514
166	0xbc022cab	-0.00794522
167	0xbcc3b9b0	-0.023892254
168	0xbc73e083	-0.014885071
169	0x3cd63738	0.026149377
170	0x3cbf284f	0.02333465
171	0xbd8edf78	-0.06976217
172	0x3d2c5ace	0.042078786
173	0x3d27a255	0.040926296
174	0x3d62e307	0.05539229
175	0x3cb67219	0.022271203
176	0xbd838f31	-0.06423796
177	0xbbac84fd	-0.005264877
178	0x3d280cf9	0.041027997
179	0xbd1e1fa0	-0.03860438
180	0xbcae09c0	-0.021244884
181	0x3d0f9ff2	0.035064645
182	0xbc2e4d4d	-0.010638547
183	0x3ca71e63	0.020400232
184	0x3d2a6c40	0.04160714
185	0x3c039f5b	0.008033599
186	0x3d089448	0.033344537
187	0x3d0e3f0c	0.034728095
188	0x3d5546f1	0.052069608
189	0xbd0070be	-0.03135752
190	0xbcedbc9c	-0.0290206
191	0xbb4865bb	-0.0030578214
192	0xbceb93f2	-0.02875707
193	0xbd37750c	-0.04478936
194	0xbc968c39	-0.01837741
195	0xbd77e3f6	-0.060520135
196	0x3c5bd586	0.013417607
197	0xbd2b27a0	-0.041785836
198	0xbd1eb4b1	-0.03874654
199	0xbd21a876	-0.039467297
200	0xbd5136fd	-0.05107783
201	0x3cf5dcc6	0.0300125
202	0x3bcb4dcb	0.006204342
203	0x3d5f0400	0.054447174
204	0xbd5205dc	-0.05127512
205	0x3c3ccd6c	0.011523586
206	0xbca31451	-0.019907149
207	0xbd656c24	-0.056011334
208	0x3bc950d2	0.0061436677
209	0x3d257a6d	0.040399957
210	0xbcc10616	-0.023562472
211	0x3d140b48	0.03614357
212	0xbd8b807e	-0.06811617
213	0x3cb0de1e	0.021590289
214	0x3ceea118	0.02912955
215	0x3cad383d	0.02114498
216	0xb92e90fc	-0.00016647944
217	0xbd01394c	-0.031548783
218	0xbd428470	-0.047489583
219	0xbcbc6ca4	-0.023001023
220	0xbd453cca	-0.048153676
221	0xbc40a877	-0.011758915
222	0x3cb0c5ff	0.021578787
223	0xbbabfc92	-0.0052486146
224	0xbc49b73c	-0.012311753
225	0xbbf082cf	-0.0073398123
226	0x3d39b3b3	0.04533739
227	0xbd50e03e	-0.050995104
228	0xbd77353a	-0.060353495
229	0x3c79478c	0.015214812
230	0xbc265d10	-0.010154024
231	0xbc97f20a	-0.01854803
232	0x3cf6344c	0.030054234
233	0x3d14265d	0.0361694
234	0x3d40f527	0.047108795
235	0xbca1e85e	-0.019764122
236	0xbd5acdce	-0.053418927
237	0x39206d0d	0.00015299414
238	0x3cd42f6b	0.025901517
239	0x3c400c9c	0.011721756
240	0xbc957f1c	-0.018249087
241	0xbb5860d2	-0.0033016694
242	0x3d13c862	0.03607977
243	0xbc199517	-0.009373925
244	0xbd37ac24	-0.0448419
245	0xbce24620	-0.027621329
246	0xbd03473b	-0.032050353
247	0xbc856b9c	-0.016286664
248	0x3d6341c6	0.05548265
249	0x3ca56a22	0.02019221
250	0xbc46514a	-0.012104342
251	0xbd167c04	-0.036739364
252	0xbd23b812	-0.039970465
253	0xbd4ca07e	-0.049957745
254	0xbbc6ccb5	-0.0060668834
255	0x3c459ade	0.012060849

fc3.weight f4 [256, 256]
0	0xbce3fe25	-0.027831146
1	0x3c61f538	0.013791375
2	0xbdcd8baf	-0.10036408
3	0x3bd5e3f1	0.006527417
4	0xbd37a521	-0.044835214
5	0xbd5b9c6c	-0.053615972
6	0x3d93a81a	0.07209797
7	0xbca57e71	-0.020201894
8	0x3cc6984b	0.02424254
9	0xbced3e07	-0.028960241
10	0xbd1ea5c0	-0.03873229
11	0xbcef5f34	-0.029220201
12	0x3cb952c6	0.022622477
13	0xbb2db57a	-0.0026505874
14	0x3d6b4679	0.057440255
15	0xbc020d1e	-0.007937698
16	0xbd1b1017	-0.03785714
17	0x3be58be7	0.007005203
18	0x3d0fce1c	0.03510867
19	0xbd1edb1f	-0.03878319
20	0xbcff4a41	-0.031163337
21	0xbd1558ea	-0.03646175
22	0xbd5330d9	-0.051560257
23	0xbb099fde	-0.002099983
24	0xbd3dd2e4	-0.0463437
25	0xbcbe69ec	-0.023243867
26	0xbd3da49b	-0.046299558
27	0x3b96c383	0.0046009435
28	0x3cfd5f0e	0.030929115
29	0xbc027eb7	-0.0079647815
30	0xbd8cb582	-0.06870557
31	0xbcfcd8f1	-0.030865164
32	0xbddf7619	-0.10911197
33	0xbca73551	-0.020411165
34	0x3ac9828a	0.0015373987
35	0x3b3967c1	0.0028290602
36	0xbbb2c9fc	-0.0054562073
37	0xbd1583c0	-0.0365026
38	0xbd5fb385	-0.054614563
39	0xbcf497ca	-0.029857535
40	0x3d3e0f80	0.0464015
41	0x3c8ad530	0.016947359
42	0x3d5a16c3	0.053244364
43	0x3c857509	0.016291158
44	0x39c90a06	0.00038345176
45	0xbda2dd85	-0.07952408
46	0x3d39a5d8	0.045324177
47	0xbd2933eb	-0.04130928
48	0xbd4ab188	-0.049485713
49	0xbc181979	-0.009283417
50	0xbd57ffd0	-0.052734196
51	0x3d0f3cd4	0.03497012
52	0x3d5aa70e	0.053381972
53	0xbd4f93e5	-0.050678153
54	0xbb501a40	-0.0031753927
55	0xbccaee5a	-0.024771858
56	0xbd43e784	-0.047828212
57	0xbc96daee	-0.01841494
58	0xbb11a818	-0.0022225436
59	0xbd88e20c	-0.0668374
60	0xbc4cbf25	-0.012496744
61	0x3c97e241	0.018540503
62	0x3cdec844	0.027195103
63	0x3d30aeb6	0.043135367
64	0x3d3fd382	0.04683257
65	0xbd2d3525	-0.04228701
66	0xbd832624	-0.06403759
67	0xbd2edade	-0.042689197
68	0xbd6e7b66	-0.05822315
69	0x3b88f132	0.0041791433
70	0x3d937484	0.07199958
71	0x3cef3358	0.029199287
72	0xbd0cb2e8	-0.034350306
73	0x3c9ba710	0.01900056
74	0xbce5f871	-0.028072568
75	0xbcd6600c	-0.026168846
76	0x3d2fc7f0	0.042915285
77	0x3c04c177	0.008102766
78	0xbcfe6bc0	-0.031057239
79	0x3d09f82c	0.03368394
80	0x3c906b26	0.017629217
81	0x3d4ddae9	0.050257597
82	0x3c96c4e8	0.01840444
83	0xbcd1244b	-0.025530001
84	0x3cc1d968	0.023663238
85	0x3d5b2373	0.053500604
86	0x3d50644b	0.050876897
87	0x3d3a5efe	0.045500748
88	0x3d35ab66	0.04435291
89	0xbbc6d356	-0.0060676737
90	0x3c9fa7ab	0.01948913
91	0xbd5e5bb3	-0.05428667
92	0x3d6e62bf	0.05819964
93	0x3d1af896	0.037834726
94	0xbc995841	-0.01871884
95	0x3cb08170	0.021546096
96	0x3c19d278	0.009388559
97	0x3d3b235a	0.04568801
98	0x3cabcba7	0.020971132
99	0xbd737424	-0.059436932
100	0xbb2f9790	-0.002679322
101	0x3a869680	0.0010268241
102	0xbd5b6eef	-0.05357259
103	0x3dbdc951	0.09266914
104	0x3d4416cf	0.047873314
105	0x3b5de9c8	0.0033861268
106	0xbc82d2b4	-0.015969612
107	0x3cac2674	0.02101443
108	0x3bd75fb0	0.006572686
109	0x3c28a3db	0.010292972
110	0x3c55a587	0.013039953
111	0x3cafda0e	0.021466281
112	0xbca5f909	-0.02026035
113	0xbd1e4d97	-0.038648214
114	0xbd721e1e	-0.059110753
115	0x3d2e4566	0.042546652
116	0xbb0face0	-0.002192311
117	0xbd2d19e9	-0.042261038
118	0x3c9d3e34	0.0191947
119	0x3cb7a651	0.022418173
120	0x3d029ee7	0.031889822
121	0xbc496002	-0.012290956
122	0xbd82c0e0	-0.06384444
123	0x3cf62c0b	0.030050298
124	0xbd3c3e16	-0.045957647
125	0x3d96e1d5	0.07367293
126	0x3c9a8787	0.018863453
127	0xbc9f9e5c	-0.019484691
128	0x3af5336b	0.001870734
129	0xbd79deda	-0.061003543
130	0x3d5c54c7	0.053791787
131	0xbd54663c	-0.05185531
132	0x3c7cd90e	0.015432609
133	0xbb5ece56	-0.0033997498
134	0x3d837a1f	0.06419777
135	0x3d63bba9	0.05559889
136	0xbc203d75	-0.0097802775
137	0xbdcd281a	-0.100174144
138	0xbbfea3e1	-0.0077710007
139	0x3b272137	0.0025501975
140	0xbd0c6f21	-0.03428567
141	0x3bc9c27d	0.006157218
142	0xbd37934a	-0.0448182
143	0xbcb94f0a	-0.022620697
144	0xbd25ca96	-0.040476404
145	0xbd465b33	-0.048426818
146	0x3d2a16ca	0.04152564
147	0x3d78dfdd	0.060760368
148	0x3cefb377	0.02926038
149	0xbc014af5	-0.007891406
150	0xbca5157c	-0.020151846
151	0xbcf3e2cf	-0.029771237
152	0xbbdeb5c0	-0.0067965686
153	0xbd12e602	-0.035863884
154	0xbd12271a	-0.03568182
155	0xbc4c5814	-0.012472171
156	0x3ce6b2fc	0.028161518
157	0xbd49f8b4	-0.049309447
158	0x3c7a8b7e	0.015292047
159	0xbc461923	-0.012090954
160	0xbd089265	-0.033342738
161	0x3c731d80	0.014838576
162	0xbd38aa0a	-0.045084037
163	0x3d4f24ee	0.05057233
164	0x3d391fdf	0.04519641
165	0xbd1a5c56	-0.037685715
166	0x3c952028	0.01820381
167	0xbcb0f2bc	-0.02160012
168	0xbc40cd61	-0.011767716
169	0xbd25b730	-0.040457904
170	0xbbac0595	-0.005249689
171	0xbd35d7d4	-0.044395283
172	0x3cd66c90	0.026174814
173	0x3ce646bf	0.028109906
174	0x3c7df2aa	0.01549975
175	0x3cd02a5a	0.02541082
176	0x3d547eb1	0.051878635
177	0xbd613f61	-0.054992083
178	0x3ca2d399	0.019876288
179	0x3c2334e1	0.009961338
180	0x3d370c20	0.044689298
181	0xbcb84a08	-0.022496238
182	0xbcda529d	-0.026650721
183	0x3d330198	0.04370269
184	0xbc83229d	-0.016007716
185	0xbd4b7201	-0.04966927
186	0x3cc1e875	0.023670414
187	0xbc1ad0bd	-0.009449181
188	0xbd2d39ea	-0.04229156
189	0x3d3a842c	0.045536205
190	0x3d7c21c8	0.061555654
191	0x3d1bdf0e	0.03805452
192	0xbb346a34	-0.0027529122
193	0x3cb1dda1	0.021712126
194	0x3cbd906f	0.02314016
195	0xbbe167ec	-0.0068788435
196	0x3d1c289f	0.038124677
197	0xbc3d0e0a	-0.011538992
198	0x3ceec505	0.02914668
199	0xbd09dd86	-0.033658527
200	0x3d27edd2	0.040998287
201	0x3d23b879	0.03997085
202	0xbdc1ccce	-0.094628915
203	0x3d58230f	0.05276781
204	0xbcca3c00	-0.024686813
205	0xbd3caa41	-0.046060804
206	0x3d5d9beb	0.054103773
207	0x3d0275dc	0.03185068
208	0xbd177459	-0.036976192
209	0xbd6521d7	-0.055940475
210	0xbc3914a5	-0.011296426
211	0x3b227231	0.0024787302
212	0x3ca4166b	0.020030221
213	0x3c53554a	0.0128987525
214	0x3d5713fe	0.0525093
215	0x3d17011e	0.0368663
216	0x3d80c53f	0.06287622
217	0x3cc38fb1	0.023872228
218	0xbcbc4928	-0.022984102
219	0xbd64bd50	-0.055844605
220	0xbc534c58	-0.01289662
221	0xbca735c2	-0.020411376
222	0xbc3e4075	-0.011612047
223	0xbc1e38ba	-0.009657079
224	0x3a040d01	0.0005037338
225	0xbcb663e2	-0.022264425
226	0xbc91e69a	-0.017810155
227	0x3d299692	0.04140336
228	0x3d492048	0.04910305
229	0xbd00b82a	-0.031425633
230	0x3bbc5450	0.0057473555
231	0xbc915b3f	-0.017743705
232	0x3d57e570	0.052709043
233	0xbc43fe3c	-0.01196247
234	0x3d644f86	0.055739902
235	0xbcf199ee	-0.029492345
236	0x3ca1026d	0.019654477
237	0xbc596c17	-0.0132703995
238	0xbc9081ff	-0.017640112
239	0xbcf0c444	-0.029390462
240	0x3cccfd34	0.02502308
241	0x3d1fdcc4	0.039028898
242	0xbd1b614a	-0.03793458
243	0x3d0a2f44	0.033736482
244	0xbd655eae	-0.055998497
245	0xbb80c83c	-0.00393012
246	0x3c802708	0.015643612
247	0x3d5a688b	0.053322356
248	0x3afdc630	0.0019361433
249	0x3c171469	0.009221175
250	0x3d30a59e	0.043126695
251	0x3cc7f463	0.024408525
252	0x3c994c40	0.018713117
253	0x3d22261a	0.039587118
254	0xbae13c04	-0.0017184024
255	0xbd7aabdd	-0.061199058

fc3.bias f4 [256]
0	0x3d69a4ab	0.057041805
1	0xbc6d1f80	-0.014472842
2	0x3b39f7d3	0.0028376475
3	0xbd18b0d0	-0.037277997
4	0xbca9337c	-0.020654432
5	0xbc90528d	-0.017617488
6	0xbd044316	-0.03229054
7	0xbc96b520	-0.018396914
8	0x3d47bfea	0.048767008
9	0x3c64f03b	0.013973291
10	0xbd0ce987	-0.034402397
11	0xbc20cbe2	-0.009814234
12	0xbd20bfb1	-0.03924531
13	0x3d60752e	0.05479925
14	0xbd42ab1c	-0.047526464
15	0x3d0fc40b	0.03509907
16	0x3c8d639c	0.017259412
17	0x3c87d8e2	0.01658291
18	0xbcfff424	-0.031244345
19	0xbd5ac38b	-0.05340914
20	0xbc785a25	-0.015158211
21	0x3d0b45c0	0.034002066
22	0x3ceb53ac	0.028726421
23	0x3db52eea	0.08846839
24	0xbd5a6f0a	-0.05332855
25	0xbc881948	-0.016613618
26	0xbd76092a	-0.060067333
27	0xbc32f2b0	-0.010922119
28	0xbc767fdb	-0.015045132
29	0xbd0580d5	-0.032593567
30	0x3ce3ce48	0.027808324
31	0xbc6c3978	-0.0144179985
32	0xbc96b8f7	-0.018398745
33	0xbd28a8d5	-0.041176636
34	0x3c20a2a4	0.009804402
35	0xbd0f2e04	-0.034955993
36	0x3cd48511	0.025942357
37	0x3cceb55a	0.02523296
38	0xbc8db8e1	-0.017300071
39	0xbb45ceb5	-0.0030183021
40	0x3d0192f4	0.031634286
41	0xbc6426ae	-0.013925238
42	0x3d814a16	0.06312959
43	0xbba7e8bd	-0.00512418
44	0x3c527905	0.012846236
45	0x3ccde2c4	0.025132544
46	0x3d05f37d	0.03270291
47	0x3cc66c18	0.024221465
48	0xbc1441bd	-0.009048876
49	0xbc97aa4e	-0.018513825
50	0x3c0dff85	0.008666878
51	0x3cbf388c	0.023342393
52	0x3cef3b07	0.029202951
53	0xbd01ac34	-0.031658366
54	0xbd4713f6	-0.04860302
55	0xbce2a460	-0.02766627
56	0x3c9b79db	0.018979004
57	0x3d2ea00c	0.0426331
58	0xbd0a5e10	-0.03378111
59	0xbc8d1bd4	-0.017225184
60	0x3d346f51	0.044051472
61	0x3d554913	0.052071642
62	0x3cbd4dec	0.023108445
63	0xbd3d5694	-0.046225145
64	0x3d77d50a	0.060505904
65	0xbd154e70	-0.036451757
66	0xbcd0807d	-0.025451893
67	0x3cb457f8	0.022014603
68	0x3b8d787c	0.0043173414
69	0xbc662fa9	-0.014049449
70	0x3d1e2b45	0.038615484
71	0xbc7a7ee8	-0.015289046
72	0xbc4dc583	-0.0125592975
73	0x3d26c20c	0.0407124
74	0x3d687c42	0.056759126
75	0xbd55eeca	-0.05222968
76	0xbd2de192	-0.04245145
77	0xbce0f4dc	-0.027460508
78	0x3ca12947	0.019673003
79	0xbd724fdd	-0.059158195
80	0x3bee1814	0.007266054
81	0xbcece974	-0.028919913
82	0xbc9d73d1	-0.019220265
83	0x3cd90624	0.026492186
84	0x3c25721c	0.010098007
85	0x3cd8ee5d	0.026480848
86	0xbccfd1c8	-0.025368586
87	0xbd352157	-0.04422125
88	0x3c87200e	0.016494777
89	0xbc6ae55a	-0.014336908
90	0xbaf49994	-0.0018661493
91	0x3c5044bd	0.012711701
92	0xbd1563b8	-0.036472052
93	0xbd72e64f	-0.05930167
94	0xbcf78096	-0.030212682
95	0xb85b357a	-5.2263473e-05
96	0xbb99136a	-0.004671504
97	0xbc5cc143	-0.013473812
98	0xbd2ce948	-0.04221466
99	0x3ce7d12c	0.028297983
100	0x3c0b9782	0.008520009
101	0xbcb3781c	-0.021907859
102	0xbd353290	-0.044237673
103	0xbca12c24	-0.019674368
104	0x3d3bb6d6	0.045828663
105	0x3c995d56	0.018721264
106	0xbbc21cd2	-0.005923846
107	0xbd2d2bde	-0.042278163
108	0x3d4ddfc0	0.050262213
109	0xbd4ef4d0	-0.05052644
110	0xbd70041e	-0.058597676
111	0xbd478a31	-0.048715774
112	0xbccfaa10	-0.025349647
113	0x3be2fac7	0.0069268676
114	0x3d41a676	0.04727789
115	0x3d80f395	0.062964596
116	0xbb876662	-0.004132078
117	0xbd3c5eda	-0.045988895
118	0x3d23b106	0.039963745
119	0x3d8360e2	0.06414963
120	0x3d8ca2b9	0.068669744
121	0xbd21e77e	-0.03952741
122	0x3c08416d	0.00831638
123	0xbd631ffc	-0.055450425
124	0xbd094105	-0.033509273
125	0x3d4048cf	0.046944436
126	0x3bd61b6e	0.0065340316
127	0x3c5eebb3	0.013606
128	0xbd1cc5ab	-0.03827445
129	0x3ce3624b	0.02775683
130	0xbd7048e0	-0.05866325
131	0xbb458737	-0.0030140409
132	0xbcbd4889	-0.023105877
133	0xbcd9186c	-0.026500903
134	0xbcbe0df4	-0.023200013
135	0xbd02f576	-0.03197237
136	0x3d63aecd	0.055586625
137	0xbd36c521	-0.04462159
138	0xbd143559	-0.03618369
139	0x3d14cb0a	0.036326446
140	0xbc18845c	-0.009308901
141	0x3cb0f8b8	0.021602973
142	0xbd5c5fd8	-0.05380234
143	0xbbbd9742	-0.0057858536
144	0x3d012930	0.03153342
145	0xbcdfe709	-0.027331846
146	0xbb92af61	-0.004476473
147	0x3cba4a06	0.022740375
148	0x3cc7fde1	0.024413051
149	0xbc9f5144	-0.01944793
150	0xbb5eb6af	-0.00339834
151	0x3cd807fe	0.026370998
152	0xbb8ce0b6	-0.0042992486
153	0x3d108d12	0.035290785
154	0x3cbf93e3	0.023385948
155	0x3d5ee68d	0.05441909
156	0x3cffe615	0.031237641
157	0xbd0255ca	-0.031820096
158	0xbd463bb6	-0.04839679
159	0x3d72643b	0.05917762
160	0x3d4d4a6f	0.050119814
161	0xbc8004d6	-0.015627306
162	0xbd8a3bca	-0.06749685
163	0x3c7e2add	0.015513149
164	0xbd69d65e	-0.057089202
165	0x3bdfe2d8	0.006832462
166	0xbcffbae8	-0.031217054
167	0x3b1dd78f	0.0024084782
168	0x3c83ccb0	0.016088814
169	0xbbc86d4a	-0.006116544
170	0x3be43ce0	0.0069652647
171	0x3d39fd50	0.045407593
172	0xbd087ce0	-0.033322215
173	0xbcf58962	-0.029972736
174	0x3d781113	0.06056316
175	0x3cf4703d	0.029838676
176	0xbd422c9f	-0.047405835
177	0x3caf8129	0.021423893
178	0xbc5cb696	-0.013471266
179	0xbca7f9d2	-0.020504866
180	0xbcbed756	-0.02329604
181	0x3ad29836	0.0016067091
182	0xbc8a54e4	-0.016886182
183	0xbcc31093	-0.023811614
184	0x3d05269a	0.032507516
185	0x3c054926	0.008135116
186	0x3c34b0f5	0.011028518
187	0x3ca1d5c0	0.019755244
188	0xbd4940aa	-0.049133934
189	0xbd347fbc	-0.04406713
190	0xbcd155b0	-0.025553554
191	0x3c68e52d	0.014214796
192	0xbd31ef0a	-0.043440856
193	0x3cfb6f57	0.03069274
194	0xbd2af38a	-0.041736163
195	0xbcf307ee	-0.029666867
196	0x3d175200	0.036943436
197	0xbd2efccc	-0.042721555
198	0x3cad6a9c	0.021169
199	0xbd164bfe	-0.036693566
200	0xbca4e050	-0.020126492
201	0xbc6b6ed7	-0.014369688
202	0x3c663489	0.014050611
203	0x3d605f85	0.054778595
204	0xbd49d04d	-0.049270917
205	0xbd38628a	-0.04501585
206	0xbcf4a93a	-0.02986585
207	0xbc52d792	-0.012868779
208	0x3d5fae92	0.054609843
209	0xbd7dd284	-0.06196834
210	0x3c4b5058	0.012409292
211	0x3d73b1f3	0.059495877
212	0x3d78489f	0.060616132
213	0xbd3a4714	-0.04547794
214	0xbc461818	-0.012090705
215	0xbd0807f8	-0.033210725
216	0x3c03fb66	0.0080555435
217	0x3d377d30	0.044797122
218	0xbd2c1342	-0.042010553
219	0xbc75a938	-0.014993958
220	0xbc155660	-0.009114832
221	0x3ca49664	0.020091243
222	0xbce6b314	-0.028161563
223	0x3d71e79a	0.059058763
224	0xbd24bc13	-0.040218424
225	0xbc0b514c	-0.008503269
226	0x3c04fc7d	0.0081168385
227	0x3cf19926	0.029491972
228	0x3d542e12	0.05180175
229	0xbaed672c	-0.0018112413
230	0xbcbe9ede	-0.023269113
231	0x3bfdd549	0.007746373
232	0x3d26a96f	0.04068893
233	0x3c6ff12a	0.0146449
234	0xbcd13cb6	-0.025541645
235	0x3c9e2571	0.019304963
236	0x3be6c89b	0.007042957
237	0x3ae256e6	0.0017268329
238	0x3c85d98a	0.016339082
239	0x3cb0b749	0.021571772
240	0xbd099439	-0.03358862
241	0x3d5adf56	0.053435646
242	0x3cc64ee0	0.024207532
243	0xbd551e3d	-0.05203079
244	0xbc1067ae	-0.008813782
245	0xbd442f28	-0.047896534
246	0x3d5eeb33	0.054423522
247	0x3bfefa9d	0.0077813403
248	0x3c068a02	0.008211615
249	0x3ac45187	0.001497791
250	0x3d11d5b4	0.035604194
251	0xbcafa45c	-0.021440677
252	0x3cacf676	0.021113615
253	0xbcc6ba20	-0.024258673
254	0x3d9ac1f0	0.07556522
255	0xbc790779	-0.0151995355

fc4.weight f4 [2, 256]
0	0x3d2be2a0	0.041964173
1	0xbd83ba19	-0.0643198
2	0xbd00f824	-0.031486645
3	0xbc5f1338	-0.013615422
4	0x3d2e8f6d	0.04261725
5	0x3d71fc8d	0.05907874
6	0xbcef2234	-0.029191114
7	0x3b24ce00	0.00251472
8	0x3d52a402	0.05142594
9	0x3d7db75e	0.06194245
10	0x3d8058a8	0.0626691
11	0x3cd5d15e	0.02610081
12	0xbcdb88b2	-0.02679858
13	0x3d15c56a	0.03656522
14	0x3d39eace	0.045389943
15	0xbd0cbece	-0.034361653
16	0xbd1cc589	-0.03827432
17	0xbd1076b7	-0.035269465
18	0xbc1f2fc0	-0.009715974
19	0xbd3080b4	-0.04309149
20	0x3cdd8b10	0.02704385
21	0x3cfaf0a2	0.03063232
22	0x3d3dae9b	0.046309095
23	0x3d8a81ae	0.06763016
24	0x3cc8a929	0.024494724
25	0x3d3d95c9	0.046285424
26	0x3a4a2500	0.0007711202
27	0xbd0cc021	-0.034362916
28	0xbd402754	-0.046912506
29	0xbcfe3e59	-0.031035589
30	0xbcc858f4	-0.024456479
31	0xbcf997d7	-0.03046791
32	0xbd091fe4	-0.03347768
33	0xbd8355c6	-0.06412844
34	0x3d8fabef	0.070152156
35	0x3b8a4040	0.004219085
36	0xbd7e9181	-0.062150482
37	0xbd15b599	-0.03655014
38	0xbcd033f6	-0.025415402
39	0x3d874f9c	0.06606981
40	0x3caba13c	0.020950906
41	0xbd189b50	-0.037257493
42	0x3d606aae	0.054789238
43	0xbc8a4003	-0.016876226
44	0xbd725f05	-0.05917265
45	0x3d89c8cb	0.06727751
46	0xbcbfb6ae	-0.023402538
47	0x3d7a597b	0.06112049
48	0x3d89faee	0.06737314
49	0x3cbf37df	0.023342071
50	0xbd1e1cd4	-0.03860171
51	0x3ca86b4f	0.020558981
52	0xbd5c7ce0	-0.053830028
53	0xbd26f4e4	-0.04076089
54	0xbd4d72a0	-0.050158143
55	0xbd24ee08	-0.040266067
56	0xbd422a4d	-0.047403622
57	0x3bdec0ff	0.0067979093
58	0xbd19a478	-0.037510365
59	0xbc30d14a	-0.010792086
60	0x3d7e98d7	0.06215748
61	0x3d14c935	0.0363247
62	0xbcdfa7d9	-0.027301716
63	0x3dfa991d	0.12236235
64	0x3d2eac0b	0.04264454
65	0x3c920c6a	0.017828185
66	0x3d33a38a	0.043857135
67	0xbd162646	-0.036657594
68	0xbccc93cb	-0.024972817
69	0x3d4ee6c3	0.05051304
70	0xbd2ee44b	-0.042698186
71	0xbd1a39d1	-0.037652794
72	0x3d09f138	0.03367731
73	0xbd2224d4	-0.039585903
74	0x3cac0db8	0.021002635
75	0x3c31efc8	0.010860391
76	0x3cfc8ddc	0.030829363
77	0x3ca4d638	0.020121679
78	0xbc9b9f38	-0.01899682
79	0xbb8060b7	-0.0039177793
80	0xbc36a5c4	-0.01114792
81	0x3cb4d640	0.022074819
82	0xbcb3d911	-0.021954091
83	0xbd5c1db8	-0.05373928
84	0x3d42265c	0.047399864
85	0x3c2e0b8a	0.010622868
86	0x3d36fe6b	0.044676226
87	0x3d3b382b	0.045707863
88	0x3ce7624c	0.028245114
89	0xbceffb2c	-0.029294573
90	0xbd288e74	-0.04115148
91	0xbcd4d145	-0.025978694
92	0xbcfabac4	-0.030606635
93	0x3caeb7d0	0.021327883
94	0x3d3ad915	0.04561718
95	0xbd322968	-0.04349652
96	0x3c97f7dc	0.018550806
97	0x3c36dca0	0.011161
98	0xbd72a867	-0.059242632
99	0xbce29e3f	-0.027663348
100	0x3cdd6cdb	0.027029445
101	0xbcd155d4	-0.025553621
102	0xbcaf8288	-0.021424547
103	0xbca32754	-0.019916214
104	0x3d223a23	0.039606225
105	0xbc353948	-0.01106102
106	0xbc152ed7	-0.009105406
107	0x3c434540	0.011918366
108	0x3d81a34a	0.06329973
109	0x3c5efed0	0.013610557
110	0xbd29fa8c	-0.041498706
111	0xbd2af325	-0.041735787
112	0x3d088ad0	0.033335507
113	0xbd33a5bd	-0.043859232
114	0x3d921b71	0.0713414
115	0x3c03f90e	0.008054985
116	0x3d15ffc5	0.036620874
117	0xbca1fa6b	-0.019772729
118	0x3d47adfd	0.048749913
119	0x3d02431e	0.03180229
120	0x3d46a49e	0.048496835
121	0x3cc962d8	0.024583265
122	0x3cd67d40	0.02618277
123	0x3c3f2738	0.011667065
124	0x3cdfb274	0.027306773
125	0x3d1db64c	0.03850393
126	0x3d4a0841	0.049324278
127	0xbd44592a	-0.047936596
128	0x3c3645be	0.011125026
129	0xbb2c62d5	-0.0026304026
130	0xbcaf57a4	-0.021404095
131	0xbd67f055	-0.056625683
132	0x3dcdb056	0.10043399
133	0x3c8a20a8	0.016861275
134	0xbd23e7a1	-0.04001582
135	0x3cb9a4fc	0.022661678
136	0x3d9291c4	0.07156709
137	0xbd40ce64	-0.04707183
138	0x3c7eaf3c	0.015544709
139	0xbcb2eb53	-0.021840727
140	0xbbd814e3	-0.0065942868
141	0xbbf27377	-0.0073990184
142	0x3d56f4e4	0.05247964
143	0x3d33a22f	0.043855842
144	0x3d905c5a	0.07048865
145	0x3c6a4943	0.0142996935
146	0xbc26f5d3	-0.010190445
147	0x3cde7850	0.027156979
148	0xbd04adfe	-0.032392494
149	0xbc17ff38	-0.0092771575
150	0x3c2bc4d1	0.010483936
151	0x3cf33ac9	0.029691117
152	0x3c47d13a	0.01219588
153	0xbd53387b	-0.051567536
154	0x3d58443e	0.052799456
155	0xbcd8a1a3	-0.026444262
156	0xbd095c76	-0.033535443
157	0x3d4dd66a	0.05025331
158	0xbc6e89cf	-0.014559223
159	0x3d4c185f	0.04982793
160	0x3d168d80	0.03675604
161	0xbb99f1d8	-0.0046980195
162	0x3d37ad65	0.044843096
163	0xbd625cf1	-0.055264417
164	0x3cba5050	0.022743374
165	0xbd472cf7	-0.048626866
166	0x3d511cdc	0.051052913
167	0x3d9dbf0f	0.07702457
168	0xbc05c7cf	-0.008165314
169	0xbcb602d8	-0.022218153
170	0xbc869939	-0.016430484
171	0x3d7cac54	0.061687782
172	0xbd058cfe	-0.032605164
173	0x3ce9bcb3	0.028532362
174	0xb9a2389e	-0.0003094123
175	0x3c15d32a	0.009144584
176	0x3cfb84d9	0.030702995
177	0x3b230196	0.0024872771
178	0xba58bec9	-0.00082681753
179	0xbc6245bf	-0.013810574
180	0x3c2ae1dd	0.010429827
181	0x3d2e7ae5	0.04259767
182	0xbc3c63a4	-0.011498366
183	0x3d85642e	0.065132484
184	0x3c8e7cbc	0.017393462
185	0x3d2493a8	0.04017988
186	0xbcc0357a	-0.023463
187	0xbc97fb13	-0.018552339
188	0xbcebb110	-0.028770953
189	0x3d3bbbfc	0.045833573
190	0xbd216ea4	-0.039412156
191	0xbc496ee8	-0.0122945085
192	0x3d7f6bca	0.062358655
193	0x3cd59bd2	0.026075277
194	0x3ba72ca0	0.0051017553
195	0xbc33e472	-0.010979759
196	0xbc246a02	-0.01003504
197	0xbd127e4e	-0.035764985
198	0xbd8180c0	-0.06323385
199	0x3d18516b	0.03718702
200	0xbc7f71c0	-0.015591085
201	0xbc2510d9	-0.010074818
202	0x3d189288	0.037249118
203	0xbc32cb9d	-0.010912803
204	0x39081cc9	0.00012980694
205	0x3d321118	0.043473333
206	0x3c2b94a4	0.01047245
207	0xbb897d9e	-0.004195883
208	0x3d730b2d	0.05933683
209	0x3d69fdde	0.057126872
210	0x3d2dbfb2	0.042419143
211	0xbbbd46f6	-0.0057762815
212	0x3d0c4031	0.034240905
213	0xbd5020d4	-0.050812557
214	0x3cced01c	0.025245719
215	0xbd338beb	-0.043834608
216	0xbd4e2776	-0.0503306
217	0x3d2b8972	0.041879125
218	0xbd1f33b6	-0.038867675
219	0x3d02d576	0.031941853
220	0x3d019c9f	0.031643506
221	0xbcf7089b	-0.03015547
222	0xbd0f13ec	-0.03493111
223	0x3d00a4b2	0.031407066
224	0xbba0769d	-0.0048969523
225	0xbc08e462	-0.008355232
226	0xbd00b303	-0.03142072
227	0x3cfbc848	0.03073515
228	0x3d8c5738	0.06852573
229	0xbcf0e2c6	-0.029405009
230	0x3d01b568	0.031667143
231	0x3c2428b0	0.010019466
232	0xbcab47d2	-0.02090827
233	0xbd2eecf4	-0.042706445
234	0xbc39b8f6	-0.011335602
235	0x3d83c4a3	0.0643399
236	0xbc8e39c9	-0.017361538
237	0x3ce5955c	0.028025322
238	0xbd1ec57d	-0.03876256
239	0x3d0ebd4c	0.034848496
240	0x3d591b93	0.053004812
241	0x3d56bfc0	0.05242896
242	0xbd014453	-0.0315593
243	0x3cb69c13	0.022291219
244	0xbd3b872e	-0.045783214
245	0x3d2a908e	0.041641764
246	0x3cc9891a	0.024601508
247	0x3c3ce2a8	0.011528648
248	0xbd622c14	-0.055217817
249	0xb94037c3	-0.0001833132
250	0xba299a60	-0.0006469842
251	0xbd29d76a	-0.0414652
252	0xbc55e4f5	-0.013055076
253	0xbbcca550	-0.0062452927
254	0x3d4ae3b0	0.049533546
255	0xbbb7a615	-0.0056045153

fc4.bias f4 [2]
0	0x3c9e084f	0.019291071
1	0x3c3a7c00	0.011382103
