ann_wn.pth (torch, 573044 bytes, 8 tensors)

fc1.weight f4 [256, 40]
-0.06539649 -0.114278644 0.07683561 -0.004883586 0.055384688 -0.052863777 -0.095495105 0.005449877
0.103489034 -0.14477485 -0.029430985 0.10041036 -0.12687202 -0.029946832 -0.050004374 -0.089179344
0.12157705 0.06735616 0.029349286 0.10205331 -0.0693799 -0.18024284 -0.14180131 -0.014386789
0.0072735525 -0.16160169 0.09360447 0.10889381 0.07910288 0.09186446 -0.017791696 0.15185618
-0.09055347 -0.19527756 0.0738472 -0.18784378 -0.16470808 0.060915273 -0.10320237 -0.17573336
-0.09197241 -0.1820174 -0.19431765 0.051930163 -0.10594333 -0.120419845 0.019905688 -0.13251467
0.14594768 -0.079101294 -0.16636969 -0.066959806 0.128808 0.10643937 0.0047733802 -0.17628151
-0.11406279 0.13048384 0.10318966 -0.113197744 -0.035969045 0.07729392 -0.019194482 -0.045643277
-0.19162567 0.10192363 0.035481147 -0.0344396 0.1483955 0.11890753 0.1095086 0.096073866
-0.13169584 -0.19259228 -0.09000253 -0.052467097 0.114283435 0.07151973 -0.16096477 0.06175703
-0.13036866 -0.14713669 -0.06678946 -0.15075538 0.09396143 -0.006896137 -0.074734 -0.038818516
0.107381046 -0.03195382 0.062344868 -0.08352913 0.10282624 0.03803138 -0.09057018 -0.14245269
-0.052417446 -0.06871063 -0.01953025 -0.028154636 -0.058286708 -0.06993076 -0.064632796 0.02878491
0.017670756 -0.18989477 -0.029453186 0.12764348 0.1393418 0.049326126 -0.0068477653 0.10896259
0.083706155 -0.112577066 0.079304375 0.03871342 0.006676844 0.08583589 0.019477226 -0.09668383
0.1490465 0.08047165 -0.008265078 -0.066896565 0.082870305 -0.15519428 0.016204372 0.12594424
0.02646941 -0.11644153 -0.14812012 -0.15479852 -0.0833573 -0.00013947487 -0.08127437 -0.08628649
0.12385024 -0.04866028 0.03364475 0.12566073 -0.15182152 -0.07950893 -0.13194878 -0.006249696
-0.05795841 -0.14737354 0.078440875 -0.07655689 -0.100724176 0.047733188 0.040018573 0.05827184
0.11839904 0.12592883 0.12372674 -0.0011080056 0.05145374 -0.1487802 0.0955437 -0.044864878
0.009754978 -0.0021537037 0.09479892 -0.14538182 0.088744454 -0.025776047 -0.122169234 0.09812308
0.06418836 0.08196234 -0.030326828 0.029685307 -0.059269868 0.10272276 -0.092888884 0.06278938
0.007403788 0.039639425 -0.13267177 -0.0370803 0.008392373 0.0059145195 -0.20768134 -0.034641515
-0.13466553 -0.1732076 0.045650613 -0.02187767 0.17344856 0.1527066 0.18557876 0.049829837
-0.064117104 0.1095687 0.043332987 -0.09834151 -0.08591218 -0.103698894 0.033972673 -0.13138382
0.071536765 -0.04184431 0.10853888 0.07800372 -0.076763965 0.12921761 -0.124321505 -0.023398146
0.00979647 -0.062163673 0.00701797 0.007560119 0.07443476 -0.10839452 -0.021160707 0.013830185
-0.10558285 0.117675826 -0.04766935 -0.10650514 -0.04837101 0.13265477 0.097390816 0.074400425
-0.10305733 -0.032500803 0.081750154 -0.1510923 -0.14052482 -0.10149668 -0.15351361 0.14047576
-0.053757936 -0.12020485 0.1478026 -0.09755698 0.012637883 0.14769094 -0.13411364 -0.10664812
-0.063000016 0.054216243 0.14990705 -0.079112366 0.027909799 -0.11910906 0.061220326 0.05552519
-0.11925044 -0.039990015 -0.12707904 -0.13425887 -0.006105344 -0.024564197 -0.15026303 0.07207373
00000000: 98ee 85bd ec0a eabd fd5b 9d3d 7d06 a0bb
00000010: 0edb 623d b087 58bd f092 c3bd e294 b23b
00000020: 0ff2 d33d dc3f 14be 4019 f1bc f2a3 cd3d
00000030: bdea 01be 0f53 f5bc 63d1 4cbd a9a3 b6bd
00000040: 63fd f83d 07f2 893d ea6d f03c 5301 d13d
00000050: 0d17 8ebd 9491 38be 5d34 11be 91b6 6bbc
00000060: fb56 ee3b ea7a 25be b3b3 bf3d b803 df3d
00000070: b100 a23d 6f23 bc3d e4bf 91bc 3080 1b3e
00000080: 1974 b9bd d7f6 47be 333d 973d 1f5a 40be
00000090: 3ca9 28be 4b82 793d c45b d3bd 72f3 33be
000000a0: 085c bcbd c562 3abe 35fb 46be b9b4 543d
000000b0: d1f8 d8bd ae9e f6bd 4111 a33c edb1 07be
000000c0: 4f73 153e dcff a1bd d15c 2abe 3922 89bd
000000d0: 3fe6 033e e2fc d93d 046a 9c3b 2483 34be
000000e0: c199 e9bd 8e9d 053e 1a55 d33d 38d4 e7bd
000000f0: 4754 13bd 464c 9e3d bf3d 9dbc 72f4 3abd
00000100: 8539 44be 56bd d03d ae54 113d 8a10 0dbd
00000110: fdf4 173e cb85 f33d 0b46 e03d 60c2 c43d
00000120: 46db 06be e936 45be 3f53 b8bd bde7 56bd
00000130: 6f0d ea3d f078 923d f3d3 24be f1f4 7c3d
00000140: 5d7f 05be 00ab 16be eac8 88bd 9e5f 1abe
00000150: da6e c03d fdf8 e1bb 240e 99bd 2a00 1fbd
00000160: 98ea db3d 02e2 02bd 555d 7f3d 5211 abbd
00000170: 9096 d23d cbc6 1b3d dc7c b9bd 1edf 11be
00000180: adb3 56bd 29b8 8cbd e7fd 9fbc 8da4 e6bc
00000190: 0bbe 6ebd dc37 8fbd 335e 84bd 55ce eb3c
000001a0: 43c2 903c c673 42be cf47 f1bc f9b4 023e
000001b0: 9eaf 0e3e 310a 4a3d 3863 e0bb c727 df3d
000001c0: 226e ab3d ce8e e6bd 556a a23d f791 1e3d
000001d0: 6dc9 da3b baca af3d b48e 9f3c 2c02 c6bd
000001e0: a59f 183e 52ce a43d 406a 07bc 1101 89bd
000001f0: e8b7 a93d 40eb 1ebe 08bf 843c 87f7 003e
00000200: 60d6 d83c e678 eebd cdac 17be 8183 1ebe
00000210: 3bb7 aabd 0040 12b9 2d73 a6bd f9b6 b0bd
00000220: 32a5 fd3d 0050 47bd 14cf 093d 35ad 003e
00000230: 1a77 1bbe 94d5 a2bd 951d 07be 40ca ccbb
00000240: cc65 6dbd 17e9 16be 9ca5 a03d dcc9 9cbd
00000250: 7a48 cebd e083 433d 84ea 233d 74ae 6e3d
00000260: 327b f23d 7df3 003e 7264 fd3d 803a 91ba
00000270: 28c1 523d d659 18be 6aac c33d 3cc4 37bd
00000280: 58d3 1f3c 2725 0dbb f025 c23d f9de 14be
00000290: a7bf b53d 4a28 d3bc dd33 fabd c1f4 c83d
000002a0: 3075 833d dfdb a73d f86f f8bc 9a2e f33c
000002b0: f6c4 72bd 4f60 d23d 873c bebd b897 803d
000002c0: 7a9b f23b f35c 223d 1cdb 07be 83e1 17bd
000002d0: 2a80 093c 96ce c13b 6baa 54be 43e4 0dbd
000002e0: c3e5 09be 555d 31be 23fc 3a3d cd38 b3bc
000002f0: 809c 313e 1e5f 1c3e 5c08 3e3e 5f1a 4c3d
00000300: d44f 83bd 8e65 e03d ee7d 313d 4667 c9bd
00000310: baf2 afbd 1660 d4bd ee26 0b3d 7b89 06be
00000320: de81 923d f064 2bbd a249 de3d 6ac0 9f3d
00000330: 6d36 9dbd 9f51 043e 469c febd 78ad bfbc
00000340: 6081 203c 569f 7ebd 00f7 e53b e0ba f73b
00000350: 4071 983d f2fd ddbd 3859 adbc 0098 623c
00000360: d23b d8bd 0600 f13d f040 43bd 5e1f dabd
00000370: ae20 46bd a7d6 073e d674 c73d 405f 983d
00000380: b90f d3bd 901f 05bd a06c a73d f1b7 1abe
00000390: bde5 0fbe 7edd cfbd ac32 1dbe e1d8 0f3e
000003a0: 4831 5cbd f62d f6bd 9159 173e f4cb c7bd
000003b0: 200f 4f3c 4b3c 173e 1655 09be 546a dabd
000003c0: 2706 81bd da11 5e3d 3c81 193e aa05 a2bd
000003d0: 17a3 e43c 73ef f3bd 2ac2 7a3d 626e 633d
000003e0: 9339 f4bd 92cc 23bd 0221 02be 287b 09be
000003f0: 560f c8bb db3a c9bc 8dde 19be 649b 933d

fc1.bias f4 [256]
0.11206467 0.089908466 0.077802084 -0.021753848 0.08526201 -0.070031665 0.07148928 -0.13489492
0.08472414 -0.028054593 0.109377146 0.03896752 -0.046611547 -0.07420805 -0.047070447 0.043792836
-0.10582185 -0.06551338 0.07439149 0.04719413 0.07702711 0.08417212 0.018733859 0.03933942
-0.100736216 0.062482297 -0.052956656 0.09289742 0.04329567 -0.082821615 0.07710066 0.021006066
0.050886787 0.057183485 0.071256086 0.07957199 -0.14556365 -0.043882184 0.10725472 -0.089589395
0.03761088 0.05626851 0.0123851 -0.052072205 0.006861945 -0.0685262 -0.09772866 0.09346554
-0.081250586 -0.12421273 -0.08766891 -0.14193502 -0.07839169 0.12997384 0.08938192 -0.012882203
-0.10283266 -0.09539789 -0.015178918 0.06798421 -0.07755069 -0.12435683 -0.02867566 -0.10666636
-0.10123631 -0.15496394 -0.11877946 -0.10203235 0.0051613804 -0.034858715 0.10008319 -0.030128762
-0.037972078 0.08704911 -0.1580563 -0.03059718 0.08470019 0.07674697 -0.111796714 0.12062626
0.075757354 0.0064908452 -0.12938839 0.028040528 -0.16719836 -0.05485918 0.038261876 -0.13202159
0.113744974 -0.164254 -0.14751641 -0.10557687 0.058293812 0.10773732 -0.11743768 -0.09043877
-0.0008508286 -0.11547419 0.11183149 -0.12304651 0.048754867 -0.025636643 -0.12054925 0.07258302
-0.120190956 0.13072453 -0.04607091 0.02754638 -0.06851224 0.10005223 0.09814606 0.11760092
0.12090669 -0.12271477 -0.10647304 -0.13687922 -0.0056519955 0.061524935 -0.02530887 -0.04940152
-0.07719735 -0.02041319 0.050033964 0.11508641 0.102829054 -0.06319653 0.046616282 -0.10083626
-0.09785467 -0.10144804 0.11717543 -0.09420413 0.08349206 0.09232973 0.019771267 0.024432154
-0.1275989 -0.024206113 -0.0770695 -0.13188022 -0.08466057 0.04085416 0.0106392 0.1201831
0.074105315 0.042700183 0.061396554 0.0908448 -0.110959336 0.1093021 -0.105611816 -0.045375198
-0.022717929 0.018491212 -0.04152695 -0.023891713 -0.09827151 -0.006808632 -0.07099102 0.13059103
0.022558644 0.045856994 -0.06635678 0.072047874 -0.12251641 -0.013599413 0.04667173 0.06753973
-0.07870326 0.014281038 -0.08099379 0.1008238 0.106734104 0.09203272 -0.17228712 -0.12385249
0.081927486 0.13830295 -0.075716004 0.076396026 0.14008154 -0.031542014 0.014944226 -0.061719917
-0.11292827 -0.0920103 0.08597381 0.07358629 0.11186757 -0.037838507 0.111931436 -0.0022074736
-0.104557246 -0.040095713 -0.06654401 -0.033084948 -0.00357474 0.054946918 -0.07031192 0.11310858
-0.050772272 0.10913599 -0.04685258 -0.024476523 0.009653524 -0.086458765 -0.15695898 -0.13824198
0.13721135 0.025313148 0.06815381 -0.022377016 -0.04579723 -0.067144655 0.013512607 0.10393636
0.12876609 0.052266743 0.12507163 -0.13765547 -0.07215155 0.04926141 -0.112928405 -0.12435061
0.053280894 -0.055771895 -0.15625252 -0.06813748 -0.05360677 0.07888499 0.09454921 0.043830704
-0.04863593 -0.01797612 -0.104220785 0.08041036 -0.035448946 0.09351219 0.11273684 -0.15679196
0.11610867 0.083731525 -0.13305297 0.110737406 -0.08688141 0.11513485 -0.032260813 0.052667595
-0.15438926 -0.12943944 0.001547484 -0.049989395 0.09628347 -0.04657419 0.11438189 0.12324142
00000000: 2982 e53d ee21 b83d b356 9f3d 2035 b2bc
00000010: d99d ae3d c36c 8fbd f968 923d e521 0abe
00000020: da83 ad3d bfd2 e5bc 2001 e03d 689c 1f3d
00000030: c0eb 3ebd 64fa 97bd f1cc 40bd 1e60 333d
00000040: 20b9 d8bd e12b 86bd 915a 983d a24e 413d
00000050: 64c0 9d3d 6f62 ac3d c077 993c 5f22 213d
00000060: ca4e cebd 70ed 7f3d 14e9 58bd 0141 be3d
00000070: cd56 313d 619e a9bd f3e6 9d3d ea14 ac3c
00000080: aa6e 503d 3b39 6a3d b6ee 913d a4f6 a23d
00000090: a30e 15be cebd 33bd 5da8 db3d a57a b7bd
000000a0: de0d 1a3d cf79 663d e0ea 4a3c aa49 55bd
000000b0: 2bda e03b 7757 8cbd f725 c8bd dc6a bf3d
000000c0: b566 a6bd 3e63 febd c28b b3bd 6a57 11be
000000d0: d38b a0bd dd17 053e de0d b73d e00f 53bc
000000e0: ee99 d2bd f85f c3bd ffb0 78bc 4e3b 8b3d
000000f0: e5d2 9ebd cbae febd 38e9 eabc e473 dabd
00000100: fc54 cfbd deae 1ebe a542 f3bd 56f6 d0bd
00000110: cc20 a93b 03c8 0ebd 6af8 cc3d 98d0 f6bc
00000120: 9c88 1bbd ce46 b23d 83d9 21be f0a6 fabc
00000130: 4b77 ad3d 842d 9d3d adf5 e4bd e70a f73d
00000140: ac26 9b3d 28b1 d43b 647e 04be 40b5 e53c
00000150: 0c36 2bbe 05b4 60bd 7cb8 1c3d ab30 07be
00000160: 20f3 e83d 3332 28be 8b0e 17be b038 d8bd
00000170: 7ec5 6e3d 62a5 dc3d 2b83 f0bd f637 b9bd
00000180: 240a 5fba bb7d ecbd e907 e53d cfff fbbd
00000190: 2fb3 473d f003 d2bc 86e2 f6bd 68a6 943d
000001a0: ad26 f6bd a7dc 053e dab4 3cbd f2a8 e13c
000001b0: 2550 8cbd 2fe8 cc3d cd00 c93d c0d8 f03d
000001c0: ed9d f73d e251 fbbd 8a0e dabd 112a 0cbe
000001d0: 6034 b9bb 9201 7c3d 8c54 cfbc 4059 4abd
000001e0: a519 9ebd 9039 a7bc 6af0 4c3d 6cb2 eb3d
000001f0: 0a98 d23d 2f6d 81bd b7f0 3e3d 3e83 cebd
00000200: 0768 c8bd fdc3 cfbd acf9 ef3d 18ee c0bd
00000210: e3fd aa3d 5f17 bd3d 5af7 a13c f125 c83c
00000220: 49a9 02be e64b c6bc 9dd6 9dbd 9c0b 07be
00000230: 8562 adbd b156 273d 0a50 2e3c 8f22 f63d
00000240: 87c4 973d 63e6 2e3d f47a 7b3d d70c ba3d
00000250: a63e e3bd c8d9 df3d 024b d8bd 58db 39bd
00000260: f31a babc e27a 973c 2a18 2abd 8eb8 c3bc
00000270: 9342 c9bd f21a dfbb bd63 91bd a8b9 053e
00000280: e8cc b83c 8bd4 3b3d 10e6 87bd d68d 933d
00000290: e2e9 fabd 13d0 5ebc db2a 3f3d 4552 8a3d
000002a0: 2d2f a1bd 04fb 693c 12e0 a5bd b57c ce3d
000002b0: 6997 da3d a77b bc3d 096c 30be 60a6 fdbd
000002c0: 99c9 a73d 4a9f 0d3e fe10 9bbd 8575 9c3d
000002d0: 8971 0f3e 3332 01bd a0d8 743c 06ce 7cbd
000002e0: f046 e7bd e56f bcbd 0913 b03d 69b4 963d
000002f0: d31a e53d 8dfc 1abd 4f3c e53d 43ab 10bb
00000300: 1c22 d6bd 673b 24bd 3a48 88bd 1584 07bd
00000310: 2f46 6abb 0510 613d b2ff 8fbd 79a5 e73d
00000320: 96f6 4fbd b182 df3d 7ee8 3fbd fd82 c8bc
00000330: d029 1e3c 4b11 b1bd dbb9 20be 4e8f 0dbe
00000340: 2281 0c3e 855d cf3c 3a94 8b3d 0150 b7bc
00000350: e095 3bbd 2383 89bd fb63 5d3c 96dc d43d
00000360: 42db 033e a715 563d c712 003e 8ef5 0cbe
00000370: 31c4 93bd 55c6 493d 0247 e7bd 88ab febd
00000380: 113d 5a3d 1271 64bd a900 20be aa8b 8bbd
00000390: c692 5bbd 748e a13d 04a3 c13d d387 333d
000003a0: 7836 47bd a842 93bc b571 d5bd 30ae a43d
000003b0: ea32 11bd 5283 bf3d 93e2 e63d 128e 20be
000003c0: 62ca ed3d 6f7b ab3d 0a3f 08be 4bca e23d
000003d0: e1ee b1bd d2cb eb3d ea23 04bd fab9 573d
000003e0: 3818 1ebe c68b 04be f2d4 ca3a aec1 4cbd
000003f0: 4530 c53d 94c4 3ebd 0d41 ea3d ff65 fc3d

fc2.weight f4 [256, 256]
-0.065001346 -0.020354858 -0.028085705 -0.03367737 0.034374382 -0.0361308 0.0010785986 0.04951725
-0.027616628 -0.062014244 0.026244655 -0.022613173 0.01773756 0.002138704 0.039844315 -0.041106015
0.041678436 -0.05967977 -0.013645553 -0.06337887 -0.03133856 -0.020845948 0.0063625425 0.054646954
-0.040284276 0.041305088 0.016862117 0.024761518 0.031389497 0.0045765564 -0.23401773 -0.03677096
0.038899694 0.009086228 0.032713838 0.00042751333 -0.026284844 0.038078457 -0.028812382 0.032317687
0.00029623325 -0.031109078 0.0320324 0.028020538 -0.01493656 -0.03082072 0.02996478 0.00012824322
-0.046278637 0.045224354 -0.05764069 -0.042430468 0.023142248 -0.032851424 0.021203525 -0.036275625
-0.053924166 0.029362222 0.05658279 0.03847489 0.04443066 0.024205193 0.032569222 -0.055439524
0.039306484 0.03939237 -0.013229646 -0.029154934 0.023341486 0.065105364 0.038924217 0.0571625
-0.03938754 -0.009109923 -0.05334884 0.028498732 -0.038534846 -0.114600636 0.004393272 -0.19295634
-0.07295874 -0.027401999 -0.036357284 0.053621028 0.017294582 0.039663155 0.034935813 -0.07452379
4.880948e-05 -0.032213066 -0.04519684 -0.061285317 -0.027802445 0.0106229605 0.0075985244 0.021035068
0.04817121 0.0074637397 -0.042084042 -0.012740523 0.016199607 -0.027883604 0.027223475 -0.0438859
0.012083108 0.01018201 0.0480929 0.007233276 0.05122482 -0.056961514 -0.09213856 -0.04703961
-0.020003362 -0.01052374 0.053664148 -0.0012108088 -0.009821519 -0.019115664 0.054134917 0.055751108
-0.01193665 -0.01237376 -0.024318794 -0.19296688 -0.06922615 0.013913009 0.13747482 -0.0819469
-0.022198547 -0.023477137 0.052904543 0.052707925 -0.054735783 -0.1662049 0.0016475751 0.11895675
0.025004309 0.0078075384 0.005025208 -0.024069816 0.0056979507 -0.017074784 0.05415847 0.0142910965
-0.034043234 0.028223872 0.060712807 0.03895512 -0.07239223 -0.030161414 -0.03978757 -0.07625989
0.11724403 0.027371824 -0.016524248 -0.034737587 0.04007121 0.0354993 -0.010568253 -0.0126637295
-0.022367701 0.033436187 0.007214442 -0.07546728 0.0024498329 0.0079524815 -0.002942203 0.050821584
0.039575137 -0.016635628 0.0446743 -0.0064108507 0.05250472 0.06748306 -0.0059566135 0.03141343
0.027894884 0.034100953 -0.049246512 0.042033438 0.051761482 -0.058381088 -0.01530572 -0.05021425
0.048810937 0.04020501 0.027091075 -0.013187586 -0.052692223 -0.003780215 0.006092163 0.007461663
-0.028669821 -0.12167591 -0.026679756 -0.048392296 0.03416987 -0.048040204 0.063268535 -0.014751866
0.062367238 -0.034294352 0.01665277 0.058972716 -0.038954422 -0.020172767 -0.061170705 0.03512127
0.009786012 0.14148113 0.048050772 -0.053559322 -0.0142527 0.019713534 0.04738896 -0.020763645
0.0016712282 -0.047284912 0.018587142 -0.051352125 0.0058658198 0.018404135 -0.0024787262 0.021250308
-0.09303046 -0.06225489 0.022740297 0.020579997 0.054770075 0.027687663 -0.02102806 -0.051774
-0.055999808 -0.012266256 0.007799953 -0.010026265 -0.053132482 0.058565285 -0.12803808 -0.047391966
-0.0038980604 0.054958615 0.005516413 0.039534867 0.05941941 -0.03088044 -0.0060204784 -0.016424708
-0.04800225 -0.020210743 -0.037057538 0.009166844 -0.0648784 0.0008113906 0.06335803 0.004088318
00000000: 6d1f 85bd 3bbf a6bc fe13 e6bc 48f1 09bd
00000010: 27cc 0c3d e4fd 13bd c35f 8d3a 9ad2 4a3d
00000020: 443c e2bc a602 7ebd 08ff d63c 433f b9bc
00000030: 5c4e 913c 8029 0c3b cb33 233d c85e 28bd
00000040: 02b7 2a3d c672 74bd 9991 5fbc c8cc 81bd
00000050: dd5c 00bd 1fc5 aabc e07c d03b 7cd5 5f3d
00000060: 2001 25bd 862f 293d 6c22 8a3c abd8 ca3c
00000070: 4692 003d f0f6 953b 58a2 6fbe 259d 16bd
00000080: 4955 1f3d 67de 143c f2fe 053d de23 e039
00000090: 5053 d7bc 28f8 1b3d f207 ecbc 8d5f 043d
000000a0: c14f 9b39 77d8 febc 6834 033d 548b e53c
000000b0: 79b8 74bc bc7b fcbc b378 f53c 0779 0639
000000c0: ab8e 3dbd 2c3d 393d a518 6cbd 92cb 2dbd
000000d0: d094 bd3c 378f 06bd 04b3 ad3c c095 14bd
000000e0: 96df 5cbd 0b89 f03c 5bc3 673d d997 1d3d
000000f0: ecfc 353d f849 c63c 4e67 053d 8e14 63bd
00000100: d6ff 203d e559 213d 28c1 58bc 54d6 eebc
00000110: a536 bf3c f655 853d 006f 1f3d 3a23 6a3d
00000120: d454 21bd c941 15bc 5084 5abd 2c76 e93c
00000130: b7d6 1dbd bdb3 eabd 70f5 8f3b 5996 45be
00000140: 646b 95bd 287a e0bc 60eb 14bd b9a1 5b3d
00000150: 5ead 8d3c d575 223d db18 0f3d ee9f 98bd
00000160: c8b8 4c38 d9f1 03bd 5220 39bd 5006 7bbd
00000170: f4c1 e3bc ed0b 2e3c 0bfd f83b bc51 ac3c
00000180: 2d4f 453d 6392 f43b 5160 2cbd a0bd 50bc
00000190: 0ab5 843c 286c e4bc c403 df3c b4c1 33bd
000001a0: 3af8 453c 72d2 263c 10fd 443d 1e05 ed3b
000001b0: 1ed1 513d 7a50 69bd 24b3 bcbd 9bac 40bd
000001c0: 17de a3bc c46b 2cbc f0ce 5b3d 00b4 9eba
000001d0: 70ea 20bc 7498 9cbc 93bc 5d3d 465b 643d
000001e0: f091 43bc 50bb 4abc 3538 c7bc 1c99 45be
000001f0: 71c6 8dbd 64f3 633c 33c6 0c3e c7d3 a7bd
00000200: bad9 b5bc 2053 c0bc 6fb2 583d 44e4 573d
00000210: a132 60bd 9e31 2abe 72f3 d73a 999f f33d
00000220: d6d5 cc3c 61d6 ff3b 80aa a43b 102e c5bc
00000230: e0b5 ba3b 6be0 8bbc 46d5 5d3d 3425 6a3c
00000240: eb70 0bbd c035 e73c fead 783d 678f 1f3d
00000250: 6142 94bd 1215 f7bc 4af8 22bd 252e 9cbd
00000260: a31d f03d e03a e03c dc5d 87bc 0049 0ebd
00000270: b621 243d b767 113d 7726 2dbc 887b 4fbc
00000280: 783c b7bc 62f4 083d 2067 ec3b 978e 9abd
00000290: 608d 203b 204b 023c fad1 40bb 4b2a 503d
000002a0: 8a19 223d 7147 88bc 66fc 363d 1d12 d2bb
000002b0: 300f 573d 8f34 8a3d b22f c3bb 5eab 003d
000002c0: d083 e43c 71ad 0b3d b6b6 49bd 412b 2c3d
000002d0: d903 543d 0221 6fbd d8c4 7abc 75ad 4dbd
000002e0: faed 473d 02ae 243d 1aee dd3c bf10 58bc
000002f0: cdd3 57bd 7cbd 77bb c4a0 c73b f780 f43b
00000300: f9dc eabc 3831 f9bd 818f dabc 0037 46bd
00000310: b5f5 0b3d cec5 44bd ef92 813d d0b1 71bc
00000320: ca74 7f3d 3c78 0cbd 646b 883c 608d 713d
00000330: ac8e 1fbd 5c41 a5bc 228e 7abd 52db 0f3d
00000340: 8255 203c 6ee0 103e e3d0 443d 0561 5bbd
00000350: 2884 69bc 477e a13c ed1a 423d 8518 aabc
00000360: 1d0d db3a d3ad 41bd 1044 983c 9b56 52bd
00000370: 1036 c03b 45c4 963c 2072 22bb 2015 ae3c
00000380: c186 bebd fcfe 7ebd dc49 ba3c 6297 a83c
00000390: 9656 603d 3dd1 e23c 0a43 acbc f910 54bd
000003a0: 0e60 65bd 68f8 48bc c096 ff3b 3445 24bc
000003b0: 72a1 59bd 27e2 6f3d 6a1c 03be 141e 42bd
000003c0: 9a76 7fbb 491c 613d 07c3 b43b 50ef 213d
000003d0: c461 733d faf8 fcbc 6f47 c5bb 1c8d 86bc
000003e0: 029e 44bd 0091 a5bc a5c9 17bd 8830 163c
000003f0: f7de 84bd 80b3 543a dbc1 813d 4cf7 853b

fc2.bias f4 [256]
0.015822414 0.047163803 -0.06611421 -0.042240612 -0.012376234 -0.03261329 0.050419044 -0.02580919
0.038552083 0.032392632 0.01756998 0.033432234 -0.036912348 -0.0057856585 0.016163364 -0.028929085
-0.057337753 -0.045589097 -0.04586266 0.045344256 0.010356169 0.021024203 0.039426018 0.051775564
0.010247066 0.027285 -0.045478124 -0.051688302 -0.04342506 -0.015821569 -0.07109616 -0.05852807
-0.06412297 -0.010877525 -0.038504258 0.03679126 -0.006839009 -0.037607722 -0.038208492 -0.02387174
-0.0044708266 0.012624219 -0.0028058598 -0.055860188 -0.0149295665 0.022153802 -0.037188947 0.0117277885
0.022691995 0.0027807804 -0.06230753 0.012222047 0.018432086 -0.006883564 0.0402178 -0.014682359
0.010301819 0.0062410873 0.008735095 0.032401368 0.009023366 -0.06579093 0.019625967 -0.026835201
0.005438348 0.02208752 -0.031308737 0.028418416 0.00342893 0.02984281 -0.04090981 -0.0014050542
-0.00080115406 0.028053531 -0.02083798 0.000768157 -0.050604954 0.0519847 0.028830137 0.03239594
-0.014523271 -0.04294894 -0.056106094 -0.025005462 0.048109043 0.018499004 0.038946252 0.04719222
-0.020341316 0.009155355 0.0016077603 -0.059101395 -0.010464684 0.0010953586 -0.032770455 -0.020783637
-0.06352916 -0.045182317 -0.04987191 0.048618812 -0.014999508 -0.006930969 -0.04388259 0.010920554
-0.023604784 -0.032210242 0.01964648 0.039223794 -0.033637673 0.032187577 0.010122706 -0.055336192
0.016849704 -0.041893747 -0.03009171 -0.056173082 0.053037073 -0.051116087 0.030487303 -0.023306765
-0.0645969 -0.029787729 0.021461742 -0.008658834 -0.02586669 -0.004330102 0.016744282 0.0054372107
-0.0314635 0.032168403 -0.06336787 0.046744183 -0.030110449 -0.05739434 -0.03804159 -0.067592636
-0.037586126 -0.0071435617 -0.060396478 -0.01519657 0.012753076 -0.0021112924 -0.041096628 -0.051204942
-0.054671746 0.03928748 -0.05526986 -0.06704621 -0.060861584 -0.024872297 -0.0007032867 0.008343482
0.008379655 -0.017006785 0.0007684405 0.011367831 -0.05012627 0.03957613 0.010525156 0.04465578
0.038636506 -0.02321007 -0.055387266 0.04263858 -0.013198672 -0.03094165 0.008428948 -0.04508755
-0.061863687 -0.00083277153 -0.030072251 -0.04653427 -0.045867354 0.04018607 0.008240652 -0.035158478
0.021495912 0.01877156 0.033667404 0.047704734 0.04936083 -0.047171675 0.0023481268 0.038811516
-0.05591397 -0.017424844 0.009493484 0.011964122 -0.007733983 0.018970216 0.014035077 0.012188623
0.04081084 -0.011298754 0.022514118 0.029932087 0.015713647 -0.0395641 0.045723785 0.0017390219
-0.010580605 0.010085446 0.022952076 -0.050934266 0.007269945 -0.0069051627 0.04732478 0.031159587
0.0067275227 -0.02645397 -0.018955888 -0.034800958 0.026158767 -0.029644847 -0.0588535 -0.05314745
0.030438809 0.02053994 -0.026877243 0.062287968 -0.014398475 -0.0505464 -0.051661678 -0.049163617
0.0006002257 -0.060061187 0.016377596 0.0502523 0.021936458 -0.041599646 -0.052228633 0.038734984
0.02811141 0.04455714 -0.01816153 0.0008559347 -0.04775139 0.017286764 0.011965061 -0.012386022
-0.06307025 -0.008171827 -0.018190626 -0.02377314 0.017847007 0.005486847 0.03508521 -0.028450284
0.0026440732 0.0021531968 -0.058271475 0.050992344 0.0015189773 0.03821079 0.00810628 -0.032915175
00000000: 029e 813c d52e 413d e366 87bd 7e04 2dbd
00000010: b0c5 4abc 8395 05bd 3384 4e3d cb6d d3bc
00000020: cae8 1d3d 23ae 043d ebee 8f3c 3df0 083d
00000030: 6731 17bd 9f95 bdbb 0869 843c b0fc ecbc
00000040: feda 6abd a2bb 3abd 7cda 3bbd e6ba 393d
00000050: ecac 293c f33a ac3c 2d7d 213d 9d12 543d
00000060: 4fe3 273c cb84 df3c 4547 3abd 1db7 53bd
00000070: 7ade 31bd 3c9c 81bc dd9a 91bd 21bb 6fbd
00000080: e752 83bd a637 32bc a4b6 1dbd 6fb2 163d
00000090: c419 e0bb 8e0a 1abd 8280 1cbd ab8e c3bc
000000a0: 0380 92bb d0d5 4e3c 84e2 37bb a7cd 64bd
000000b0: 249b 74bc e47b b53c 7053 18bd e925 403c
000000c0: 90e4 b93c c13d 363b 2e36 7fbd fb3e 483c
000000d0: e3fe 963c 858f e1bb 6bbb 243d 478e 70bc
000000e0: f6c8 283c 0982 cc3b a51d 0f3c 4cb7 043d
000000f0: bdd6 133c 65bd 86bd a3c6 a03c 7fd5 dbbc
00000100: 2b34 b23b e3f0 b43c 973d 00bd bdcd e83c
00000110: e6b7 603b e978 f43c 0c91 27bd cc29 b8ba
00000120: 8a04 52ba 85d0 e53c 69b4 aabc 255e 493a
00000130: 2447 4fbd e9ed 543d 2e2d ec3c 9bb1 043d
00000140: 03f3 6dbc 3aeb 2fbd 81cf 65bd 41d8 ccbc
00000150: fd0d 453d 398b 973c 1b86 1f3d a14c 413d
00000160: d5a2 a6bc 5800 163c 7cbb d23a 4e14 72bd
00000170: 1174 2bbc 2392 8f3a 503a 06bd 7242 aabc
00000180: 941b 82bd 1811 39bd 7d46 4cbd 8524 473d
00000190: 7fc0 75bc 2f1d e3bb 3bbe 33bd 20ec 323c
000001a0: d25e c1bc e3ee 03bd a8f1 a03c 21a9 203d
000001b0: a8c7 09bd 1fd7 033d b5d9 253c 34a8 62bd
000001c0: 6408 8a3c c798 2bbd e482 f6bc bf15 66bd
000001d0: 673d 593d 1a5f 51bd 82c0 f93c d4ed bebc
000001e0: 614b 84bd 6505 f4bc 89d0 af3c c8dd 0dbc
000001f0: 61e6 d3bc 87e3 8dbb 4e2b 893c a12a b23b
00000200: dfdf 00bd 04c3 033d 04c7 81bd d476 3f3d
00000210: 30aa f6bc 5416 6bbd 80d1 1bbd 026e 8abd
00000220: e9f3 19bd 8a14 eabb 4c62 77bd 09fb 78bc
00000230: 47f2 503c 9c5d 0abb f054 28bd 46bc 51bd
00000240: 7bef 5fbd e9eb 203d a662 62bd 864f 89bd
00000250: ff49 79bd fdc0 cbbc c65c 38ba 1ab3 083c
00000260: d24a 093c d051 8bbc 2b71 493a 2440 3a3c
00000270: 3451 4dbd 951a 223d b471 2c3c fbe8 363d
00000280: 5041 1e3d 0b23 bebc c2dd 62bd cba5 2e3d
00000290: 3e3f 58bc 5879 fdbc 9219 0a3c b9ad 38bd
000002a0: c764 7dbd 5a4e 5aba 155a f6bc b89a 3ebd
000002b0: 68df 3bbd 269a 243d cd03 073c 5602 10bd
000002c0: 3218 b03c d1c6 993c d5e6 093d 0a66 433d
000002d0: 952e 4a3d 1637 41bd 08e3 193b d3f8 1e3d
000002e0: 0c06 65bd 8cbe 8ebc 8f8a 1b3c 2a05 443c
000002f0: 5a6d fdbb 6d67 9b3c 61f3 653c cab2 473c
00000300: 4429 273d 691e 39bc 876f b83c 2334 f53c
00000310: e8b9 803c f70d 22bd dd48 3b3d e4ef e33a
00000320: 465a 2dbc 6d3d 253c fe05 bc3c 73a0 50bd
00000330: b838 ee3b b444 e2bb a1d7 413d 6442 ff3c
00000340: 8d72 dc3b ffb5 d8bc 6149 9bbc 738b 0ebd
00000350: e94a d63c c0d9 f2bc 5e10 71bd 24b1 59bd
00000360: cf5a f93c 6043 a83c aa2d dcbc ab21 7f3d
00000370: 95e7 6bbc be09 4fbd 329b 53bd ca5f 49bd
00000380: 7758 1d3a b802 76bd 4f2a 863c 5bd5 4d3d
00000390: 16b4 b33c 6464 2abd b1ed 55bd 93a8 1e3d
000003a0: e649 e63c 8c81 363d 7dc7 94bc ce60 603a
000003b0: f696 43bd f99c 8d3c 1a09 443c beee 4abc
000003c0: fa2a 81bd 20e3 05bc 8204 95bc e3bf c2bc
000003d0: e333 923c 02cb b33b 82b5 0f3d 9210 e9bc
000003e0: 3048 2d3b a61c 0d3b 12ae 6ebd 59dd 503d
000003f0: 6c18 c73a eb82 1c3d 34d0 043c 10d2 06bd

fc3.weight f4 [256, 256]
-0.076993376 0.00028613623 0.019813767 -0.03846366 -0.018212657 0.013312191 -0.007050325 0.0016378135
0.044587485 0.010806444 0.03522839 -0.094412096 0.051248346 -0.055754066 -0.030039508 -0.020060733
0.059609696 -0.048793346 0.04123499 0.021903558 -0.045793284 0.003427067 -0.011609372 0.019195372
-0.023779541 -0.05714332 0.020644676 0.039165504 0.057894237 -0.057439603 -0.03146571 -0.01928027
0.015500441 -0.06321338 0.025207132 -0.04757989 0.009556681 0.04538986 -0.061210763 -0.062098548
0.039820384 0.046092756 0.02828706 -0.0061532483 0.033669055 -0.0035877505 0.021513462 0.04688492
-0.07013566 0.010990629 0.017823182 -0.08129541 -0.04617835 0.042930316 -0.020131275 -0.0073556737
0.01979863 0.003867805 -0.017202199 -0.07352459 -0.03804705 -0.058148406 0.00070283614 0.02014748
0.038374737 -0.023951076 0.0011996031 -0.011281557 0.051053178 0.034460675 -0.06058927 0.006424336
-0.055232007 0.03082818 -0.055750772 0.027260467 0.027641617 -0.067790784 -0.028209344 -0.056225035
-0.010048054 -0.06163664 -0.04204251 -0.040401228 -0.034291904 0.0149992155 -0.004237123 -0.07792201
-0.05440126 0.025669666 -0.029587898 0.017061474 0.0136532085 0.019299338 -0.039576195 -0.004627677
-0.00821086 0.043984883 0.009941824 -0.0053804424 0.018741265 0.03121886 -0.030183144 -0.034150615
0.028505325 -0.023960711 -0.045156863 0.016882781 -0.016202385 0.023660915 -0.005661059 -0.027467757
-0.02661151 -0.052875496 -0.019726269 0.04917422 -0.08348472 0.0031048283 0.009792841 -0.016810946
-0.04733932 -0.025282267 -0.053284 0.037617877 0.020355614 -0.028528832 -0.029198924 0.017746858
-0.017676368 -0.070468076 -0.019446656 -0.02409392 -0.028063215 -0.010798618 0.03876111 0.05742231
-0.05635503 -0.0797127 0.007240005 -0.0012294203 -0.07376858 0.04361556 -0.0023767033 0.019460306
-0.05525747 -0.0146388775 0.054549634 0.0012566 -0.016763404 0.038876075 0.059706055 -0.05883479
-0.0122412015 0.0063134804 0.00385932 -0.012275472 -0.013786331 0.021301087 -0.049450435 -0.05390403
-0.07372365 -0.012253381 -0.02355411 0.021340607 -0.044351995 -0.021647505 -0.03387812 -0.049642973
0.013571978 -0.027161326 -0.0072220983 -0.059045166 -0.008022919 -0.04302138 0.0035780994 0.03201183
-0.06427647 0.028526135 0.032988 -0.041611083 -0.07631335 0.048023477 0.05535627 -0.008184375
-0.030305155 -0.002275124 0.06734194 -0.08115364 0.026620936 -0.04269509 0.03579335 0.0051803114
-0.0022432886 0.042856246 0.02898879 -0.0716802 -0.046879925 -0.033468634 0.0017571616 -0.0069099814
-0.07304131 -0.051483374 -0.046116736 -0.035422303 -0.110029265 0.015113115 -0.014517389 0.0064187455
-0.071558386 -0.009000981 0.0030675232 0.04510262 -0.015801882 0.021404915 0.03366919 -0.050864164
-0.031333543 0.035118528 0.05100058 -0.024134606 -0.06216384 0.039835066 0.03357085 -0.0025001988
0.033287402 -0.01983504 -0.019990887 -0.044421636 -0.05468033 0.030230306 0.05300441 0.03095057
-0.042796914 -0.04286555 -0.016783983 0.015610043 0.05015462 -0.03576656 -0.01604795 -0.06884525
0.017235737 -0.016439125 0.0172344 0.0076059983 -0.00890468 0.05073814 -0.04317787 -0.03353055
-0.006726127 0.01596682 -0.01501134 -0.027516652 0.03846403 -0.052921407 -0.045488007 -0.005898581
00000000: b4ae 9dbd 8e04 9639 7b50 a23c 128c 1dbd
00000010: b632 95bc 601b 5a3c 6a06 e7bb e7ab d63a
00000020: 5ea1 363d 830d 313c a54b 103d 215b c1bd
00000030: c9e9 513d 605e 64bd 6a15 f6bc 6856 a4bc
00000040: 4c29 743d 88db 47bd 05e6 283d 176f b33c
00000050: bd91 3bbd a598 603b 3c35 3ebc 9d3f 9d3c
00000060: 50cd c2bc 1d0f 6abd 061f a93c 026c 203d
00000070: 8222 6d3d ca45 6bbd 30e2 00bd a8f1 9dbc
00000080: 90f5 7d3c 0476 81bd 307f ce3c 21e3 42bd
00000090: a093 1c3c b8ea 393d 23b8 7abd 0c5b 7ebd
000000a0: b31a 233d c2cb 3c3d 44ba e73c 30a1 c9bb
000000b0: 90e8 093d 7720 6bbb 003d b03c 670a 403d
000000c0: 49a3 8fbd 0a12 343c ec01 923c 357e a6bd
000000d0: 8225 3dbd b3d7 2f3d 58ea a4bc dd07 f1bb
000000e0: bd30 a23c 007b 7d3b a0eb 8cbc 0f94 96bd
000000f0: 39d7 1bbd 062d 6ebd 893e 383a 540c a53c
00000100: d42e 1d3d 0c35 c4bc 003c 9d3a 48d6 38bc
00000110: 231d 513d a326 0d3d 742c 78bd 3d83 d23b
00000120: f53a 62bd 618b fc3c ec5a 64bd 5851 df3c
00000130: ac70 e23c e5d5 8abd 4817 e7bc 394c 66bd
00000140: 98a0 24bc b476 7cbd c434 2cbd c27b 25bd
00000150: ab75 0cbd 45bf 753c 90d7 8abb 9395 9fbd
00000160: dbd3 5ebd 3149 d23c 5262 f2bc 81c4 8b3c
00000170: b5b1 5f3c a519 9e3c a61a 22bd c5a3 97bb
00000180: d886 06bc 7e29 343d 08e3 223c 6c4e b0bb
00000190: 4887 993c b2be ff3c a442 f7bc 84e1 0bbd
000001a0: 0084 e93c 4149 c4bc 67f6 38bd c24d 8a3c
000001b0: ddba 84bc 89d4 c13c 6880 b9bb 1004 e1bc
000001c0: 6200 dabc fa93 58bd fc98 a1bc e86a 493d
000001d0: 09fa aabd 607a 4b3b 2772 203c 1cb7 89bc
000001e0: e0e6 41bd c21c cfbc 5340 5abd 3415 1a3d
000001f0: d1c0 a63c 4cb5 e9bc 9532 efbc dc61 913c
00000200: 08ce 90bc 9151 90bd 984e 9fbc 9d60 c5bc
00000210: d4e4 e5bc b0ec 30bc f8c3 1e3d a833 6b3d
00000220: 88d4 66bd 6940 a3bd 903d ed3b 8024 a1ba
00000230: fb13 97bd 3ba6 323d 77c2 1bbb 386b 9f3c
00000240: a855 62bd e7d7 6fbc 706f 5f3d 80b4 a43a
00000250: 6853 89bc 853c 1f3d 568e 743d c0fc 70bd
00000260: 528f 48bc 50e1 ce3b a5ec 7c3b 101f 49bc
00000270: 10e0 61bc 9e7f ae3c 8a8c 4abd 79ca 5cbd
00000280: 6dfc 96bd 68c2 48bc 8df4 c0bc 7fd2 ae3c
00000290: 70aa 35bd 1c56 b1bc c9c3 0abd 6e56 4bbd
000002a0: 005d 5e3c 6e81 debc 5aa7 ecbb 58d9 71bd
000002b0: 9072 03bc 3037 30bd 8c7e 6a3b d61e 033d
000002c0: 62a3 83bd a4af e93c 6d1e 073d 6270 2abd
000002d0: 2c4a 9cbd 44b4 443d 42bd 623d c217 06bc
000002e0: 8442 f8bc 3f1a 15bb 92ea 893d e133 a6bd
000002f0: 2614 da3c 0ce1 2ebd 0c9c 123d 9abf a93b
00000300: 2304 13bb 088a 2f3d e679 ed3c 12cd 92bd
00000310: 2a05 40bd 6816 09bd 8f50 e63a 206d e2bb
00000320: af96 95bd 3be0 52bd e7e4 3cbd fa16 11bd
00000330: 0657 e1bd 009d 773c 58da 6dbc 5754 d23b
00000340: 348d 92bd da78 13bc 8008 493b 86bd 383d
00000350: f372 81bc 5c59 af3c b4e8 093d f156 50bd
00000360: 9a57 00bd 72d8 0f3d fce5 503d f0b5 c5bc
00000370: 839f 7ebd 182a 233d 9681 093d 60da 23bb
00000380: 5f58 083d 187d a2bc eec3 a3bc 76f3 35bd
00000390: 7bf8 5fbd 8ca5 f73c 271b 593d 0d8c fd3c
000003a0: d14b 2fbd c993 2fbd 907e 89bc 44c1 7f3c
000003b0: ee6e 4d3d f57f 12bd fe76 83bc bdfe 8cbd
000003c0: f631 8d3c 58ab 86bc 282f 8d3c bd3b f93b
000003d0: efe4 11bc ccd2 4f3d 47db 30bd 5457 09bd
000003e0: d866 dcbb d9cc 823c 20f2 75bc 9a6a e1bc
000003f0: 758c 1d3d 1ec4 58bd a251 3abd e248 c1bb

fc3.bias f4 [256]
0.02982328 0.04085296 0.062875874 -0.018815815 -0.026710054 -0.012869126 -0.05061207 -0.049961437
0.010733821 -0.037081137 -0.0025085225 0.027814576 0.027200116 -0.05487713 0.030746838 0.05174284
0.06329857 0.025941508 -0.061125025 -0.05072941 -0.053124093 -0.023234745 0.037788365 0.016324535
-0.05344127 -0.0054552387 0.01960631 -0.02033154 -0.00048193336 0.008970513 0.026407974 0.008057337
-0.028169107 -0.020413458 0.02400118 0.04128691 0.079374634 -0.00514151 -0.024697203 0.058629826
-0.024587022 -0.053820014 -0.03045328 -0.0076951073 0.025110064 0.021064937 0.021652512 0.011709247
0.07484457 -0.019701954 -0.016855791 0.025323264 0.010527227 0.025523825 0.026659966 0.059848968
-0.018965768 0.042107306 -0.0019847625 0.05817484 0.017682226 -0.022451751 0.021468842 -0.0046688076
0.025040489 -0.02189229 -0.04582292 -0.019523278 -0.004541334 -0.012116627 -0.0057603503 0.043868653
0.018871767 0.0018945909 0.04566327 0.017108671 -0.03691686 0.055099793 0.049368024 -0.028864183
-0.022780403 -0.0029204264 0.042669397 0.008857253 0.022090472 0.037194617 0.059567086 -0.03554022
-0.0226825 0.042540826 0.027827565 -0.022295367 -0.0068145785 0.013051356 -0.008965455 -0.025092842
-0.0015872406 0.016515758 -0.013138363 0.04361846 0.032037508 -0.056423403 -0.050683975 -0.02538772
0.022971105 -0.042563234 -0.06455415 0.036792975 0.025624985 0.020604698 -0.024365723 -0.0045815017
-0.011179764 0.03911105 -0.049718946 0.015105447 0.044999707 -0.01777459 -0.03114002 -0.026699768
0.022954041 -0.045348827 -0.05316665 0.06207505 0.048171125 0.030090591 -0.02111651 -0.039235607
0.007830077 -0.039738655 0.03685394 -0.04356514 -0.029368073 0.016467396 0.060890228 0.022523815
0.03400966 -0.007734704 0.05008911 -0.05604075 -0.024784036 0.01287389 0.04244568 -0.05749578
0.018556537 0.027704544 -0.046667777 -0.055545114 0.0142561 -0.0193374 -0.057171542 0.0040829023
-0.06552456 0.065284826 -0.038851142 0.07278088 -0.04202033 -0.05396542 -0.055032153 0.020164609
0.036906227 -0.015108349 -0.046691433 -0.011424249 0.03856707 0.012319158 0.027575169 -0.0025715763
-0.01113222 -0.04120314 -0.045171164 -0.012133074 0.040128242 0.020360675 -0.02264618 0.032866742
-0.033137187 0.0338731 0.010827832 -0.021705166 0.058833648 0.030877283 -0.024283472 -0.021802712
-0.025215887 -0.0075099557 0.05361102 0.052986737 0.057115532 -0.038381286 0.012904294 0.047156222
0.04157155 -0.019019 0.047280956 0.05449676 -0.04914455 -0.025553904 -0.038214915 0.02994631
0.012482761 -0.020605095 -0.057966575 0.033720434 -0.022116095 -0.06383762 -0.024772534 0.035717867
0.0066987495 -0.057316944 0.042892076 -0.0419111 0.06373842 0.029270137 0.02075411 0.008428726
-0.0067271646 -0.025580686 -0.024605349 0.023894763 0.0232223 0.009613332 0.050344557 -0.000637026
-0.016278896 0.015994499 -0.03283584 0.022730136 0.017433183 -0.043614037 0.008238145 0.018138994
0.015323853 -0.025383366 -0.02331791 0.024107745 0.043862287 -0.053484127 -0.013309681 -0.01070203
0.00029087815 0.051844474 0.02263872 -0.006398702 0.049239624 -0.024401307 0.016977508 0.042548276
-0.016366255 -0.041237857 0.034661803 -0.018483665 0.013010911 0.0053479713 -0.027058005 -0.016811958
00000000: f44f f43c 6f55 273d 11c5 803d a023 9abc
00000010: 0bcf dabc 07d9 52bc 9a4e 4fbd 5da4 4cbd
00000020: e9dc 2f3c 64e2 17bd 0666 24bb 65db e33c
00000030: c7d2 de3c d7c6 60bd cbe0 fb3c 4df0 533d
00000040: aea2 813d 4983 d43c 3c5e 7abd a4c9 4fbd
00000050: a698 59bd cb56 bebc f9c7 1a3d 08bb 853c
00000060: 3ce5 5abd dcc1 b2bb 6a9d a03c 548e a6bc
00000070: 00ac fcb9 0ff9 123c 8955 d83c ec02 043c
00000080: e6c2 e6bc 203a a7bc 1f9e c43c 771c 293d
00000090: 2b8f a23d 1d7a a8bb ca51 cabc d425 703d
000000a0: b96a c9bc 6072 5cbd 2879 f9bc 3d27 fcbb
000000b0: 9fb3 cd3c 6090 ac3c 9c60 b13c 24d8 3f3c
000000c0: 1c48 993d fe65 a1bc 2815 8abc bc72 cf3c
000000d0: 647a 2c3c 5717 d13c 0066 da3c 3124 753d
000000e0: 195e 9bbc b678 2c3d ca12 02bb be48 6e3d
000000f0: 51da 903c bcec b7bc 6ddf af3c ccfc 98bb
00000100: b621 cd3c 7657 b3bc d0b0 3bbd 48ef 9fbc
00000110: 79cf 94bb d184 46bc 52c1 bcbb 9eaf 333d
00000120: f798 9a3c ec53 f83a 6909 3b3d 7c27 8c3c
00000130: 2236 17bd 52b0 613d 2036 4a3d 9474 ecbc
00000140: f89d babc a064 3fbb 1bc6 2e3d 031e 113c
00000150: 14f7 b43c 6259 183d 9efc 733d 9f92 11bd
00000160: a6d0 b9bc 4a3f 2e3d a2f6 e33c c6a4 b6bc
00000170: d44c dfbb 5bd5 553c d8e3 12bc 818f cdbc
00000180: f50a d0ba 0e4c 873c 4a42 57bc 45a9 323d
00000190: c339 033d 3a1c 67bd 009a 4fbd e8f9 cfbc
000001a0: e62d bc3c c956 2ebd f734 84bd 3bb4 163d
000001b0: 7deb d13c 2fcb a83c a09a c7bc 6c20 96bb
000001c0: 542b 37bc e932 203d 18a6 4bbd d67c 773c
000001d0: 9d51 383d 049c 91bc 5b19 ffbc 79b9 dabc
000001e0: 1d0a bc3c b1bf 39bd 46c5 59bd 6842 7e3d
000001f0: 164f 453d 8b80 f63c 88fc acbc 84b5 20bd
00000200: b949 003c 00c5 22bd 28f4 163d 5c71 32bd
00000210: 5095 f0bc a2e6 863c 0868 793d dd83 b83c
00000220: b74d 0b3d 6673 fdbb 3d2a 4d3d fc8a 65bd
00000230: e407 cbbc 02ed 523c 85db 2d3d b280 6bbd
00000240: e103 983c a4f4 e23c b626 3fbd 4683 63bd
00000250: 6b92 693c 7869 9ebc b52c 6abd dec9 853b
00000260: be31 86bd 0db4 853d 6022 1fbd 240e 953d
00000270: 821d 2cbd d80a 5dbd 6569 61bd 4030 a53c
00000280: fc2a 173d 0289 77bc 843f 3fbd c62c 3bbc
00000290: 81f8 1d3d 4bd6 493c 52e5 e13c e487 28bb
000002a0: ea63 36bc a0c4 28bd 6605 39bd cdc9 46bc
000002b0: 835d 243d 6ecb a63c 7b84 b9bc 479f 063d
000002c0: dcba 07bd 85be 0a3d 3867 313c 08cf b1bc
000002d0: 8dfb 703d 5bf2 fc3c 22ee c6bc 9a9b b2bc
000002e0: 8c91 cebc 1316 f6bb 3b97 5b3d 9f08 593d
000002f0: faf1 693d b235 1dbd 886c 533c e226 413d
00000300: ee46 2a3d bccd 9bbc ada9 413d ff37 5f3d
00000310: cc4b 49bd 6c56 d1bc 3e87 1cbd f751 f53c
00000320: 7f84 4c3c 04cc a8bc 5c6e 6dbd 701e 0a3d
00000330: d02c b5bc 4cbd 82bd c5ef cabc e64c 123d
00000340: 2f81 db3b 2cc5 6abd 9aaf 2f3d f9aa 2bbd
00000350: 4a89 823d edc7 ef3c 8604 aa3c a418 0a3c
00000360: 8c6f dcbb 968e d1bc 2891 c9bc f3be c33c
00000370: b13c be3c 3d81 1d3c 1836 4e3d 17fe 26ba
00000380: 525b 85bc e506 833c e07e 06bd 8d34 ba3c
00000390: 09d0 8e3c a2a4 32bd 49f9 063c 3a98 943c
000003a0: e610 7b3c c7f0 cfbc 3405 bfbc 9b7d c53c
000003b0: f1a8 333d 2c12 5bbd d910 5abc 9157 2fbc
000003c0: 0181 9839 df5a 543d d674 b93c 34ac d1bb
000003d0: 7daf 493d 40e5 c7bc 6a14 8b3c 1a47 2e3d
000003e0: 8612 86bc 07e9 28bd 89f9 0d3d 0e6b 97bc
000003f0: b72b 553c 093e af3b c0a8 ddbc 3bb9 89bc

fc4.weight f4 [2, 256]
-0.034166057 -0.005052739 0.038039185 -0.062228955 0.018652514 -0.0005485429 0.058194064 -0.0059072785
-0.035077572 -0.02417446 0.037998334 0.050313264 0.08052852 -0.028842308 0.04046853 0.04731197
0.031365935 -0.00914419 0.035843443 0.028626539 0.05907491 -0.030352121 -0.05472027 0.06303138
0.0030706823 0.061186995 0.0698514 -0.013181384 -0.03986256 0.02885369 0.029692488 -0.00045448064
0.012520837 0.00516089 0.08767756 0.022384556 0.06730103 0.011874836 0.038050182 0.010041234
-0.04745571 0.028615236 0.04643197 -0.021612197 -0.027665127 -0.08043727 -0.03735624 -0.013248248
0.060126517 0.0022730096 0.03747362 -0.027110508 0.071149565 -0.037824832 0.020454235 0.05753184
-0.036000367 0.02250631 -0.005269065 0.058716923 0.06732339 0.022859499 -0.051615432 0.060352333
-0.021772506 -0.028250635 0.025943533 -0.032805175 -0.0028369192 -0.047878392 -0.037226014 0.05807251
-0.04138943 -0.053990223 0.038038727 -0.018675543 0.0351767 -0.028594617 0.060019832 0.047336742
-0.05684778 -0.011083946 -0.003447633 0.050489593 -0.03921472 -0.0033666282 -0.030654693 -0.018478382
0.003598123 -0.026748965 -0.05026753 0.045493465 -0.014241506 0.0011150272 -0.0056491047 -0.04866048
-0.01770773 -0.052008796 0.029688414 0.02178177 -0.017372748 -0.023445198 -0.03781981 -0.037545905
-0.081603885 -0.0017213933 0.04608965 0.06770814 0.044708375 -0.061811022 0.022704229 -0.04603355
-0.003725938 0.055801157 0.0324149 -0.014839887 0.039561912 -0.023162235 -0.007411037 -0.009535589
0.043818224 0.046027258 -0.022839673 0.065681495 0.03593158 -0.044373855 -0.059244923 -0.01578293
0.046650156 -0.018738436 -0.020627221 0.008723512 0.031687096 0.05532272 0.046135146 0.035038996
-0.045839384 0.014606044 -0.016108127 0.060157165 -0.0012773987 0.020018624 -0.035959024 -0.033621363
-0.0029969863 -0.05225406 -0.0408184 0.008726068 0.0076113925 -0.058299143 0.03132171 -0.037215214
0.014257188 0.04321991 0.010328351 0.06415942 -0.042150296 -0.03260994 -0.056883782 -0.047059484
-0.034217216 -0.11103047 -0.00857272 -0.035258625 0.06694379 0.04478822 -0.047400374 -0.06645364
-0.037075873 -0.016646286 -0.058738783 -0.049853552 0.035657816 -0.025231652 0.04308281 -0.021017995
-0.01535105 0.029190555 -0.026298208 0.03647992 -0.0005920428 0.017367894 -0.050195534 0.041434668
0.011406224 0.0066065225 0.050179355 0.007244315 0.03934295 -0.036685742 0.021560483 -0.07816752
0.09265756 -0.16388163 0.05637213 0.036587343 0.051293254 -0.006410596 0.114216164 0.05856925
0.063533604 -0.061335698 0.03306248 0.034502942 0.03453505 0.048568796 0.04053249 -0.03181518
-0.047749348 0.026126117 0.05680386 -0.06146929 0.0365092 0.042277988 -0.019036891 -0.06367741
0.04026799 -0.0238412 0.06159374 0.023967203 -0.06733682 -0.02990284 0.04912829 -0.028163217
-0.011328919 0.047895424 -0.055081055 0.0107626375 0.012742305 -0.05200979 0.015794178 -0.026060723
-0.0008520589 0.04396974 -0.057930097 0.06414172 -0.041500613 -0.04371392 -0.04616226 -0.04089955
-0.06246122 0.065341815 -0.049002603 0.03626346 0.09571759 0.056876704 -0.034884002 0.07733865
0.014251864 -0.055621974 0.022361387 -0.008933651 -0.03753814 -0.02716267 0.006316647 -0.026705677
00000000: b5f1 0bbd 7291 a5bb face 1b3d cae3 7ebd
00000010: 28cd 983c 17cc 0fba e65c 6e3d d891 c1bb
00000020: 80ad 0fbd 8409 c6bc 24a4 1b3d 4815 4e3d
00000030: 23ec a43d b446 ecbc 54c2 253d 32ca 413d
00000040: 9179 003d 83d1 15bc 93d0 123d 3482 ea3c
00000050: 88f8 713d 03a5 f8bc 5d22 60bd 9916 813d
00000060: 803d 493b 379f 7a3d 400e 8f3d bbf6 57bc
00000070: ec46 23bd 935e ec3c a93d f33c 5c47 eeb9
00000080: 3224 4d3c af1c a93b 4b90 b33d d15f b73c
00000090: 1fd5 893d ac8e 423c 82da 1b3d fd83 243c
000000a0: eb60 42bd 806a ea3c 732f 3e3d 100c b1bc
000000b0: faa1 e2bc 4cbc a4bd db02 19bd 2e0f 59bc
000000c0: 3947 763d c6f6 143b f07d 193d db16 debc
000000d0: ddb6 913d 36ee 1abd a48f a73c 82a6 6b3d
000000e0: 1f75 13bd 275f b83c 1fa8 acbb 2881 703d
000000f0: d8e0 893d d843 bb3c b46a 53bd 0234 773d
00000100: 415c b2bc e06d e7bc 8887 d43c b85e 06bd
00000110: 9beb 39bb 221c 44bd 4e7a 18bd 71dd 6d3d
00000120: f787 29bd da24 5dbd 7fce 1b3d 74fd 98bc
00000130: 7215 103d 423f eabc 5bd7 753d 2ce4 413d
00000140: 38d9 68bd 7099 35bc aff1 61bb 2dce 4e3d
00000150: 9d9f 20bd a6a2 5cbb 8d1f fbbc fa5f 97bc
00000160: 7dce 6b3b a520 dbbc 53e5 4dbd 5b57 3a3d
00000170: 3555 69bc 1b26 923a 201c b9bb 3650 47bd
00000180: cd0f 91bc 2d07 55bd 1e35 f33c af6f b23c
00000190: 4b51 8ebc 2510 c0bc f2e8 1abd bcc9 19bd
000001a0: f01f a7bd 60a0 e1ba 80c8 3c3d 91aa 8a3d
000001b0: 2120 373d 8e2d 7dbd 38fe b93c ad8d 3cbd
000001c0: de2e 74bb c18f 643d 7cc5 043d ff22 73bc
000001d0: ac0b 223d babe bdbc 49d8 f2bb 293b 1cbc
000001e0: bd7a 333d 1487 3c3d 441a bbbc 0584 863d
000001f0: fe2c 133d 5cc1 35bd ceaa 72bd 344b 81bc
00000200: 3c14 3f3d 5981 99bc 6bfa a8bc 10ed 0e3c
00000210: 54ca 013d 149a 623d 35f8 3c3d 0d85 0f3d
00000220: 14c2 3bbd 304e 6f3c 31f5 83bc 5c67 763d
00000230: 636e a7ba 19fe a33c c549 13bd 8eb6 09bd
00000240: 1669 44bb 5a08 56bd 3231 27bd c8f7 0e3c
00000250: fd68 f93b 15cb 6ebd 324b 003d fb6e 18bd
00000260: fb96 693c 5c07 313d 3e38 293c 0466 833d
00000270: caa5 2cbd 0092 05bd f8fe 68bd 72c1 40bd
00000280: 5a27 0cbd f163 e3bd 9874 0cbc 596b 10bd
00000290: d319 893d da73 373d e526 42bd d918 88bd
000002a0: dfdc 17bd cb5d 88bc 1498 70bd 3d33 4cbd
000002b0: ee0d 123d 9cb2 cebc 9a77 303d ee2d acbc
000002c0: f882 7bbc 0821 ef3c 576f d7bc f86b 153d
000002d0: 5233 1bba 1d47 8e3c d599 4dbd 66b7 293d
000002e0: 2ce1 3a3c 877b d83b de88 4d3d b861 ed3b
000002f0: 1326 213d ca43 16bd 9c9f b03c 4b16 a0bd
00000300: 3fc3 bd3d 96d0 27be 76e6 663d 9cdc 153d
00000310: e018 523d fa0f d2bb 2aea e93d 4fe6 6f3d
00000320: e81d 823d 243b 7bbd 866c 073d f552 0d3d
00000330: a074 0d3d 13f0 463d 6505 263d a250 02bd
00000340: d294 43bd 7006 d63c 2aab 683d 39c7 7bbd
00000350: ac8a 153d af2b 2d3d 41f3 9bbc 4d69 82bd
00000360: 0cf0 243d 9f4e c3bc b849 7c3d de56 c43c
00000370: e3e7 89bd cdf6 f4bc bf3a 493d 8cb6 e6bc
00000380: ee9c 39bc fe2d 443d ac9c 61bd c655 303c
00000390: 1ac5 503c 3808 55bd cb62 813c 4c7d d5bc
000003a0: b45c 5fba 9d19 343d 1c48 6dbd bc5c 833d
000003b0: 8cfc 29bd 5e0d 33bd a314 3dbd 4986 27bd
000003c0: 56d7 7fbd eed1 853d f4b6 48bd fe88 143d
000003d0: 9507 c43d 8cf7 683d 87e2 0ebd ba63 9e3d
000003e0: a680 693c ded3 63bd 3a2f b73c 735e 12bc
000003f0: 98c1 19bd 3f84 debc e0fb ce3b ddc5 dabc

fc4.bias f4 [2]
0.014558085 0.0039468925
00000000: 0985 6e3c ef54 813b
