ann_pitched.pth (torch, 573552 bytes, 8 tensors)

fc1.weight f4 [256, 40]
000000 fc 3c ae bd a8 c9 b5 bc c4 99 75 3d 59 62 1a 3e
       -0.085077256 -0.022190884 0.059961095 0.15076579
000010 8a fd 92 3d 50 20 0c be 3f e2 f7 bd 51 0b 19 be
       0.07177265 -0.13684201 -0.121037 -0.14945723
000020 3e 21 ac 3d f7 a1 e9 bd 22 4e b7 3d 67 63 e1 bd
       0.08404778 -0.114078455 0.089504495 -0.110052876
000030 80 07 12 bd 7d 39 80 bd a8 0e 30 3d 3e 62 86 bd
       -0.035651684 -0.06260965 0.042982727 -0.06561707
000040 a0 e3 fb 3c d9 ed 05 be 6c cd 0f 3d 72 2a c0 3d
       0.030748188 -0.13079013 0.035108015 0.09383096
000050 98 87 a7 3d 70 4c 3c bc 14 7f a7 3d f2 fd e2 bd
       0.08180159 -0.0114928335 0.08178535 -0.110835925
000060 d5 08 00 3e 42 6e e9 3d 56 a5 e7 3d 2d 63 11 3e
       0.12503369 0.11397983 0.11310832 0.14197989
000070 65 59 1f be 4f 47 01 3e 20 c5 19 3d c0 1f 4b 3b
       -0.15561445 0.12624858 0.03754151 0.0030994266
000080 aa 8d e4 3d b4 82 1c 3d e0 d2 06 be af 71 14 be
       0.11159833 0.038210586 -0.1316638 -0.14496492
000090 2a 2b cf 3d b0 26 8f bd 10 4e ef bd 31 b8 1c be
       0.10115655 -0.06989801 -0.11684811 -0.15304638
0000a0 1e 5b 2c be 59 e2 28 be 33 13 43 be f5 e6 b2 3c
       -0.16831633 -0.16492595 -0.19050293 0.021838645
0000b0 0d 91 61 3d 3d e3 0a be 07 ae dc 3d b5 d8 22 3d
       0.05506997 -0.13563247 0.107753806 0.03975745
0000c0 57 b5 fd 3d 6b 6c a8 3d 03 c7 7a 3d 74 34 2c bd
       0.123881035 0.08223804 0.06122495 -0.04204221
0000d0 c2 4a fc 3b 6f e3 24 3e 25 3d 58 bd ba 36 bc bd
       0.0076993415 0.16102384 -0.052792687 -0.09190126
0000e0 50 71 99 3c 01 9f ef bd 23 ae 49 3d fb 5d e1 bd
       0.01873079 -0.117002495 0.049238335 -0.110042535
0000f0 4c f8 cc bd cf fe 31 3c 1b 27 19 3c 4b 29 85 bb
       -0.10008296 0.010863974 0.009347702 -0.0040637604
000100 e7 19 a3 bc bd 0f bf bd 86 0e 30 3d 79 51 b0 bd
       -0.019909812 -0.09329174 0.0429826 -0.0860929
000110 31 7c db bc 95 b2 08 bd cd 9b d9 bd dd e4 99 bd
       -0.026792618 -0.033373434 -0.1062542 -0.07514355
000120 a4 43 6c bd 09 ea 53 bd c5 32 a1 bb 45 41 01 be
       -0.057681695 -0.051736865 -0.0049193823 -0.12622555
000130 98 e1 0d bc 33 8c 1c 3d 89 5e f9 3c 5a 97 92 3d
       -0.008659743 0.038219642 0.030440586 0.07157774
000140 92 78 29 be b8 55 13 3e ad d7 28 bd a3 1b 46 bd
       -0.165499 0.14388168 -0.04122131 -0.0483662
000150 de 4b 0d 3e 10 ce 24 bd be 1a cc 3d 4f 45 2c be
       0.13798472 -0.04023558 0.09966038 -0.16823314
000160 32 64 2c bb 65 61 04 bd be 2c 22 3d 52 c3 8d 3d
       -0.0026304838 -0.032319445 0.03959345 0.0692202
000170 f3 7c 0e 3e 03 2c 8d 3c 02 58 ea 3d 2f c5 0b 3e
       0.13914852 0.0172329 0.114425674 0.13649438
000180 dd 00 a6 bd 80 e0 29 3d c1 37 eb bd 9e 29 cf bd
       -0.081056334 0.041473866 -0.114852436 -0.1011536
000190 69 5c ce bd e9 66 0d bc e0 3a ed 3d 89 65 8a 3c
       -0.100762196 -0.008630493 0.11583495 0.016894119
0001a0 c2 80 31 bd ee 11 e0 bc 31 df f6 3d f5 64 cb bd
       -0.043335684 -0.0273523 0.12054289 -0.099313654
0001b0 38 d3 82 bd 6a e7 10 be fd 1a 12 be 31 91 e8 bd
       -0.06387943 -0.14150777 -0.14268108 -0.11355818
0001c0 55 8a a7 3c 49 f0 07 be 45 7f c0 3d b9 fa 1b be
       0.020451704 -0.13275255 0.09399275 -0.15232362
0001d0 16 b1 1e be ee 16 85 3d a1 df a1 3d 48 b7 1e 3e
       -0.1549724 0.06498514 0.07903982 0.15499604
0001e0 5b ae 1e be a6 ae ff 3d 31 9f 25 3e af c5 c9 3b
       -0.15496199 0.124844834 0.16174008 0.006157599
0001f0 48 70 c6 3d 99 40 3a be 3d 61 86 3d f9 06 a3 bd
       0.09689385 -0.18188705 0.065615155 -0.07960314
000200 51 9d a7 3d b0 a2 8f bd 37 c8 2c be 56 46 1b be
       0.081843026 -0.07013452 -0.16873251 -0.1516355
000210 2c 5c 9e bc 92 8b f4 3c fb 34 04 bd f1 57 fa bd
       -0.01933106 0.029851709 -0.03227709 -0.12223805
000220 d9 57 a9 bd a3 09 f8 3d 4c 4d 03 be 2d 2d b0 3c
       -0.08268709 0.12111213 -0.12822455 0.021505916
000230 32 c5 17 bd a7 33 91 bc 19 8a 1e bd 90 09 c6 bd
       -0.037053294 -0.017724825 -0.03870592 -0.09669793
000240 6f d3 f3 3d ed 6e 7e 3d e1 d4 e9 3c 42 d1 02 3d
       0.11905562 0.062117506 0.028543891 0.031937845
000250 4f 3b 4b 3d df d0 81 3d d0 7c 9a 3d a1 9e 16 bd
       0.049617108 0.06338667 0.07543337 -0.036772374
000260 74 46 6f bd 46 2c c6 3d d5 0e 1c 3c 05 9b 0b be
       -0.0584168 0.09676413 0.009525021 -0.13633354
000270 4b e2 59 3d 5d 87 8d 3c 0c 40 32 3d ca ad a9 bd
       0.053194325 0.01727646 0.04351811 -0.08285101
000280 ac b3 06 3e 30 00 58 3d e5 ec 5d bd 53 1d ad bd
       0.13154477 0.052734554 -0.054181 -0.08452859
000290 1e cb e6 3d c2 35 5a bc 65 1c 3c bb 12 ce b1 3a
       0.1126921 -0.013318481 -0.0028703448 0.0013565442
0002a0 11 4b a1 bc 30 6b 83 3d 47 08 e9 3d d9 b2 03 be
       -0.019689115 0.06416929 0.11378532 -0.12861194
0002b0 54 4d 11 3e 3b 91 19 3e 42 b3 c0 3d bd 09 5b bd
       0.14189655 0.14996807 0.09409191 -0.053476084
0002c0 70 1f 0c be 3c a7 d3 bd fb 1d 80 3d 54 50 e0 bc
       -0.13683867 -0.10334632 0.06255718 -0.027382053
0002d0 97 ba 4b 3e c4 76 d9 3d 8f 2b 64 bd 21 48 b7 3d
       0.19895397 0.10618356 -0.055705603 0.08949304
0002e0 71 c4 af 3d 0a d5 f9 bd 0f 73 ab bb 48 a8 74 3d
       0.0858239 -0.12198837 -0.005232222 0.059730798
0002f0 3d 01 49 3d 9f e2 ea bd 12 e8 05 3e 53 86 18 be
       0.049073447 -0.11469006 0.13076809 -0.1489499
000300 67 08 b1 bd 3f 92 a4 bd 6d 83 4b bd 73 53 1b bd
       -0.08644181 -0.08035707 -0.049685884 -0.03792138
000310 ca 5e 96 3d a1 11 67 3d 41 1b e7 3d b4 af 2f 3a
       0.07342298 0.056413297 0.11284495 0.0006701902
000320 18 99 07 be 38 ef 39 bd 33 a4 d1 bd a0 99 a6 bb
       -0.13241994 -0.045394152 -0.10236397 -0.0050842315
000330 00 f7 50 bb 74 2c ec bd d1 89 11 3e 9e d8 ec 3d
       -0.0031885505 -0.11531916 0.14212729 0.11564754
000340 c9 72 15 be be 7c 39 bd 68 33 44 3d d6 fc 6a bd
       -0.14594568 -0.04528498 0.047900587 -0.05737003
000350 da 00 c6 bd 06 54 25 bd 80 66 ad bc 20 ac c6 3c
       -0.09668131 -0.040363334 -0.02116704 0.024251997
000360 0e 33 d8 bd 62 cc cb 3d a0 08 61 3c f3 20 17 3e
       -0.10556613 0.09951092 0.0137349665 0.14758663
000370 b6 f7 11 be 12 89 ad bd 30 dd 11 3c 80 28 56 bc
       -0.1425465 -0.0847341 0.008902833 -0.013071179
000380 62 ef e3 bd 78 01 b0 bc e4 91 ee bd 40 ed f6 bb
       -0.11129643 -0.021485075 -0.1164892 -0.0075356066
000390 47 a3 92 bd b8 1e ef bd 1b c3 07 be ab fb 0d be
       -0.07160049 -0.11675781 -0.1325802 -0.13865535
0003a0 3a c5 a4 3d d1 d5 13 3e 6a 53 e8 bd 5c 60 14 be
       0.080454305 0.14437033 -0.11344035 -0.14489883
0003b0 24 77 25 bd 38 e6 80 bd 10 fd 16 be c0 1b 7f bb
       -0.040396824 -0.06293911 -0.14744973 -0.0038926452
0003c0 a5 a4 ea bd fc 1e c4 3d 6e 0c 35 3e 66 29 b5 3d
       -0.11457185 0.09576222 0.17680523 0.08845787
0003d0 5e 8c c6 3d 6d 12 b9 bd 06 61 aa 3d 9e 1a 0e be
       0.09694742 -0.090367176 0.08319287 -0.13877341
0003e0 8a 42 a1 bc ed 08 78 bc 97 cb 0f 3d 7e be b6 bc
       -0.019685049 -0.015138847 0.035106268 -0.02230763
0003f0 de 01 3e 3d 05 5e 14 3e 70 40 3d 3a d7 46 bd bd
       0.0463885 0.1448899 0.000721938 -0.09242027

fc1.bias f4 [256]
000000 e8 01 03 be 39 30 9d 3d 17 9f 46 3d df fa e1 3d
       -0.12793696 0.07675213 0.048491564 0.11034178
000010 ef 66 dd bd ca 7e 41 bd 75 03 7f 3c 66 ef e3 bd
       -0.10810649 -0.047240056 0.015564789 -0.11129646
000020 00 98 be bb 6e b2 6b bd 83 e9 fb bd 7a 49 44 bc
       -0.0058164597 -0.05754321 -0.12300398 -0.011980409
000030 d6 8c 74 bd ee 11 e4 bd a2 17 d4 bd 92 37 05 3d
       -0.059704624 -0.11136232 -0.1035607 0.0325237
000040 08 06 3e 3b ff 66 19 be e0 09 ad bd 5b 9a 34 bc
       0.0028995294 -0.14980696 -0.08449149 -0.011023129
000050 16 84 d4 3d 64 e8 e7 bd d8 29 f5 bd 54 1a 1c be
       0.10376756 -0.11323622 -0.11970872 -0.15244418
000060 56 85 8a bb f5 2c a5 3d be b1 c3 3d 83 6d aa bd
       -0.0042273207 0.080652155 0.09555386 -0.08321669
000070 8f 0e 05 3e 68 c1 43 be e2 bb 3c bd 96 0a 44 bc
       0.12993835 -0.19116747 -0.046077617 -0.0119654145
000080 db 5a 87 3c 88 58 0b 3d 2d 7d cb 3d 35 bc 38 bc
       0.016522815 0.034019977 0.09935985 -0.011275341
000090 f3 55 c3 3d 57 46 00 be f5 31 b8 3d 5d 1c d7 3d
       0.09537878 -0.12526833 0.089939035 0.10503457
0000a0 91 76 35 be d4 23 eb bd f4 7e 1e be b3 e6 64 bd
       -0.1772101 -0.11481443 -0.15478116 -0.055884074
0000b0 a8 9c 0a be 53 ec f1 3d b1 4a b6 bc a9 36 f1 bc
       -0.13536322 0.118126534 -0.022252413 -0.02944501
0000c0 ad 8f 9a 3d 82 6c d1 ba 2a 42 2c 3d 49 47 d0 bd
       0.07546935 -0.0015977772 0.042055286 -0.101698466
0000d0 a9 af cc 3b ef fe b8 3d 57 94 12 3e 0a 00 68 bc
       0.0062465263 0.09033 0.143144 -0.014160166
0000e0 0c e7 dd bd 49 6b 2d 3d b0 7c af 3d 37 77 be 3d
       -0.10835084 0.042338643 0.08568704 0.09300082
0000f0 92 43 f7 bd 08 e8 36 be 4f 3d bf 3d 33 b2 43 bd
       -0.12073435 -0.1786195 0.093378656 -0.047777366
000100 57 ae 45 3b 99 bd 08 be 27 bf c7 3c a1 93 aa 3d
       0.003016373 -0.13353576 0.02438314 0.08328939
000110 ed 35 11 3e 81 16 72 bd dd 8e 4e 3d 8e 84 e4 bd
       0.14180727 -0.059103493 0.050429214 -0.11158095
000120 20 bf 0f be 5d c9 1b be c6 74 f4 bd c3 c1 70 bc
       -0.14037752 -0.15213533 -0.11936335 -0.014694634
000130 a3 18 22 3d c0 c5 ec bd 83 fe cd 3d a1 1c e8 bd
       0.039574277 -0.11561155 0.1005831 -0.113335855
000140 aa be 83 bc a3 c4 45 bd 5d ea 7e 3d c5 11 77 3d
       -0.016082127 -0.04828323 0.062235225 0.06031968
000150 97 2c a1 bb b8 54 a3 bd 65 96 bd 3d 48 70 1d 3d
       -0.0049186456 -0.07975143 0.09257201 0.038437158
000160 e0 0d cd 3d af 74 82 bc e2 52 be bd 2b 57 10 be
       0.10012412 -0.01592478 -0.092931524 -0.14095752
000170 6a b5 6b bd 38 66 84 bd ec 61 75 ba 93 10 fa bd
       -0.057546057 -0.06464809 -0.00093606 -0.122101925
000180 bf 49 fb bc 51 53 b2 bc bd 18 9a 3b 52 f2 83 3d
       -0.030674813 -0.021768244 0.004702656 0.06442703
000190 a0 ca 94 bd ea 21 f7 3d f6 63 cc bd 4f 64 c8 3d
       -0.0726521 0.120670155 -0.099800035 0.09784757
0001a0 dc e9 df 3d cf 57 8d bd ac 0d 57 bd 91 a3 02 be
       0.10933277 -0.06901514 -0.052503273 -0.12757708
0001b0 5d 8c 8c 3d be 6b f9 bd 45 95 18 be b0 0c 78 bd
       0.0686271 -0.12178753 -0.14900692 -0.060558975
0001c0 8f a4 b2 3c 5d 3d 30 3d 68 ac f4 bd c0 1e e6 3c
       0.021806983 0.04302727 -0.119469464 0.028090835
0001d0 3c 8a 01 3d 0a 89 ed bc f1 40 92 3d c8 fc 2c 3d
       0.03162597 -0.02899601 0.07141293 0.04223326
0001e0 97 9c 7f 3d e9 ea 01 3e 27 63 a0 3b 84 f5 a3 bd
       0.062405195 0.12687267 0.0048946324 -0.08005813
0001f0 3b 3f dd 3c 8a 42 d3 b9 b5 47 05 be 93 bf 78 bc
       0.02700769 -0.00040294632 -0.13015635 -0.015182394
000200 fe 77 fc bd a0 81 9a bc f9 0b 8d bd ac 23 8c bd
       -0.12327574 -0.018860638 -0.06887049 -0.06842741
000210 2d 1d 82 3d df 79 a2 bd eb 98 0f 3d e9 da 93 3d
       0.06353221 -0.07933401 0.035057943 0.07219488
000220 97 29 ab bd 8a 40 01 3c 6a 3c e2 bd 96 3d e0 bd
       -0.08357542 0.0078889225 -0.11046679 -0.109492466
000230 87 ee 93 3d ad b9 b0 bd 2d 7c 82 bd 71 0d e5 3d
       0.0722323 -0.08629165 -0.06371341 0.11184204
000240 70 6e e9 bc a8 56 87 3d 81 5e 62 3d 2b 78 9b 3d
       -0.028495044 0.06608325 0.055265907 0.075912796
000250 65 a4 a2 bd da eb 10 ba 62 f7 13 be d8 e0 ea 3c
       -0.07941512 -0.00055283087 -0.14449838 0.028671667
000260 6a fb 03 bc 8a a3 c7 bc e9 d5 17 be 38 b0 d3 bd
       -0.008055547 -0.024369974 -0.14827694 -0.103363454
000270 fe 4b d3 bd a3 c3 a3 bb 4b f5 28 be 8f 0b 88 bd
       -0.10317229 -0.004997687 -0.16499822 -0.066428296
000280 c4 6b fa bd 16 77 71 3d 22 8a 11 bd f4 83 3b be
       -0.12227586 0.05895146 -0.035532124 -0.18312055
000290 48 ca dc 3d 42 10 35 bd b1 83 bc 3d 40 73 51 bc
       0.107807696 -0.044204958 0.09204806 -0.012783825
0002a0 e1 b1 bd 3d 54 61 8a bd a8 26 f9 bd c0 6d 51 3d
       0.09262443 -0.06756845 -0.12165576 0.051130056
0002b0 c0 69 fa bb b0 27 06 bd f8 ff 85 3d d8 b3 c8 3d
       -0.007642001 -0.032752693 0.06542963 0.097999275
0002c0 97 f9 aa bd ae a8 b1 bd 54 02 86 bd 93 ea 91 bc
       -0.08348387 -0.08674751 -0.06543413 -0.017812049
0002d0 11 68 ac bc a3 f9 8d 3d da 2c 82 bd 2c 77 00 be
       -0.021045716 0.0693238 -0.06356211 -0.1254546
0002e0 d6 53 ee bd ae 7c 01 be 82 72 0d 3b 48 17 92 bc
       -0.11637084 -0.12645218 0.0021583145 -0.017833367
0002f0 2a 4e 5d bd db 1c b3 3d be bd df 3d 4a 29 54 3d
       -0.05402962 0.08745738 0.10924862 0.05179719
000300 77 4f b8 3d ad 02 93 bc 71 61 cb 3c 9d ad 65 bc
       0.08999532 -0.017945612 0.024826737 -0.014018443
000310 78 32 18 be ff 4b 30 bd 92 24 b0 bd a3 ef 26 bd
       -0.14863002 -0.043041226 -0.08600725 -0.04075588
000320 05 b6 62 3d c6 fb ba bd 7f 4f 8a bd b3 54 17 be
       0.05534937 -0.09130053 -0.06753444 -0.14778404
000330 7d c1 a3 3d 13 d7 fa 3c 16 5d 67 bd 12 c9 b6 3d
       0.07995889 0.030620134 -0.056485258 0.0892507
000340 88 43 0f 3c c2 bc a7 bb 1e 0f de 3b e0 52 98 3d
       0.008744128 -0.005118937 0.0067767045 0.07437682
000350 5b c7 af bc a9 9c 97 bd 88 77 e3 bd 15 7d 89 bd
       -0.021457365 -0.074029274 -0.11106783 -0.06713311
000360 df e7 a7 bd f4 ae 96 bc dd a9 2c 3d 3b 1e a4 3d
       -0.08198523 -0.018393971 0.04215418 0.080135785
000370 a0 3d bd 3c b8 50 6f 3d 5d bb 15 3d f2 e2 eb 3d
       0.023100674 0.05842659 0.036555637 0.11517896
000380 6f 67 89 bd 0f a3 13 be b5 78 13 be 19 14 49 bd
       -0.067091815 -0.1441767 -0.14401515 -0.049091432
000390 e1 38 f1 bc d0 ff c8 3a 7f 58 b8 3b 1b c5 94 3d
       -0.029446067 0.0015335027 0.005625784 0.072641574
0003a0 72 8f 87 3d 7e 75 cc 3d b4 bf 1a bd d2 e4 18 be
       0.06619157 0.09983347 -0.03778048 -0.14931038
0003b0 e8 c2 39 bc 80 aa a3 3d f5 3b c2 3d d2 49 1b bd
       -0.011337973 0.07991505 0.09484092 -0.037912197
0003c0 78 ac 97 bc 5c 9c bf 3d bf 62 f7 3c 69 2d 4a 3d
       -0.018514857 0.09355995 0.030198453 0.049359713
0003d0 41 94 01 be d0 b1 0c bd df 81 96 bd 97 ab ab 3d
       -0.1265421 -0.034349263 -0.0734899 0.083823375
0003e0 d1 17 98 3d 28 33 8b 3d 2d a7 52 bd 74 3d c3 3c
       0.074264176 0.06796867 -0.051428962 0.023833014
0003f0 3f 6d 46 3d 67 18 e5 bd 1a 6b 3e bd 0e 61 e8 bd
       0.04844403 -0.11186295 -0.04648886 -0.11346637

fc2.weight f4 [256, 256]
000000 c0 81 b2 ba dc e9 25 3d 47 57 60 3d 94 73 df 3c
       -0.0013618991 0.04050623 0.054770734 0.027276792
000010 d3 f6 ea 3c 7e be 3e 3d 0d 04 87 bd 71 4e 86 bc
       0.028682148 0.046568386 -0.065925695 -0.016394826
000020 a0 8e 3f bd a8 5d 4f bc 8f a0 31 3d f6 49 26 bd
       -0.046766877 -0.012656607 0.04336601 -0.04059788
000030 9d 5c 24 3c 10 01 7c bc 5e 27 3a bd 37 47 85 bd
       0.010031846 -0.015381113 -0.0454477 -0.06507724
000040 26 7b 7f bd 62 20 73 bd e4 0e da 3c c6 61 07 bc
       -0.062373303 -0.059357055 0.026618429 -0.008263057
000050 fb d0 f1 bc 70 ca ad 3c 08 ef 5f bd 86 30 71 3d
       -0.029518595 0.021214694 -0.054671317 0.058884166
000060 f7 d9 1c bd a3 3f 5b 3d 66 b3 15 bd f2 39 1b bd
       -0.038293805 0.053527486 -0.03654804 -0.037897058
000070 60 a9 00 bc e9 14 ed bc b4 d1 c6 3c cf d0 87 bc
       -0.007852882 -0.028940635 0.024269916 -0.01657906
000080 f0 4c 5c 3d 84 06 b9 bc 25 fc 3b 3d c4 1b 48 bd
       0.05378431 -0.022586115 0.04589476 -0.048854604
000090 e0 0b 56 bd ac 76 6b bd 8d d7 5f 3d d4 4d a0 3c
       -0.05225742 -0.05748622 0.054648925 0.019568361
0000a0 d7 0d 6c bc 2a 80 2c 3d b2 cf 0e 3d e8 b6 e8 3b
       -0.014407597 0.042114414 0.034866042 0.0071018822
0000b0 36 b3 06 3d 78 ca ec bb 60 e5 3e 3d 64 72 b2 bb
       0.032885753 -0.0072262846 0.046605468 -0.0054457653
0000c0 38 86 75 bd c8 ce 6a 3d ce 7f 78 bd 28 1a d0 bc
       -0.059942454 0.05732611 -0.06066876 -0.025403097
0000d0 fd 35 70 bd 2c e4 c9 bc cd 8d 4d bd 72 62 1c 3d
       -0.058645237 -0.024644934 -0.05018406 0.038179822
0000e0 36 5a 2c bd c9 93 6a 3c 70 65 61 bd 6c bc 17 3d
       -0.04207822 0.014317461 -0.05502838 0.037044927
0000f0 e4 6d ed 3c 99 0c 46 3c ae 42 2b bd 22 c1 14 3d
       0.028983064 0.012087964 -0.041811638 0.036317
000100 7f b8 2f 3d 94 1d af bc 41 83 21 bd 9c f2 33 bd
       0.04290056 -0.021376409 -0.039431814 -0.043932542
000110 f8 20 9b 3c cb 83 1a 3d 0b 62 6d bb ba 00 02 bd
       0.01893662 0.037723344 -0.0036221768 -0.031738974
000120 dc c5 85 bc f0 5f 80 bc 4a 3c 57 3d 2b d2 12 bd
       -0.016329698 -0.015670747 0.05254773 -0.035844963
000130 0f 5e 82 bd 84 88 7f bd ba 51 56 3c d0 71 96 bc
       -0.063655965 -0.06238605 0.013081009 -0.018364817
000140 d4 a7 89 ba 13 25 3c 3c 7a b5 33 bd 0c 42 36 3d
       -0.0010502287 0.011483449 -0.04387424 0.04449658
000150 6b 19 84 bd 80 fe cb 3c 35 2e 4e bb e0 5d 48 bd
       -0.064501606 0.024901628 -0.0031460647 -0.04891765
000160 6a 5c c9 bc ab ee 19 bc c4 08 32 3d ea a5 cb 3c
       -0.0245802 -0.009395282 0.04346539 0.024859387
000170 8e f0 7e bd e4 16 51 bd 6e 02 98 bc 02 7e 18 bd
       -0.06224113 -0.05104722 -0.018555846 -0.037229545
000180 0b 7c f2 bc a7 19 56 bd 5a aa 08 bd d4 07 c4 bc
       -0.029600164 -0.052270558 -0.033365585 -0.023929514
000190 1c 23 fa bc b6 a9 c4 bc 76 51 f5 3b 66 47 bb 3c
       -0.03053432 -0.024006706 0.0074865175 0.022861194
0001a0 78 ae c6 3c 8c 6c 4f bd e0 36 40 bd 38 1e 82 bc
       0.024253115 -0.050640628 -0.046927333 -0.01588355
0001b0 a7 43 4a bb 08 b4 ba bc 74 7e a1 bc 11 6a 52 bd
       -0.0030863078 -0.022790924 -0.019713618 -0.051370684
0001c0 1f 35 8e bb ab 9f 8a 3c a6 02 00 bd 7a 5e 5a bd
       -0.0043398286 0.016921839 -0.031252526 -0.053312756
0001d0 1a bf 51 bd e9 6c c5 3c 96 87 f0 3c cf f9 bf bc
       -0.05120764 0.024099784 0.029361527 -0.023434548
0001e0 73 08 20 bd 48 78 2c bd 92 c5 96 bb 1e c2 77 3c
       -0.039070558 -0.042106897 -0.004601189 0.015121965
0001f0 a8 58 9a 3c 98 dd 58 3d 22 4d 43 bd f5 a8 23 bc
       0.018841103 0.052945703 -0.04768098 -0.009989013
000200 ca d9 34 3d 50 e5 a4 bc be 43 3d 3d 88 de a9 bc
       0.044153012 -0.020128876 0.046207182 -0.020735994
000210 30 e9 52 bd 78 04 d4 3c bc 08 1c 3d e3 dd be 3c
       -0.051491916 0.025881037 0.038094267 0.023299163
000220 fa 62 14 bd b5 9d ab bb b6 f6 33 bd 44 5e 7f bd
       -0.036227204 -0.005237306 -0.043936454 -0.062345758
000230 ad bf 64 bd 74 87 dd bc c4 7d 06 3d 85 ab 0a bd
       -0.05584686 -0.027042128 0.032834783 -0.03385498
000240 12 04 25 bd 60 e3 d6 3b ca 04 2c bd f0 58 1b 3d
       -0.040287085 0.006557867 -0.041996755 0.037926614
000250 71 b8 1f 3d a0 3d fc bc f8 aa fe 3c f6 3d 15 3d
       0.038994256 -0.030791104 0.031087384 0.036436044
000260 ee 0b 05 3d 47 b6 5e bc da 2e 11 3d b2 b4 1c bd
       0.03248208 -0.013593263 0.03544507 -0.038258262
000270 a0 ba 3d bd 4a ea 53 3c 06 e3 40 bd e8 66 72 bc
       -0.046320558 0.012934277 -0.047091506 -0.014795043
000280 63 cc 04 3d 75 2d 1f bd 70 5a 0b bd f0 3d 0c 3d
       0.03242148 -0.03886171 -0.034021795 0.034238756
000290 84 8d 1f 3c 5a 39 68 bd 46 6c 59 bd 18 34 46 3c
       0.00973833 -0.05669532 -0.053081773 0.012097381
0002a0 ca 11 52 3d 99 14 a5 bc e8 df f8 3c c8 18 04 bd
       0.051286496 -0.020151423 0.030380204 -0.032250196
0002b0 a4 28 d7 3c 26 a1 67 bd f0 fa 81 bb 22 fd 2f bd
       0.026264496 -0.056550168 -0.0039666817 -0.042966016
0002c0 50 31 98 bc 6c da 57 bd 2c dd b5 bc 00 fb bd bc
       -0.018578202 -0.052698538 -0.02220019 -0.023190975
0002d0 90 48 40 3c 3a 3f 34 3d 1a f2 39 3c b2 5a 65 3d
       0.01173605 0.04400561 0.011349225 0.055994697
0002e0 08 79 d4 3c d8 41 e5 3c 80 09 83 3c e3 39 17 3d
       0.025936618 0.027985498 0.01599574 0.03692044
0002f0 48 ac 21 3d 83 0e 5d 3d 6f dd 5c 3d 50 c7 0b bc
       0.03947094 0.053968918 0.053922113 -0.0085314065
000300 10 6f fe bc ce 7a 45 bd 46 c9 02 3d 0f 47 66 3d
       -0.031058818 -0.04821282 0.03193023 0.05622011
000310 14 25 1b bd 74 3b 2c bd 10 a8 2c bc 34 c1 3a bd
       -0.037877157 -0.042048886 -0.010538116 -0.04559441
000320 0c 49 da bc 77 d4 11 3d 76 19 bb 39 ee 80 0f 3d
       -0.02664616 0.035603013 0.0003568639 0.035035066
000330 58 18 af 3c 1d f0 56 bd 32 7b 7d 3d f0 c4 5f 3b
       0.021373913 -0.052475084 0.061885066 0.0034144484
000340 55 ad 03 3d d2 8f 76 39 b8 17 00 bd b0 3d ea bb
       0.032147724 0.00023513965 -0.03127262 -0.007148467
000350 2d b7 90 3c 10 62 1c bc dd 1a 17 bd d0 0d 8f bc
       0.01766547 -0.009544864 -0.036890853 -0.017462641
000360 00 c8 61 b9 6a 06 c9 bc 88 ae c4 3c ec 06 17 bd
       -0.00021532178 -0.024539191 0.024009004 -0.036871836
000370 d0 a6 6d bd bc d0 f3 3c 18 41 42 3c 1d e9 af 3c
       -0.058020413 0.029762618 0.01185634 0.021473462
000380 8e c9 92 bb 5a 6b 1a bd 3c 7e e4 bc f8 ec 77 bd
       -0.0044795936 -0.037700035 -0.027892224 -0.060528725
000390 ff 2d 51 bc 4c 5f a6 3c 78 af 17 bd 46 d1 36 3d
       -0.012767314 0.020309113 -0.037032574 0.044633172
0003a0 78 9b e6 bc 5c 89 bd 3c 7a 4c 2c bd 0e 0e 07 bd
       -0.028150305 0.023136787 -0.04206512 -0.032972388
0003b0 b9 27 a4 3b 88 15 ac bc bf f0 b6 bc 84 c9 27 3d
       0.005009618 -0.02100636 -0.022331594 0.040963665
0003c0 88 a5 58 bd 74 7c 1d bd 7e b7 23 bd 34 8b d3 3b
       -0.052892238 -0.038448766 -0.039969914 0.0064558033
0003d0 70 bd 3f 3c cc 29 18 3d 40 ca 26 3c 77 2c 5c 3d
       0.01170288 0.037149236 0.010180056 0.053753342
0003e0 80 de b9 3c 68 f2 93 bc 8a 41 22 bd e0 12 7d bc
       0.022689104 -0.018059924 -0.039613284 -0.015446395
0003f0 be 12 28 bd 2a 45 3b bd be cf 3d 3d 48 13 14 3d
       -0.0410335 -0.045720257 0.046340697 0.0361512

fc2.bias f4 [256]
000000 01 24 ca bc e1 d7 45 bb 56 95 8a 3c 22 cd 69 3c
       -0.024675371 -0.0030188488 0.016916912 0.014270099
000010 b7 8b cb bc c0 6b 31 3d af c4 7e 3c b8 94 57 bd
       -0.024846895 0.04331565 0.015549823 -0.052632064
000020 18 d3 1d 3d 7e 66 84 bd a0 35 be 3c 9e 1b 61 bd
       0.038531393 -0.06464861 0.02321893 -0.05495798
000030 2b 6d 44 bd c0 5f ab bb 9a 22 16 bd cb 01 9a bc
       -0.047955673 -0.00522992 -0.036654092 -0.018799683
000040 75 50 fa bc 2f c1 64 bd e4 8e 7b 3c d2 e4 7f bc
       -0.030555943 -0.055848297 0.015353892 -0.01561852
000050 44 d7 ad bc 68 7a 5c 3c c0 da 58 3c 55 12 76 bc
       -0.02122081 0.013456918 0.013235748 -0.015019019
000060 9f 6e 28 bd d4 c1 46 bd b3 e3 92 3c 2c 76 1b bd
       -0.04112112 -0.048524693 0.017930841 -0.037954494
000070 8b e3 c9 3c f3 7d ef bc 03 56 18 3b a5 34 12 bc
       0.024644634 -0.029234862 0.0023244626 -0.008923684
000080 6c a7 7a bc f6 6c 26 bc c7 70 53 bd ee 46 db 3c
       -0.015298706 -0.010157814 -0.051621225 0.02676722
000090 8d 0c 87 bd 71 0c a1 bc 5e 84 27 3d 31 39 af 3c
       -0.06594191 -0.019659253 0.04089772 0.021389576
0000a0 91 3f ee 3c b1 f5 3e 3c e2 25 0d bd 6c 4a 30 3d
       0.029083045 0.011655257 -0.034459956 0.043039724
0000b0 d4 86 9d bc 03 29 80 bd a7 cb 0c 3d 78 58 80 bc
       -0.01922933 -0.06257822 0.034373906 -0.015667185
0000c0 b4 01 0d bd 6d 0d 66 bd 0a b4 21 3d 87 d1 1e 3d
       -0.034425452 -0.056165148 0.03947834 0.03877404
0000d0 6a e0 37 bb 83 c5 7f 3b 87 4a e1 3c b6 3b 57 bd
       -0.0028057345 0.0039027638 0.027501358 -0.05254718
0000e0 3a 95 23 bd 01 c2 82 bd 10 53 86 bc 67 2b 82 bb
       -0.039937235 -0.063846596 -0.01639703 -0.003972459
0000f0 ce 3e b5 bc d8 d2 34 3c 90 33 74 bc e1 b1 d1 3b
       -0.022124674 0.011036597 -0.014904872 0.0063993786
000100 aa c9 03 3d a1 98 ab 3a a4 5a 88 bc 63 b8 b5 bc
       0.032174744 0.0013091752 -0.016644783 -0.022182649
000110 2a 55 5c bd 40 22 e1 bb f9 0a 3d bb 14 9c 87 bd
       -0.053792156 -0.006870538 -0.0028845652 -0.066215664
000120 bc 12 99 3b 6f 3c 10 bc f4 17 01 bd 82 94 e7 3a
       0.0046714228 -0.008803471 -0.031516984 0.001766816
000130 2a 77 e9 bc e6 89 26 bc a1 0e 7c bd 71 39 db bb
       -0.028499205 -0.0101647135 -0.06153739 -0.006690197
000140 2b 20 24 3c b5 6f 61 3c 2e 47 35 3d 2b ab 59 bd
       0.010017435 0.013759543 0.044257335 -0.053141754
000150 25 76 89 bd 1b 81 4b bd 9c 91 48 3d 9f 3b 06 3d
       -0.067119874 -0.04968367 0.04896699 0.032771703
000160 89 dc f7 3c 09 d6 36 3d cc d0 57 bd 45 ea ae 3c
       0.030256527 0.044637714 -0.05268936 0.021351943
000170 d1 a0 aa 3c 3f d6 92 3c 35 07 c9 bc a2 aa 4e bd
       0.020828636 0.017924426 -0.02453957 -0.050455697
000180 bf 55 c0 3c cb 82 3c bd e3 ce cb 3c f8 92 c2 bc
       0.023478387 -0.04602317 0.024878925 -0.02375172
000190 bc f9 1b bc 0f f1 53 bd e4 1a 28 3c 03 99 41 3c
       -0.0095199905 -0.051743563 0.0102603175 0.011816266
0001a0 08 7a 36 bd 49 a6 82 bd 6e 4d fe bb ff f6 09 3c
       -0.04454997 -0.063793726 -0.007760695 0.008420705
0001b0 c3 7d 46 3d 66 96 c3 bb 20 ef 2e 3c 5b e3 44 bd
       0.04845978 -0.0059688566 0.010677129 -0.048068386
0001c0 94 7f 4b bd ca 66 a8 bb 46 54 79 3d 63 be a2 3b
       -0.049682215 -0.0051392065 0.060871385 0.0049665435
0001d0 4c 2d b8 3c 20 48 ba 3c f9 95 7b bb 4c fd 13 38
       0.022482537 0.02273947 -0.0038388951 3.5283432e-05
0001e0 b3 b4 ba 3c 7c 30 90 bc 16 66 2e bc 35 fe d8 3c
       0.022791242 -0.017601244 -0.010644456 0.026488403
0001f0 76 2e 00 3d 86 71 9b bc 09 d1 7d 3d 62 29 ba bc
       0.03129431 -0.01897503 0.06196693 -0.022724811
000200 1c 3f 33 bd 93 2b c4 3c b4 45 ef 3c f9 32 ab 3c
       -0.043761358 0.023946559 0.029208042 0.02089833
000210 07 9d 3e bc 13 7a 4a 3c d2 2b 68 bd 6c 5f 5c bd
       -0.011634118 0.012358206 -0.056682415 -0.05380194
000220 9d 74 48 ba 0b 36 97 3c e1 76 1f bd d1 ab 9c 3c
       -0.0007646771 0.018458387 -0.03893173 0.019124897
000230 22 ef 92 bb df 21 48 3c c3 a0 b8 bc c2 4d be 3b
       -0.0044840733 0.012215107 -0.022537595 0.0058076093
000240 78 89 1d bc 00 08 3f 3d 3a ea 6b 3c e6 8c fb 3c
       -0.009615295 0.04663849 0.014399106 0.030706834
000250 15 fe 90 bb c9 68 2b bd c7 fb 24 37 b0 d5 38 3c
       -0.00442482 -0.041847978 9.833783e-06 0.011281416
000260 f2 7c 0b 3d 64 3a 89 ba 89 85 ab bc 50 c5 74 bc
       0.034054704 -0.0010469672 -0.020937698 -0.014939621
000270 a4 f5 93 bc 3e be 2b 3d 2c c6 ee 3c 9e b6 76 bd
       -0.018061467 0.041929476 0.02914723 -0.06023275
000280 32 76 35 bc 8e 04 62 bc 27 67 27 bd cb c8 6f 3c
       -0.011075543 -0.013795031 -0.040869858 0.014635275
000290 43 bf c0 bb 8a fe 54 bc eb a3 05 bd e9 d5 6b bd
       -0.005882175 -0.01300014 -0.032627027 -0.057577047
0002a0 3c 1f 51 3d 9b 61 e0 3c 24 c1 ed 3b 2a 15 5f 3c
       0.051055178 0.027390292 0.00725569 0.013615886
0002b0 f7 87 88 3c 50 17 39 3d da be 2e 3d 01 b0 d0 bc
       0.016666396 0.04518825 0.04266248 -0.02547455
0002c0 ff 55 6b 3c 9f 4a 38 bb bf bb cf bb 13 73 66 3d
       0.014363765 -0.002812065 -0.0063395198 0.056262087
0002d0 50 f5 db ba ee 67 6b 3d e2 23 10 bd 3f be 29 bc
       -0.0016781483 0.057472162 -0.03519047 -0.0103603
0002e0 78 11 73 bc d1 ae 47 bd 67 63 39 bd 31 fd 34 3d
       -0.014835708 -0.048750702 -0.045260813 0.044186775
0002f0 90 45 47 3d 3c 24 18 3d 6c fe a1 3c ee 49 02 3d
       0.048650324 0.03714393 0.019774638 0.031808786
000300 86 d2 4b bb b4 75 25 3d 32 d2 09 3c 82 02 63 bb
       -0.0031100824 0.040395454 0.008411931 -0.0034638946
000310 3a 6e f1 bb e9 33 85 3b 12 ef 8d bc 03 f3 2d 3d
       -0.0073678764 0.004065026 -0.017325912 0.042468082
000320 f8 85 21 bd 9c 09 3b bd f1 8b 00 3d 65 3d 6e 3c
       -0.039434403 -0.04566346 0.03138346 0.014541005
000330 cf ae 2f bd 6d 1b 74 3c 6e 56 6b bd 1b e6 d2 bc
       -0.04289132 0.014899117 -0.057455473 -0.025744488
000340 2d d2 2e 3d 64 1f d0 3c 98 91 72 bd 74 cf 52 bd
       0.042680908 0.025405593 -0.05922088 -0.051467374
000350 e6 bd 33 3d 4c 31 91 bd 92 dd 3e bd 40 d8 dd 3a
       0.043882273 -0.07089481 -0.046598025 0.001692541
000360 bd fc 06 bc f0 cb dd bc 8e 63 3c bb 7f 17 85 b9
       -0.008238968 -0.027074784 -0.0028745863 -0.00025385243
000370 69 70 ca 3c 54 1b 3d bd f9 13 16 3d 12 d2 0c 3c
       0.024711804 -0.04616864 0.03664014 0.008595007
000380 96 ff dd bb d4 14 0b 3d 7a b5 a6 bc 50 f4 43 bd
       -0.006774853 0.03395541 -0.020350207 -0.047840416
000390 f6 63 1b 3c ac 19 4f bc f4 46 1e bd c1 8c 49 3d
       0.009484282 -0.012640398 -0.038641885 0.0492065
0003a0 f8 95 12 bd 29 07 03 bd bd 7e 2f 3d 9d 25 f6 3c
       -0.035787553 -0.03198925 0.042845476 0.030047232
0003b0 b8 08 a7 bd 26 ae 31 bc e8 4a 78 bd 6a 14 8f 3b
       -0.0815596 -0.010844743 -0.06061831 0.004366447
0003c0 37 16 9e 3b ce 1e 77 bd 88 6d 7c bd 94 ac 37 3d
       0.0048244256 -0.060332112 -0.061627895 0.044842318
0003d0 cf 9a 53 bd 8c 25 41 bd 3f b6 47 bd 39 47 7b bd
       -0.05166131 -0.047154948 -0.048757788 -0.06134722
0003e0 b1 37 c1 3c 38 18 0b 3d 7a 49 0d 3b aa c6 b7 3c
       0.023586126 0.033958644 0.0021558688 0.022433598
0003f0 22 3e d3 3c 39 79 55 bc 2e 5e 30 bd 3a 30 e5 3b
       0.025786463 -0.01302939 -0.043058567 0.0069942744

fc3.weight f4 [256, 256]
000000 b1 3e 72 3d 5c fe 4b 3d 77 1a b0 3b 39 5c 3c 3d
       0.05914182 0.049803123 0.0053742486 0.045986388
000010 3c df 72 bd 1e db 2e bd 51 db 93 3c 78 a7 f4 bc
       -0.059294924 -0.042689435 0.018048914 -0.029865012
000020 49 f9 2d bd f0 08 42 bc 00 d9 25 bd d8 bb 3d bd
       -0.042474065 -0.011842951 -0.04049015 -0.04632172
000030 36 54 a8 3c 2c f4 66 3d a8 51 34 bd 70 8d 77 bc
       0.020547967 0.056385204 -0.044023186 -0.015109405
000040 30 c1 f3 bb b0 79 bc 3b 13 1f 6f bd ed 9e 4e 3a
       -0.007438801 0.005751811 -0.058379244 0.0007881958
000050 10 5b 49 bc a8 e7 66 bd e2 c6 28 bd 5d 36 0b 3c
       -0.012289777 -0.05637327 -0.041205294 0.008496848
000060 72 68 4a 3d d0 62 bc 3b 04 10 09 3d de 62 03 bd
       0.049416013 0.005749084 0.03346254 -0.03207671
000070 70 73 df bc 10 7f 8f 3c 24 ac 73 3d ba 2e 6d 3c
       -0.027276725 0.017516643 0.059490338 0.0144764725
000080 19 98 65 3d b5 63 ba 3c ae d1 cc ba eb 48 02 3d
       0.056053255 0.022752622 -0.0015626454 0.03180782
000090 ca be 10 3d a0 76 61 3d 88 b0 35 3c a2 ee 8a bc
       0.0353382 0.05504477 0.011089452 -0.016959492
0000a0 a9 a0 b8 bc 0d ef 49 3d cc c7 57 bd d8 64 2c 3d
       -0.022537546 0.049300242 -0.052680776 0.04208836
0000b0 bc 0b d7 3c 18 1b 57 bd 43 d9 d9 bc 6d 66 28 bd
       0.026250713 -0.052516073 -0.026592856 -0.041113306
0000c0 e8 7f 63 bc 95 c9 5f 3c 2f 45 4a bc 27 5f f5 3b
       -0.013885476 0.013658901 -0.012345596 0.0074881497
0000d0 5c 79 d0 3c 21 dd 02 3d e6 62 69 bd 78 41 43 bd
       0.025448494 0.031949166 -0.056979083 -0.047669858
0000e0 d0 15 5f 3d 92 91 4e 3d 84 a7 0c bd 74 d1 84 3c
       0.05446416 0.050431795 -0.034339443 0.016213156
0000f0 1f c7 01 3c dc a4 15 bd 2c ca 93 3c 9e ce d8 3c
       0.007921009 -0.036534175 0.018040739 0.02646571
000100 20 2b 11 bc e4 e2 e4 39 a4 8f 7f bd fa 5f 0f bc
       -0.008860379 0.00043656596 -0.062392846 -0.00875091
000110 79 ed 62 3d 58 65 0b bd 70 29 01 bc 05 e8 4d bd
       0.055402253 -0.034032196 -0.007883415 -0.0502701
000120 ca 43 3d bc 27 b8 62 bc 45 fe 84 bd f0 0f c5 bc
       -0.011551807 -0.013837851 -0.064938106 -0.024055451
000130 e2 be 8f bc d5 73 2e bd a4 b5 58 bc e0 38 4c 3c
       -0.017547075 -0.042590935 -0.0132269 0.012464732
000140 ee 6f 0c bd 61 86 99 bc 04 37 4b 3c 2b eb aa 3c
       -0.034286432 -0.018740835 0.0124032535 0.02086409
000150 be 6f 0b bd 96 f9 25 3d 19 82 34 bd 35 ef 76 bd
       -0.034042113 0.040521227 -0.044069383 -0.06028672
000160 10 4f 14 3d d4 ca 62 3d 9c 98 e3 3c 31 f6 7c bd
       0.036208212 0.055369213 0.02778273 -0.061758224
000170 76 10 08 bd 3e 4e 86 bc f0 2e 45 3d 85 f9 2c bc
       -0.033218823 -0.01639473 0.048140466 -0.010557537
000180 4e 16 ed 3b 9c 3c 54 3d a2 4c 02 3c fc 67 45 bd
       0.007235325 0.051815614 0.007952841 -0.04819487
000190 b8 e2 64 bd c1 3d 25 bd 50 e1 e1 3b 8a d1 3f bd
       -0.05588028 -0.040342096 0.0068933144 -0.04683069
0001a0 60 88 3d bc 51 b5 25 3d 5e 87 10 3d 95 9a f7 3c
       -0.011568159 0.04045612 0.035285346 0.030225078
0001b0 f3 1d 5c bd db 92 2f 3d 4f 47 02 3d 78 c8 56 bd
       -0.0537395 0.04286466 0.031806286 -0.052437276
0001c0 34 39 31 bd ae 0d 3c 3d 65 18 3f bc 8e ae 35 3d
       -0.043267444 0.045911483 -0.011663531 0.04435592
0001d0 b0 b5 ee 3b 63 9c 74 bd b8 0e 19 bd bc 5a 5f 3d
       0.0072848424 -0.059719454 -0.037367553 0.05452989
0001e0 9c 31 b1 bc 82 da 69 bd b3 2d b8 3b 9b c9 f0 3b
       -0.0216301 -0.05709315 0.005620682 0.007348252
0001f0 8d 74 1d 3a 8c 42 c3 3c 59 48 49 bd d0 34 48 3c
       0.0006006442 0.023835443 -0.04914126 0.012219623
000200 04 bb 67 bd f4 fc cc 3c 6e 6e 0a bc 6e 67 7e bd
       -0.056574836 0.025022961 -0.00844918 -0.062110357
000210 08 7e f7 3c 11 3b 52 bd 50 b6 0a 3c 8c 7a c7 3c
       0.030211464 -0.05132586 0.008466318 0.024350427
000220 ee c4 2c bd e5 ea 10 bd b4 44 a8 bc 1a 5f 7b bc
       -0.042179994 -0.035380263 -0.020540573 -0.015342498
000230 2c d4 30 bd fd db 4c bd e8 75 13 3d fa a3 27 bd
       -0.043171093 -0.050014485 0.036001116 -0.040927865
000240 fd bf 68 bd 78 8e fe 3c f1 70 1a b9 01 de cd 3c
       -0.05682372 0.031073794 -0.00014728658 0.025130274
000250 b1 d6 be 3c 3a 78 6f 3c 00 08 6d b9 08 ac 25 bd
       0.023295732 0.014616067 -0.00022605062 -0.040447265
000260 3e f0 02 3d c6 f1 ac 3c 76 99 61 bd 83 34 82 bd
       0.031967394 0.02111138 -0.055077992 -0.06357672
000270 78 57 40 3d f4 4c 9f 3b f1 69 15 3d 00 00 1a bb
       0.046958417 0.0048614684 0.036477987 -0.0023498535
000280 a0 47 31 bd 22 90 0a 3d 81 5a 1c bd ba f2 8e bc
       -0.043281198 0.033828862 -0.03817225 -0.017449725
000290 41 bc 37 3d 15 1e 55 3d c2 e7 5c 3c 48 bb 56 3d
       0.044857267 0.05203064 0.01348299 0.0524247
0002a0 85 f5 3b 3d 84 76 92 3c 2b 51 28 bd d8 a2 81 bd
       0.045888443 0.017878778 -0.041093033 -0.06329888
0002b0 84 8d e4 3c c0 50 bd bc 8a 06 3c bd 5e 95 66 bd
       0.027899511 -0.023109794 -0.045904674 -0.05629479
0002c0 43 4e 80 bd 4a 8f df bb 50 6c 87 3b a1 f7 81 bc
       -0.06264927 -0.0068225013 0.004132785 -0.015865149
0002d0 bf 15 5b 3d 71 a6 b7 3b 20 8b 69 3d 52 4b 50 3d
       0.053487536 0.005604558 0.057017446 0.05085308
0002e0 2c 28 6b 3d 35 72 84 bd 6d e5 a3 3c 1b ea 40 bd
       0.057411358 -0.06467096 0.02000686 -0.04709826
0002f0 60 c8 41 bc d3 bc f7 3b c1 08 aa bc 88 08 62 bd
       -0.011827558 0.0075603514 -0.020756127 -0.055183917
000300 ee f2 09 3d 1d 45 80 bd 9c 60 65 bd 03 24 84 3c
       0.03367894 -0.06263182 -0.056000337 0.016130453
000310 60 09 0f 3d 46 6d 75 3d 1a a1 47 bd 43 28 fc bc
       0.03492105 0.059918664 -0.048737623 -0.030780917
000320 10 2e 02 3b f4 1f f0 bc fb db fc 3c 7d 7f 58 3d
       0.0019863881 -0.029312111 0.030866614 0.052855957
000330 88 55 eb 3c c7 27 1c 3c 2c a0 83 3c 8c f8 2b 3d
       0.028727308 0.009530968 0.016067587 0.04198508
000340 bb 31 ec bb 3c cf 50 3d 98 40 86 bc 58 d4 3d bd
       -0.007208077 0.050978884 -0.016388223 -0.046345085
000350 d1 0e 7e bd f4 cc 49 3d c4 ac 9e 3c 6c 9e 9e 3c
       -0.06202585 0.049267724 0.01936949 0.01936265
000360 a5 19 42 3d d0 e6 7a bd 58 1d d7 bb e1 ea 3b bd
       0.047387738 -0.061255276 -0.0065647773 -0.045878295
000370 48 c4 68 3d 50 46 8f 3c 86 f4 b1 bc e9 f4 95 3b
       0.056827813 0.017489582 -0.021723043 0.0045763147
000380 c9 03 2d bd b1 83 8e bd 7f 4a 1b bc 2d ef b7 3c
       -0.042239938 -0.06958712 -0.0094782105 0.022452915
000390 3b 31 3b 3d 5f 39 ba 3c 3f 08 4b 3d f4 9d 35 bc
       0.045701247 0.022732435 0.04956841 -0.011085022
0003a0 28 58 7f 3d a7 71 c1 bc 83 d0 77 bc 04 01 e3 bc
       0.06233993 -0.023613764 -0.015125397 -0.027710445
0003b0 ed a0 43 bd 4f c9 c5 bc 48 1c d6 3c 09 2a 02 3b
       -0.047760893 -0.024143843 0.026136532 0.001986148
0003c0 ec 2b ae bb 40 26 78 3d 40 cb 56 bd 98 66 0a 3d
       -0.0053152945 0.060583353 -0.052439928 0.033789247
0003d0 fc 36 21 3d c0 f7 21 bd 98 75 58 bd d0 c1 15 bd
       0.039359078 -0.039542913 -0.05284652 -0.036561787
0003e0 47 9c 55 bd 9f 11 6b bd eb f5 7e bd f1 9c db bc
       -0.05215099 -0.05738985 -0.062246244 -0.026808234
0003f0 03 95 44 bd 46 15 10 bd fa 02 69 bd f0 fe b6 3c
       -0.04799367 -0.035176538 -0.056887604 0.02233836

fc3.bias f4 [256]
000000 c8 00 be bb 9a 4f e6 bc dc d8 de bb 78 ee 67 bd
       -0.005798433 -0.028114129 -0.006800754 -0.056623906
000010 aa 05 1d bd 86 e7 72 bd f9 c7 30 3c 8f 7c d5 3b
       -0.03833548 -0.05930283 0.010789865 0.0065150927
000020 d2 26 4e bc 5b 31 02 3d c4 c5 7b 3d 8f 84 a6 3a
       -0.012582498 0.03178535 0.0614679 0.00127043
000030 08 7b 23 bc ff fd 84 3b ca 5d 04 3d fc 70 c0 bc
       -0.009978063 0.004058599 0.032316007 -0.023491375
000040 a9 02 eb bc 35 f9 30 bd a6 e1 ca 3c 6e c0 7b bd
       -0.028687792 -0.043206412 0.0247658 -0.061462812
000050 bd b2 27 3d 66 ac dc 3b be 0c 7b 3c f7 f8 56 3b
       0.040941942 0.0067344187 0.015322862 0.0032802203
000060 d7 f5 53 bb 2f ca 17 bc 9b 03 26 3c d9 19 40 3d
       -0.0032342577 -0.009264513 0.010132696 0.04689965
000070 b7 73 8a 3c 18 e7 db 3c f2 a8 38 bd 35 85 42 3d
       0.01690088 0.026843593 -0.045082994 0.047490317
000080 d2 63 2a 3a 21 a3 8b 3c 68 b1 ea 3c 2a 7a 3c bd
       0.000649986 0.01704556 0.028649047 -0.046014942
000090 46 6d 22 bd 56 32 fb bc 7e 25 83 3d 9a 1f 0a 3d
       -0.039654993 -0.03066365 0.064036354 0.033721544
0000a0 a8 86 24 3c f6 76 63 bd 3b b8 20 bd 66 ae ad 3c
       0.01004187 -0.055533372 -0.039238196 0.021201324
0000b0 ce ac 63 bd dd a9 93 bc 44 1f a4 bc 03 81 a8 bb
       -0.05558472 -0.018025333 -0.02003444 -0.0051423325
0000c0 41 7e 6e 3c a4 10 71 bd 4a 3a 6a 3c 7f 17 49 3d
       0.014556468 -0.05885376 0.014296124 0.049094673
0000d0 56 4f 67 bd 90 af fc bc 3e bb 73 3c a6 ce 1b 3d
       -0.056472145 -0.030845433 0.014876185 0.038038872
0000e0 f1 58 4f ba 68 c1 16 bd 01 31 a1 bc 20 19 6e bd
       -0.00079096766 -0.03680554 -0.019676687 -0.05812943
0000f0 a0 24 e1 bc 78 34 10 3d 4a 6c 52 bd 9a b9 36 3d
       -0.027483284 0.035206288 -0.051372804 0.044610597
000100 18 fc 79 bc bd 77 83 3d db 2e 11 bd 10 8f 9a bc
       -0.015257858 0.06419323 -0.035445075 -0.018867046
000110 b9 ab 31 3c 22 da 27 bd c8 52 19 3d b7 d3 55 3c
       0.0108441645 -0.040979512 0.037432462 0.013050965
000120 50 9a a4 b9 a0 b9 ef bb 1c 90 53 3d ac c7 25 bc
       -0.0003139549 -0.0073158294 0.051651105 -0.010118406
000130 6b 66 58 3d c3 e9 d4 3c 4d 0a 60 bc 50 c0 84 3c
       0.05283205 0.025990373 -0.013674331 0.016204983
000140 0a ee 87 3d 25 5a 73 3b 94 86 4e bd 7d a9 b5 3c
       0.06637199 0.0037132588 -0.050421312 0.022175545
000150 49 d9 86 bd 1f 2e ed 3b c5 ed 14 bd 06 cc dd bc
       -0.065844126 0.007238164 -0.036359567 -0.027074825
000160 a9 e5 51 bd 05 43 2e 3d cc c0 73 3d b8 e0 f9 3c
       -0.05124441 0.042544384 0.059510037 0.030502662
000170 20 01 2e 3d 6f 08 10 bd d0 66 57 bd d8 e9 be 3c
       0.04248154 -0.035164293 -0.052588284 0.023304865
000180 50 4f 36 bd d7 f9 2b bd 14 d3 30 bc 08 54 2e bc
       -0.044509232 -0.041986313 -0.010792512 -0.010640152
000190 87 7b 98 3d e1 86 08 bd 50 cc 5b 3c 67 fc 00 3d
       0.07445436 -0.033331756 0.013415411 0.03149071
0001a0 84 ec b7 bc 60 26 46 bd bd 98 ef 3c 03 87 e6 bc
       -0.022451647 -0.04837644 0.029247636 -0.02814055
0001b0 aa a1 11 bd 8f 32 ba 3c 20 d8 66 3b d0 aa 7f bd
       -0.035554565 0.022729186 0.0035224035 -0.06241876
0001c0 f0 79 6f bc 9a 4e 8b 3c 80 68 22 3d 36 d5 fb bb
       -0.0146164745 0.017005254 0.03965044 -0.007685329
0001d0 7a 61 23 bd 60 4e 29 3d 51 2d b1 3c de ff 03 bd
       -0.039887883 0.04133451 0.021628054 -0.032226436
0001e0 94 cb 79 3d 8e f1 a5 3b 21 02 43 3d ea cf 41 3d
       0.060985163 0.005064196 0.047609452 0.047317423
0001f0 b7 5e 8e bc 46 af 82 3d 26 a3 4b bd 55 62 ea 3c
       -0.017379148 0.06381087 -0.049716137 0.028611341
000200 40 4b 43 bd fe 1e 37 bd 1f 66 1c bd 0e fa 4b bd
       -0.047679186 -0.04470729 -0.038183328 -0.049799018
000210 ba 1c 66 bd d4 90 fb bc cf 02 32 bd b8 34 0f 3d
       -0.05617974 -0.030708708 -0.04345971 0.034962386
000220 13 7c 05 3d 50 4a 00 3d 10 ea 59 3d 66 9c 0e 3d
       0.03258903 0.03132087 0.053201735 0.034817122
000230 ca 9c 74 bc ee 12 d8 3b 65 d8 b7 bc e6 27 d1 3c
       -0.01492996 0.0065940535 -0.022442052 0.02553172
000240 fe c5 07 bd b2 3c 77 ba 67 4c bd 3b 74 07 66 bd
       -0.033147804 -0.00094313466 0.00577693 -0.05615945
000250 d6 b2 07 bc 2e 58 43 3d 85 2f cf bc fe e7 21 bd
       -0.008282384 0.047691517 -0.025291214 -0.039527886
000260 ea 03 12 3d 86 47 45 bc 0c cf 04 3d c2 97 18 bd
       0.035648264 -0.012040978 0.032424018 -0.037254103
000270 00 c6 86 3d ef 8e 22 ba 56 93 a6 bb 54 7a 16 bc
       0.06580734 -0.00062011083 -0.005083482 -0.009184439
000280 d2 ca bd bc 21 df 96 bc 77 b9 2f 3d 70 31 ff bb
       -0.023168001 -0.018416943 0.042901482 -0.007787876
000290 05 04 85 bc 65 a5 60 3d 93 3d 3e 3c e4 d7 ee bc
       -0.016237268 0.054845233 0.01161136 -0.029155679
0002a0 52 89 1a bd ba af 32 bd 34 cf ae bc e7 a9 8e bb
       -0.037728615 -0.043624617 -0.021339037 -0.00435375
0002b0 ce 19 f4 bc a9 3d f8 bc d6 60 50 bc 35 f8 8a 3d
       -0.02979746 -0.03030284 -0.0127184 0.06785623
0002c0 08 59 1b 3d 48 3f 6b bd 0f 59 60 3c 75 b0 41 bd
       0.037926704 -0.057433397 0.013693108 -0.047287423
0002d0 a7 0a 60 3d 94 fe bb bc 82 a8 ec bb 73 62 4f 3d
       0.05469766 -0.02294854 -0.007222236 0.050630998
0002e0 2d 41 6e 3c fa 63 dc 3c 10 e9 b0 bc 2e f1 10 bd
       0.014541906 0.026903141 -0.021595508 -0.035386257
0002f0 c1 ff ed bc 3e 7d 8a 3d ba 9e fc 3c a6 df 30 bd
       -0.029052617 0.06762169 0.030837405 -0.043182038
000300 c8 35 2a bd f2 1b 3e 3d 2b ae 69 3d cf 6c 64 3d
       -0.041555196 0.04641337 0.057050865 0.05576783
000310 00 50 d6 3c a2 13 9f 3c 35 d7 cb 3c 1a ee cb 3c
       0.026161194 0.019418541 0.024882892 0.02489381
000320 6a d0 74 bd ce a2 d7 bc 1a f6 98 3c 82 cb eb bc
       -0.05976907 -0.026322749 0.018672038 -0.028783564
000330 9d 2c 12 bc 73 6d 69 3d d7 5d 4a bd a2 73 47 3d
       -0.008921769 0.056989145 -0.0494059 0.04869426
000340 ec 87 41 3d ec d1 34 bd 16 d2 94 3d aa 58 2e bd
       0.047248766 -0.04414551 0.07266633 -0.042565025
000350 46 51 3a 3d 2e c3 84 bd 72 e9 02 bd 8e 6d 01 3c
       0.045487665 -0.0648254 -0.031960912 0.007899655
000360 fd 70 bd 3c 8d 79 7a 3c 90 32 0a bd 19 d0 dd 3c
       0.023125166 0.015287769 -0.033739626 0.027076768
000370 7f a8 d3 3c aa 37 47 3b 29 80 db 3c ee 5e d2 3c
       0.025837181 0.0030398169 0.02679451 0.025680032
000380 cb 5d 0d bd 9e 82 d8 3c 01 f6 4c 3d 1e a5 81 3c
       -0.034513276 0.02642947 0.050039295 0.015825804
000390 d5 c4 a8 3c a5 7c ff b8 4f 37 0a 3d 68 08 8e bc
       0.02060167 -0.000121825644 0.033744153 -0.017337993
0003a0 4b 5a 0a bc a1 4c 91 bc 89 9d 5c 3d bc 6a 2f bd
       -0.008444379 -0.017736735 0.053861175 -0.0428264
0003b0 15 fa 65 3d a0 dd f1 bc 8b 2c 17 3d f4 07 a4 bb
       0.0561467 -0.029524624 0.036907714 -0.005005831
0003c0 cc b7 12 bd 0e fc c4 3c b9 b2 4b bc 8c a7 0c 3d
       -0.035819814 0.02404597 -0.0124327475 0.034339473
0003d0 73 63 81 bd ec 69 1d bd 8a 13 12 3d c1 15 e0 bc
       -0.063177966 -0.038431093 0.035663165 -0.027354123
0003e0 af 16 7b bb 48 56 9f 3c d2 39 81 3d 1a 63 cd bc
       -0.003831308 0.019450322 0.063098565 -0.02507167
0003f0 f4 a0 12 3d 37 42 25 3a 7b f2 b0 3b f9 c5 96 3b
       0.035798028 0.0006304117 0.0053999997 0.004601237

fc4.weight f4 [2, 256]
000000 d7 23 c4 bc d8 30 1d 3d 22 db f2 bc f1 d4 dd bd
       -0.023942871 0.03837666 -0.029645506 -0.10831631
000010 0c 3b 9d bc 13 8c fd 3c fd 55 5c bd 7d 1a 26 3d
       -0.019193195 0.030950582 -0.053792942 0.040552605
000020 ff 42 fd 3b a0 ee 30 bc a8 33 0f 3d 2d 8f a5 3c
       0.007728934 -0.01079908 0.034961373 0.020209873
000030 ab f5 de bc 4f 5a 15 bd f9 f9 2f bd ad fe 16 bc
       -0.027216753 -0.036463078 -0.042963002 -0.009215993
000040 54 bd 21 bd 8c 1c 55 3d a2 94 61 3d f0 99 62 bc
       -0.039487198 0.052029178 0.055073388 -0.013830647
000050 94 f8 0e bd de 51 bf 3c 74 57 f5 bc 49 f7 8f 3c
       -0.03490503 0.023354467 -0.029948927 0.01757397
000060 e1 d7 59 bd 74 b6 26 3c 66 9d ff 3c 02 9b ad 3c
       -0.053184394 0.010175336 0.031202983 0.021192078
000070 3a 17 d4 3b e5 77 76 3d 99 24 1e bc 39 36 71 3d
       0.0064724954 0.060172934 -0.00965228 0.0588896
000080 06 17 20 bc a5 62 bf ba 9a 03 8e bc f4 43 a0 bc
       -0.009771114 -0.0014601542 -0.017335702 -0.019563653
000090 7c 69 c1 bc 67 b5 3b 3d fd 74 3f 3d 9c b5 20 bd
       -0.02360987 0.045827296 0.046742428 -0.039235696
0000a0 12 b2 f4 bc 4a ee 52 bd bb 05 ad 3c 15 ee 61 3d
       -0.029870067 -0.05149678 0.021120897 0.055158693
0000b0 40 7e 15 bc 37 4e 23 bd 42 ea 46 bd e4 89 1f 3d
       -0.009124339 -0.039869513 -0.04856325 0.038949862
0000c0 32 92 92 bc c4 85 30 bd 3e c7 43 3c bc b9 6f 3c
       -0.017891977 -0.04309632 0.0119493585 0.014631685
0000d0 60 c8 28 bb 6b 90 89 3d 0b f9 06 3b 13 d9 37 3d
       -0.0025754198 0.06716999 0.0020595219 0.044884752
0000e0 de 60 81 bc 94 60 b2 3c 6c 6c 2e 3b f8 27 35 bc
       -0.01579326 0.021774568 0.0026614917 -0.011056893
0000f0 37 c1 42 bd 49 e2 2a 3d 32 ae 67 3d 1b 71 0f 3d
       -0.047547545 0.04171971 0.05656261 0.035019975
000100 e3 b8 84 bd 50 4c 14 3d 6b 0e 02 3d f0 16 cc 3b
       -0.06480577 0.03620559 0.03175203 0.0062283203
000110 db 87 33 3d 10 49 16 3d cc 02 91 3d c6 83 44 bd
       0.043830734 0.03669077 0.070806116 -0.04797723
000120 af 83 85 bc e2 07 b6 bc 77 5f 5f 3d 4f 11 0a bd
       -0.016298143 -0.022220556 0.0545344 -0.033707913
000130 d4 08 d2 3c 2a 23 87 bc 5f ad eb bc 58 df 4b 3c
       0.025638975 -0.01649626 -0.028769193 0.012443386
000140 ed f1 88 3d 2b 6c 1c bb c0 9b b0 bb d6 00 50 bc
       0.06686769 -0.0023868184 -0.0053896606 -0.012695512
000150 7c 72 ab 3c 2c a5 ce bc e6 a8 ee bc 4d e0 35 bd
       0.020928614 -0.025225244 -0.029133271 -0.044403363
000160 36 d7 3e bc fb 0f 40 3d 6f da 21 3d 71 e6 6e 3d
       -0.01164799 0.04689024 0.039514955 0.058325235
000170 5d e4 28 bd b6 95 30 bd d0 6e 0c bc 66 a7 8b bd
       -0.04123341 -0.043111525 -0.008571342 -0.06819038
000180 64 91 b2 bc c7 05 bc bc 86 2a 11 3d d0 3a 76 bd
       -0.021797843 -0.022951974 0.035440944 -0.06011468
000190 b6 df 79 3d f3 39 3e bd 36 c8 a7 bc d0 91 64 bd
       0.061004363 -0.046441983 -0.02048121 -0.05580312
0001a0 c0 d4 ca 3b d0 d8 0d 3d be 3d 6e 3d 09 26 38 bd
       0.0061899126 0.034630597 0.05816435 -0.04495815
0001b0 de 86 87 bd 1e a7 84 bc b8 62 11 bc a2 4f 65 bd
       -0.06617521 -0.016192969 -0.008873634 -0.055984147
0001c0 a6 f9 51 3d 57 10 cf bc 3e 11 1f 3d 16 58 48 bd
       0.051263474 -0.025276346 0.038834803 -0.04891213
0001d0 a2 a0 16 3d c8 98 27 3d ef 8d c1 bc 72 56 47 3d
       0.036774285 0.040917188 -0.02362725 0.048666425
0001e0 31 a4 17 3d f8 bf a1 bc 78 59 e9 3c 20 e1 54 bd
       0.03702182 -0.019744858 0.028485045 -0.05197251
0001f0 85 e1 2d bd 26 b3 8b 3d 45 dd ad 3c 3f a7 69 3d
       -0.0424514 0.06821279 0.021223674 0.057044264
000200 e9 95 31 3d 20 90 d4 bc a9 33 76 bb 82 02 14 bd
       0.043355856 -0.02594763 -0.0037567413 -0.036135204
000210 f6 ae 67 bd 32 ee 04 bd 30 3b f8 bc 5b f1 b0 bc
       -0.05656334 -0.032453723 -0.03030166 -0.021599462
000220 44 41 42 bd 5f b1 23 3b d4 c6 19 3b 6a 63 34 3b
       -0.047425523 0.0024977548 0.0023464458 0.0027525076
000230 f2 59 42 bd b9 fc 1d 3d fa 64 03 bc 41 c2 ab ba
       -0.04744906 0.038571093 -0.00801968 -0.0013104157
000240 00 01 c8 3c a0 e7 14 bd 72 c7 5f 3d 1a 7d 19 3d
       0.02441454 -0.036353707 0.054633565 0.03747282
000250 8e b7 0e 3d 67 12 92 3d cd dc 1a bc a6 6a 60 3d
       0.03484302 0.07132416 -0.009452057 0.054789208
000260 77 8e 92 3c 73 e3 50 3d ea 64 22 3c e0 0b 86 3b
       0.017890198 0.050998162 0.009911755 0.004090771
000270 29 af 84 3d 91 3c 4f bd dd fd 6e 3d d0 da 87 bc
       0.06478722 -0.05059487 0.05834757 -0.01658383
000280 a9 24 5c bd 9b cf 2a bd 9a 4c af bb b0 40 03 bd
       -0.0537459 -0.041701894 -0.005349708 -0.032044113
000290 a8 b4 e5 bc 02 e5 70 3d 63 66 6d 3d a8 9c 0e 3d
       -0.028040245 0.05881215 0.05795897 0.034817368
0002a0 1a c3 1a 3d 8a a3 2c 3d 84 a3 c8 3c 49 b6 9e bc
       0.03778372 0.04214815 0.024492033 -0.01937403
0002b0 c1 a2 84 bc d6 d0 14 3d 74 83 70 3b 30 13 8d 3d
       -0.016190888 0.036331974 0.0036699446 0.06888425
0002c0 51 88 0c bd 2c 92 4c 3d 0d 86 0f bb 91 be a1 bd
       -0.03430969 0.049944088 -0.002189997 -0.07897676
0002d0 28 5c 58 3d 3e 44 86 3c 8c 95 0b bd d4 ab e1 3c
       0.052822262 0.016389962 -0.034078166 0.027547754
0002e0 47 97 94 3c f2 e4 0b bd cc 43 76 bd 3c 02 fd bc
       0.01813854 -0.034153886 -0.06012325 -0.030884854
0002f0 f4 c9 6a bd 01 cf 63 3d ed c5 5b bd f0 08 a4 bc
       -0.057321504 0.055617336 -0.053655554 -0.020023793
000300 33 4a 77 bd 3f 43 ab 3c ea ab 1b 3d 5b fb 95 3c
       -0.060373496 0.020906089 0.038005747 0.018308332
000310 80 3f 7d 3d c7 22 fd bc 79 89 11 3d 46 c1 f8 bc
       0.061828136 -0.030900372 0.035531495 -0.030365597
000320 4c cd 3a 3d dc b3 77 3d cb 03 c1 3c e5 ff 2d 3d
       0.045605943 0.06047426 0.023561379 0.04248037
000330 46 3d 82 3b 5d 41 30 3d 04 db e0 bc 40 51 61 3d
       0.0039745895 0.043031085 -0.027448185 0.055009127
000340 1f 37 ec bc c8 cd df bc 00 c5 84 3d f8 44 63 3d
       -0.028834878 -0.027319804 0.06482887 0.055485696
000350 f4 09 10 3b 7d 87 9d bb b2 2c 92 bc b3 6d 68 3d
       0.0021978589 -0.004807411 -0.017843578 0.056745242
000360 f3 1e 8f bb 45 51 d6 3c ec a3 00 3d a1 a1 aa 3c
       -0.004367703 0.0261618 0.031406328 0.020829024
000370 c1 6d 55 bd 03 84 2a bd 0f 24 43 3c 8e 26 5b 3d
       -0.052106623 -0.041629802 0.0119104525 0.053503565
000380 07 1c 1a bc db 23 38 bd d3 e0 4d 3c 92 1c 83 3d
       -0.009406096 -0.04495607 0.012565809 0.06401934
000390 c9 f7 7e 3d 67 70 4d bd 23 4d 87 3d 9a 39 75 3d
       0.062248025 -0.050156023 0.066065095 0.059869386
0003a0 75 d9 93 bc 90 e8 f6 bc 5e 2e 56 3d c8 18 31 bd
       -0.018048028 -0.030140191 0.052290313 -0.043236524
0003b0 64 63 8f 3d 54 6d c7 3c a2 34 46 3d 7a 7c 29 bd
       0.07001379 0.024344124 0.04839004 -0.041378476
0003c0 39 1e 88 bd f7 d7 8a 3d 29 79 51 bd b4 84 0d 3d
       -0.066463895 0.06779473 -0.051140938 0.034550384
0003d0 52 78 44 bd 14 0e 87 3c 2a 40 34 3d 06 4a b4 3c
       -0.04796631 0.016486205 0.044006504 0.022007953
0003e0 d3 f2 5b bd 4a 5c 3b bd fe d3 31 3d 61 c0 2c bd
       -0.053698372 -0.04574231 0.043415062 -0.042175654
0003f0 02 0f 6c 3d 1f de a7 bc bb fb e8 39 0b 40 6c 3d
       0.0576315 -0.020491658 0.00044438042 0.057678264

fc4.bias f4 [2]
000000 ac 64 d6 bc db d5 84 3d
       -0.026171051 0.06486102
