pitch_snn.pth (torch, 577734 bytes, 8 tensors)

fc1.weight f4 [256, 40]
00000000: 6700 fdbd 2e6e 8fbc 0917 3cbe 2af1 c3bd
00000010: dbec 21be 245b dbbd 6b40 70bd 3801 3fbe
00000020: d49d c7bd 2b54 0f3e 583f 963b 99de fa3d
00000030: 69ef f43d 99f7 e0bb f394 b73c d84c 733d
00000040: 39af 093e ecc3 463c 154a ac3d 8893 d4bd
00000050: ce5e d53d ad58 0b3e 6cc8 023e 078f 433e
00000060: 7d5f 843e ba06 5c3e 07a9 c23c 0952 bf3b
00000070: 7ff7 03be 29c6 fc3d 5ae1 e5bd 7ef3 7c3d
00000080: 8985 1ebd f974 04be e710 38bd 17b6 483e
00000090: 0972 33bd 3e15 a83c 07a7 a6bb 6afb 193e
000000a0: aff4 95bd 8dfa b63c 0bcf 0d3d ba26 963d
000000b0: 6df2 ddbd d42e 8ebd cdf8 71bd f038 72bb
000000c0: 3e2c 2c3c fd3d 063d b4c1 10be 9ece c1bd
000000d0: 046c 003e 103f 9f3c 7f54 233e b432 9d3d
000000e0: 5314 0ebc d19a 9c3d f624 2cbd 58f0 f8bc
000000f0: 13ea ce3d c045 b3bd b2ca 6cbd c275 b3bd
00000100: 4904 f1bd 0e76 d4bb 1ceb abbd c132 643d
00000110: 702b a4bc 6157 f63c b5d9 fe3d 0c58 14be
00000120: 1971 6cbd 1537 87bd 4e26 f3bd 35d8 9abd
00000130: 0462 17bd 0b47 a0bd 371a 1a3e 3829 87bd
00000140: 4c19 133e 9410 0d3d 32dd f43d ecc3 1c3e
00000150: db20 96bd ee51 7dbd 2e2c 27be d6c9 383d
00000160: e24b e63b 9258 fe3d a123 0f3d 01c2 55bd
00000170: 34b9 cb3d 0451 c13d e1fa 003e 3750 b9bd
00000180: deb3 fa3a ff2c 89bd c7b6 183e 743c 0d3e
00000190: beaf 2cbc 07d7 fe3c 7bac 023e 12cc 0b3e
000001a0: ac2d 153d fd63 283e ae4f 01bd 4771 f2bd
000001b0: c5a4 fb3d 6417 b73d e263 2b3d 49e7 a33c
000001c0: 9dc4 003e 77fe c43d 6ce6 183c 4eac 88bd
000001d0: c641 5fbd 3ffa 22bc 1b0c 4d3d faf5 68bd
000001e0: 81c2 093e a169 ce3d 6e8f 5dbd 3ca4 4b3d
000001f0: 763b 80bd 3a9c 33bd a216 6b3d 7167 86bd
00000200: c4dd a9bd bab2 cabd d14b 173e dec4 bf3c
00000210: df53 acbc 9f8e b63d 010b 57bc c9c0 25bd
00000220: d7d3 80bd 498a d63d fbd6 92bc bb2e 813c
00000230: e2a3 bbbc df58 983c 3fa4 5fbc 50f4 d23d
00000240: f50d 00be 6d03 ba3d 5bd2 723d 4c28 9d3c
00000250: da56 b03d 4c8e 6fba d3a6 08be c6c5 09be
00000260: f74c 84bd f204 15be 38fc 813d dfe8 153e
00000270: bfc9 26be ad3d 27bd a6e2 fb3d 7012 2ebd
00000280: 8bf9 0c3e d47f 173e 7bbb e33d ee84 2abd
00000290: 8036 35bd 49e8 0c3e ed1e 413c 8070 893d
000002a0: ef5f bf3c 301d 93bd acd7 263e 4c2a 6cbc
000002b0: e014 263e 5e1b c8bb aeed 3e3d b02e 89bd
000002c0: d0a6 263e 2410 0ebd a778 29bd 1f8a d3bd
000002d0: 7571 943c 0833 93bc f428 c3bd 0503 5fbd
000002e0: 9b5f 033e 7dbc 813d 826c 153d bb14 00be
000002f0: 626e a5bd 9eb4 30bc 5371 333c e5cc 923c
00000300: 4296 41be b11d 40be 163b 013e e4cd 0b3e
00000310: fb1d bd3d 3cd3 803d aa6a 2fbc 0b3f d2bd
00000320: 467d 1a3e 3db9 da3d c6c1 11be 46cd 6e3c
00000330: befc 31be bca1 a2bd f23e d93d d5fc 2b3e
00000340: 0303 0c3e a64b 8cbd 42e7 8cbd 7a8f a63d
00000350: fe67 4d3e 3a24 093d 195f 2dbd f027 5a3e
00000360: dd84 fbbd 14b3 f23d aa47 cbbd 5929 80bd
00000370: 2621 f2bc 53b5 52bd bd67 1abe 3be3 ca3d
00000380: eddf 573c ab36 1e3e 3de9 b03d 3929 0a3d
00000390: 1f18 6a3d ed54 d6bd c183 24bd 45aa a1bd
000003a0: 4656 24be f2de eebc d269 5fbe ed3a a6bd
000003b0: e25b 2d3d 1734 a6bd 0c65 6abd 5e9d a23c
000003c0: df36 01be fbc7 113d 3777 c93c 3df3 c03d
000003d0: 5057 26bd e676 7e3d 137f 3b3e 5a4e 443e
000003e0: 1f82 163e ed3e b13d 8367 80bd e4a6 48bd
000003f0: 46bc 3bbb 2eaa be3c a128 83bc a569 b6bd
-0.12353592 -0.017508592 -0.18368162 -0.09567483 -0.1581301 -0.10710743 -0.058655184 -0.18652809
-0.097469 0.13996951 0.004585188 0.122494884 0.11959726 -0.0068654534 0.022409892 0.059399456
0.13445748 0.012131672 0.084125675 -0.10379702 0.10418473 0.13608046 0.12771767 0.1909753
0.25854102 0.21486941 0.02376224 0.005838637 -0.12887381 0.123424836 -0.11224623 0.06175565
-0.038701568 -0.12935247 -0.044937994 0.19600712 -0.043809924 0.020517942 -0.005085829 0.15037313
-0.0732206 0.022336269 0.03462128 0.07331605 -0.10837255 -0.069425255 -0.059075166 -0.0036960207
0.010508595 0.03277396 -0.14136392 -0.09463237 0.12541205 0.01943925 0.15950201 0.076756865
-0.008671838 0.076467164 -0.042027436 -0.030388042 0.1010324 -0.08753538 -0.057810493 -0.08762695
-0.117683955 -0.0064838 -0.08394453 0.055712465 -0.020040244 0.030070962 0.12443868 -0.14486712
-0.057725046 -0.06602303 -0.118725404 -0.075607695 -0.03695871 -0.0782605 0.15049063 -0.06599659
0.14365119 0.03443964 0.11956252 0.15309113 -0.073304854 -0.061845712 -0.16325447 0.04511436
0.007028089 0.12419237 0.034946088 -0.05218697 0.09947434 0.09439281 0.12595703 -0.09048503
0.0019127091 -0.066980354 0.14913474 0.13792592 -0.010539947 0.031108392 0.12761109 0.13652065
0.03642051 0.16444393 -0.03157013 -0.11838012 0.12287287 0.08940008 0.041843303 0.020007746
0.12575002 0.09618848 0.009332281 -0.066734895 -0.054506086 -0.009947359 0.050060373 -0.056875207
0.13453104 0.10078741 -0.054091863 0.049717173 -0.06261341 -0.04385016 0.05739463 -0.06562699
-0.082942516 -0.09897371 0.14775015 0.023409303 -0.021036087 0.089139216 -0.013125182 -0.040467057
-0.06290405 0.104755946 -0.017924776 0.015769353 -0.022905294 0.018597065 -0.013649999 0.10300505
-0.12505324 0.09082685 0.05928264 0.019184254 0.086103156 -0.00091383304 -0.13344888 -0.13454351
-0.064599924 -0.14552668 0.06346935 0.14639615 -0.16287898 -0.040830303 0.12299089 -0.042498052
0.13767068 0.14794856 0.111197434 -0.041630678 -0.04424143 0.13760485 0.011787158 0.06710911
0.023361174 -0.071833014 0.1629321 -0.014414381 0.162189 -0.006106778 0.046613388 -0.06698358
0.16274571 -0.03468336 -0.04137483 -0.10329079 0.018120507 -0.01796867 -0.095292956 -0.05444624
0.1282944 0.063347794 0.036480434 -0.12507908 -0.080776945 -0.01078525 0.010952312 0.017919967
-0.18904975 -0.18761326 0.12620196 0.1365276 0.09234234 0.0629029 -0.010706583 -0.10265931
0.1508685 0.10679863 -0.14234075 0.014575308 -0.1738157 -0.07941005 0.10607709 0.16795667
0.13673024 -0.06850366 -0.068800464 0.08132835 0.20059201 0.033481814 -0.04232702 0.21304297
-0.12281201 0.11850563 -0.09925778 -0.062578864 -0.029556822 -0.051442456 -0.15078636 0.09906622
0.013175947 0.15450542 0.08638237 0.03373072 0.05715191 -0.10465417 -0.040164713 -0.078938045
-0.16048536 -0.029159043 -0.21817711 -0.08116708 0.042323954 -0.08115404 -0.057225272 0.01985043
-0.12618588 0.035591107 0.024592979 0.09421394 -0.04061061 0.06212511 0.18310194 0.19170514
0.14698075 0.0865458 -0.06269743 -0.048987284 -0.0028646155 0.023274507 -0.016010584 -0.08906869

fc1.bias f4 [256]
00000000: e9a6 77bd a883 10be 56bd f63d c707 283e
00000010: ce2c c43c 07c8 883d 9d56 283e 9c1b 6fbb
00000020: d144 4abd 2aa3 2bbe 0115 ebbd d40a bb3d
00000030: 6b9b afbd 35b5 e8bc f734 e53d d9a2 4d3d
00000040: 9c75 a03d ef3c f7bb 9c72 d03d 9a0e c0bd
00000050: b888 283d 1e06 ab3d bb4c 3e3d cf24 0cbe
00000060: d50c 893d e08f e23d c279 67bd 0b1d 36be
00000070: 02bf 05be 3e22 823d 4549 7dbc 413c 3e3d
00000080: 7dcf 9fbd bc74 303e 3d90 b03d ee2f d8bd
00000090: 184b 0abe 214f 833d 62eb 6d3d e2a2 f33d
000000a0: 1b6d a03c dd29 30bc 8129 cd3d 58f6 1a3e
000000b0: 3a97 e73d f5f5 ff3b b7b6 42be 2f42 743d
000000c0: db1a a2bd e602 0fbe d2e0 cb3d 2a35 32bc
000000d0: 27ad f03d fd68 153e d0c1 f03d 1578 23be
000000e0: 7232 e0bd 3bb4 763d d304 7e3c 1179 153e
000000f0: 3764 be3b bb99 933c 3a54 dabc 796c 17be
00000100: 938b 183e f06b efbc e11c 13bd 6451 ef3d
00000110: d1cf 1fbd 2ee2 ec3d 751e 60bb e71e cdbd
00000120: 7a5e 873d d545 233e e3a7 dbbb 7803 4f3e
00000130: 5a82 8bbd ef88 903c dc52 29be c176 213c
00000140: 565b f6bd c91f 053e 9bf2 a3bc 653f 25be
00000150: 1879 6e3d 24e3 f73d 8e28 f0bd 16a4 a2bc
00000160: 0a0b ee3c 635e 9a3d ddad 73bd f855 2cbe
00000170: 96be 683d e00b c8bd 5c13 acbc 0c55 f13d
00000180: 121a 873d 6758 ad3d ef20 1e3e da4e 3a3b
00000190: 9104 e2bd cadc 06be 3b67 e83d f438 933d
000001a0: 75c7 b53d 0958 8cbd 5be1 e23c ef5c 4fbc
000001b0: b117 7fbd 49e1 7a3d 6908 f6bd b179 42ba
000001c0: ee6f 87bc ad0b d3bd dfdb 413d 4802 2b3e
000001d0: 008c bfbc 5479 b23c 4cd0 c03d 7eef e0bd
000001e0: c5eb adbd fe6a 4ebd 91d6 b63d 7758 9b3d
000001f0: c38c b4bd 0b39 5d3c 0eea b8bd 3eb3 993d
00000200: 24ad a7bd a90c e6bd 8f9f 273e c697 133e
00000210: 3257 283e e742 f73d f021 c3bd b211 113e
00000220: 1c64 2cbe f626 963d 685c e4bd 22bf 8d3d
00000230: ee08 9d3d 4788 41bd 0f7f 3c3e b91a a33d
00000240: 001f 05bc 07f0 803d 393a 863d 66ae b1bd
00000250: 7936 483d 5de3 963d aedc 97bd 8f9a 3a3e
00000260: c77e 07be 05f4 253e 0edd fb3d 14d2 703d
00000270: 6d66 cb3d 8e7c 4c3c 23c6 513d b57c 9bbd
00000280: f3ec 7f3d b358 43bd cd65 05be 6bb0 4abd
00000290: 37c8 8bbd 1cc6 6e3d 32dd c23d 0aaf 12be
000002a0: f9f1 9ebd e75a 243e db3a 1abe 277f 10be
000002b0: 499d 8a3d d7d6 ae3d f025 133e c62f 04be
000002c0: 1ffd 133d 7db4 fabd 10d1 06be 1166 c63d
000002d0: 84a3 893d da0d 78bd 15a8 253e 0712 c03c
000002e0: 640b 7b3c 591f b1bd 0048 d6bd 6454 ddbd
000002f0: 717c a73d 2c06 093d fa04 16be cd44 eabd
00000300: 55c3 96bc 2c8f cbbd e025 7e3d 12c1 68bd
00000310: 13f2 483d 2ab8 0bbe 27b9 163c 666e 64bd
00000320: 27e5 573d 0c30 0a3e 7486 e4bc 8b0b a93b
00000330: a9c3 61bd b74f debd 2451 51bd cc79 dbbd
00000340: 1b6a 0a3e 40e1 ba3d 6156 0a3d 8e9a b9bd
00000350: 3908 69bd 7f54 f73c 35fd 89bd cd86 5ebd
00000360: f950 05be 18fc 783d 5e67 6bbd 0e06 d9bd
00000370: 4533 c3bb b0ea 183e 2fb7 55bb 2a64 02be
00000380: de9f 083e 1ecb 02be bb5e e63d 9d71 1c3e
00000390: 58c6 abbd bf3c 943d cd03 15be f803 f6bc
000003a0: 67d0 0e3e b57a af3c 8c25 75bd a818 59bd
000003b0: 8bf1 64bd 155d 073e cb51 fb3d bd83 70bc
000003c0: 7e3c 93bd 3da4 38bd 286e dcbd 925e 6fbd
000003d0: 541b 9bbc 3460 033e 694c e4bd 2fa2 373e
000003e0: 8d9e de3d b763 52bd f092 23be 54ec 003d
000003f0: 7674 4e3d 94f8 ab3d f199 9dbd 4923 a13d
-0.060461912 -0.14112723 0.12047832 0.16409217 0.023947146 0.06678777 0.1643929 -0.0036484962
-0.049382035 -0.16761461 -0.114786156 0.09132925 -0.085745655 -0.028406719 0.11191743 0.05020413
0.07834932 -0.0075451056 0.1017811 -0.09377785 0.04114601 0.08350776 0.046459895 -0.13685916
0.06691901 0.11062598 -0.0565126 -0.17784517 -0.13061145 0.063541874 -0.015459363 0.04644418
-0.07803247 0.1723203 0.08621261 -0.10556017 -0.13505208 0.06411577 0.058085807 0.11896302
0.019583276 -0.0107521685 0.10017682 0.15133035 0.11308141 0.007811303 -0.19015013 0.05963343
-0.079152785 -0.1396595 0.099549904 -0.010876933 0.11751776 0.14590831 0.11755717 -0.15963776
-0.10947122 0.060230475 0.01550408 0.14596964 0.0058102864 0.01801764 -0.02665149 -0.14787473
0.14896993 -0.029226273 -0.035916213 0.11685446 -0.03901655 0.11566578 -0.0034197841 -0.1001566
0.06609817 0.15944608 -0.0067033633 0.20216167 -0.06811972 0.01764342 -0.16535515 0.009854973
-0.1202914 0.13000406 -0.020013144 -0.16137464 0.058220953 0.121038705 -0.11726485 -0.019853633
0.029057998 0.07537534 -0.05949198 -0.1682967 0.056822382 -0.0976789 -0.021005325 0.117837995
0.065967694 0.08464127 0.1544225 0.0028428347 -0.11036027 -0.13170162 0.11347815 0.07188597
0.08875934 -0.06852729 0.027695348 -0.012656434 -0.062278453 0.061250005 -0.12013323 -0.0007418646
-0.016532864 -0.10304961 0.047328826 0.16700089 -0.023382187 0.02178637 0.094147295 -0.109831795
-0.08492235 -0.050395004 0.08927644 0.07585233 -0.08815911 0.01350237 -0.090290174 0.07504891
-0.08187321 -0.112328835 0.1636946 0.14413366 0.16439512 0.120733075 -0.095279574 0.14166906
-0.16835064 0.0733165 -0.111504376 0.06921221 0.07667719 -0.047249105 0.18407844 0.07964081
-0.008125067 0.062957816 0.06554074 -0.08675842 0.048880074 0.07367585 -0.07415138 0.18223022
-0.13231955 0.16206367 0.12298022 0.058794096 0.099316455 0.012480868 0.05121435 -0.07592145
0.06248183 -0.047692012 -0.13027115 -0.04948465 -0.06825297 0.0582944 0.09514846 -0.14324585
-0.07760996 0.16050301 -0.15061514 -0.14111005 0.06768281 0.08537071 0.14369941 -0.12908849
0.036130067 -0.12241457 -0.13165689 0.09687436 0.06720641 -0.060560085 0.161774 0.023446096
0.01532254 -0.08648557 -0.10462952 -0.10807112 0.08178032 0.03345315 -0.14650336 -0.11438904
-0.018403688 -0.09939417 0.06204784 -0.05682475 0.049058985 -0.13644472 0.009199417 -0.055769347
0.05270877 0.13494891 -0.027896143 0.0051588467 -0.055118237 -0.10855048 -0.051102772 -0.1071659
0.13517039 0.09124994 0.033773784 -0.09062682 -0.056892607 0.030191658 -0.067377485 -0.054327775
-0.1301917 0.06078729 -0.057471626 -0.10596858 -0.0059570395 0.14933276 -0.0032610407 -0.12733522
0.13342234 -0.12772796 0.11248537 0.15277715 -0.083874404 0.07238149 -0.14552231 -0.03003119
0.13946687 0.021420816 -0.05985026 -0.05300203 -0.055894416 0.13219102 0.1227146 -0.014679846
-0.07189272 -0.045078505 -0.10763198 -0.0584398 -0.01893393 0.12829667 -0.111473866 0.17932962
0.10870085 -0.051364627 -0.15974021 0.03147538 0.050404035 0.08397022 -0.076953776 0.07868058

fc2.weight f4 [256, 256]
00000000: d0e9 47be 48ec 5a3d deef 73bb e0b7 95bb
00000010: 1a6d 2e3d fb5d 20bc 7b46 d03c 830b 7e3c
00000020: 64d1 04bd 70d4 de3b 25b9 7b3d ec11 8f3c
00000030: 7e3d d33d 79a3 f6bb 67de 9ebb ac06 84bd
00000040: aa3e d63d 860f 463d 57eb e0bc 596c 1dbc
00000050: 9b78 8d3d 0234 9ebd 4ee9 183d b889 853c
00000060: db0e 4c3c a94d fb3c 00de dabc fd1e ff3d
00000070: 1bf8 0ebc b6cf 3abe e254 8d3d 76d1 d7be
00000080: 6e47 053a f974 f93c 883b cabc fdde b3bb
00000090: f83e 543c 980a 643c 1034 3ebd a4f0 4fbd
000000a0: 2eb4 90be 7101 c43d 6c49 373c 3e08 043d
000000b0: 4268 f239 2636 2fbd 2046 bf3d 8e09 8c3d
000000c0: 1810 d83c e619 85bc d121 21bc 3fc4 b33c
000000d0: b504 033d ffc3 c63c e921 413d 926f 63bd
000000e0: 36f0 ffbb 464f 21bd 19a0 d93d ccd5 823c
000000f0: 378e eb3c 17cc 893c e69a f83b 91b3 883d
00000100: 1eb3 49bb 13c2 48bd d6f4 363d a3a0 63bc
00000110: 57c4 833d 6b1a 203d dc81 8fbc fd1f 533d
00000120: bee2 233d 1c9a a13d 685c 32be a302 643d
00000130: da08 3c3d 3efa 853d 6174 253e bb11 743c
00000140: 5db4 e9bc 899b b43d 7f5d aa3c 97d1 223c
00000150: c5b2 b1bb 64d8 1d3d 7cd1 263d 7b66 00bc
00000160: 8283 c9bc e35a ddbd 8ac6 8f3c 1e80 b13d
00000170: ca66 fc3d 8fe2 123d e921 7e3c 4263 00bd
00000180: 6629 843d c2f7 8d3d 0115 f0bb ff78 8bbd
00000190: 95c8 a4bc 4717 7c3b 8320 9f3d 53a7 693d
000001a0: f0d9 8d3d 0804 103e 1160 52bc 9be6 90b9
000001b0: a821 173d f53b 953d 5295 c1bd 381b a2bc
000001c0: d952 e93d 57a1 663d dbec 253d 8abe fabc
000001d0: 1cee 563d 979d 15be 2a06 43bc 023d 75bd
000001e0: 56ec 303d 2106 273d b68e 3b3d 3f46 11be
000001f0: f9a1 03bd 9bae 2e3d 9f58 203d a0d9 813d
00000200: 451d 513b 74c7 413d db18 2fbc 6656 b53c
00000210: a59f 523d 24a2 633d f9be 943c 4204 2e3b
00000220: b856 5a3c 481e 803d 9f4b 263d 447d a43c
00000230: 5d51 2dbd 7a4a 183d d120 443d 145a dbbc
00000240: fc38 923c 7db1 4fbd fcbc 51bd 8902 173d
00000250: 8e2a bc3c aea9 c23d 36ef 593d 466e 6c3d
00000260: 8ec7 aebc 2b40 0c3d b2c9 a4bc 54fc 0c3c
00000270: 2e80 d9bb 6936 a63c 4a71 20bd 1159 233c
00000280: fa12 053d 996a 86bc cc36 ac3a 3568 67bc
00000290: 1d8c 613d cfcf f9bc e0c0 1dbd b8b9 34bd
000002a0: 30ce a0bc 7c9a 9b3d 4cad 703d 9c22 833c
000002b0: 058a cc3d 7df2 703d 5b38 c63d 4f10 023d
000002c0: 7427 edbd e6f3 223d 435c 6a3c f8b9 363d
000002d0: b8d2 17bb 1d60 c13d 64c3 2ebd 03b4 b3be
000002e0: 3aa8 ee3c f605 213d 2e2f ab3c c75a 8ebc
000002f0: 8ec9 1bbd 9901 053e 347a 34bd c107 98bd
00000300: 9303 de3c 6a61 c9bc 5a42 a13d dd7d ae3c
00000310: fa85 8dbc 00e6 1bbd 85da 293b f2d3 5cbd
00000320: c044 893d b3cc 9abd 67e9 5b3b 3d1c 9abe
00000330: b792 33bc 03c1 68bd 7f7d 11bc 60ca 2ebb
00000340: 6b5f 453d 4bdc 913d b3c5 1abd 5dee 51bc
00000350: aac2 b6bd 6721 db3c 795c 74bc 054d 8c3c
00000360: ef9c 27bd e1c8 8e3d 5e64 363d 0aac 7f3c
00000370: 4a52 b7bd bd8a 8b3d dfee 8a3c acda 83bc
00000380: 5e90 cc3c fe26 e4bd e94f 23bc 8ede ef3c
00000390: 0c95 073d c541 d93c 0683 2dbd bf02 a1bd
000003a0: 8fc6 3abc b159 8a3d e273 2ebd 3eef 57bd
000003b0: 1054 25bd c805 59bd fd02 ad3d 4f03 543d
000003c0: 1fcd 0fbe b69f ba3d 16e4 37bd b056 cd3c
000003d0: 4cf3 283d eae4 d83b 629a 323d 8b12 1d3d
000003e0: f479 c0bb 19be 953d 67a9 df3c adc1 2bbd
000003f0: a139 8a3d e111 11bc 00de 61bb 207f 453d
-0.19522786 0.05344799 -0.003722183 -0.0045690387 0.042584516 -0.009788032 0.025424233 0.015505674
-0.032426253 0.006800227 0.061455864 0.0174646 0.10314463 -0.0075268117 -0.00484829 -0.06446585
0.10461171 0.048354648 -0.027455969 -0.009608352 0.06907769 -0.077247635 0.03733187 0.016301021
0.012454714 0.03067668 -0.026717186 0.124570824 -0.008726145 -0.18243298 0.06900956 -0.42151994
0.0005084191 0.030451285 -0.02468659 -0.0054892288 0.012954466 0.013918541 -0.04643637 -0.050766602
-0.28262466 0.095705874 0.011186939 0.032234423 0.00046235515 -0.04277625 0.09339547 0.0683776
0.026374862 -0.0162477 -0.009834723 0.021944163 0.03198691 0.02426338 0.04715148 -0.055526324
-0.007810618 -0.03938224 0.10626239 0.015971087 0.028754337 0.01682095 0.0075868247 0.066748746
-0.0030776928 -0.04901321 0.044667087 -0.013893279 0.06433933 0.039087694 -0.017517976 0.05154418
0.04001116 0.07890722 -0.17418063 0.055666577 0.04590688 0.065418705 0.16157676 0.014896805
-0.028528387 0.088187285 0.020796536 0.009937665 -0.0054229223 0.038536444 0.040727124 -0.007836933
-0.02459884 -0.10808351 0.017550725 0.086670145 0.12324293 0.035860594 0.0155110145 -0.03134466
0.064532086 0.06932022 -0.0073267226 -0.068101875 -0.020115176 0.0038466023 0.07769873 0.05704434
0.06926334 0.14064038 -0.012840287 -0.00027637635 0.03689733 0.072868265 -0.09452309 -0.01978837
0.11392755 0.05630621 0.040509086 -0.030608434 0.052473173 -0.14610897 -0.011903325 -0.059872635
0.043194138 0.04077733 0.045790397 -0.14186953 -0.03213689 0.042646986 0.039147016 0.06340337
0.0031908315 0.047309354 -0.010687078 0.022135925 0.05142178 0.05557455 0.01815747 0.002655283
0.013326339 0.06255776 0.04059946 0.020079263 -0.042313922 0.0371804 0.04788286 -0.026776351
0.017849438 -0.050706375 -0.05120562 0.036867652 0.02296951 0.0950502 0.053206645 0.057722352
-0.02133539 0.034240883 -0.020115707 0.008605082 -0.0066375947 0.020289617 -0.03917054 0.009969966
0.0324888 -0.016408252 0.0013138889 -0.014123966 0.055065263 -0.030494599 -0.038514018 -0.044122428
-0.019629568 0.07597825 0.05875902 0.016007714 0.09987263 0.058825005 0.09678718 0.031753834
-0.11579791 0.03978338 0.0143042235 0.044610947 -0.002316637 0.0944216 -0.042666808 -0.35098276
0.029132951 0.039312325 0.02089652 -0.01737727 -0.038034014 0.1298889 -0.044061854 -0.07423354
0.027101314 -0.024582583 0.07873984 0.02130025 -0.017275799 -0.038061142 0.0025917601 -0.053913064
0.06702566 -0.075585745 0.0033555867 -0.3009967 -0.0109602725 -0.056824695 -0.008880018 -0.0026670918
0.0481867 0.07122096 -0.037786197 -0.012813178 -0.08923848 0.026749326 -0.014914625 0.01712657
-0.040921148 0.06971908 0.04452931 0.015604982 -0.08951242 0.068135716 0.016959606 -0.016095482
0.024971183 -0.1114025 -0.009967783 0.029280927 0.033101127 0.02652062 -0.04236128 -0.07861852
-0.011399879 0.067553885 -0.042590983 -0.052718394 -0.04036337 -0.05298403 0.084478356 0.051760968
-0.14043091 0.09112494 -0.044895254 0.02506575 0.04124765 0.0066190856 0.043604262 0.038347762
-0.005873913 0.07311649 0.027302457 -0.04193275 0.06749273 -0.00885436 -0.0034464598 0.04821694

fc2.bias f4 [256]
00000000: 9d8c 383d 2668 d03c a1a9 463d 9207 923d
00000010: 5739 66bd eeab e43c 7192 fb3c 202b 4d3d
00000020: 93b8 183d 5d1b 16bc 0088 bcbb 208f 513d
00000030: fb8b f3bc 5c92 9e3c 8a8a 56bb a878 b3bd
00000040: bc71 50bc 8edb 58bd b801 09bc 29c3 7abd
00000050: d0c4 4bbd 6617 00bd 14c7 433d f108 713d
00000060: 05b7 5a3d d3ab 393d 6fdb 103d 1b3a 4f3d
00000070: 5c6b 08bd fafb 0cbc 7191 7a3d d927 033d
00000080: 809f 0ebd 6c0b a43d f837 70bd ee75 403d
00000090: b913 38bd bfce 31bd 14d8 bdbc fe7b 623c
000000a0: c471 263d 4091 7cbd 6b17 523d f9b5 63bd
000000b0: 8e82 99bd 4071 51bd 0fe7 c0bc 2f6a 943d
000000c0: e1b6 553d 67e8 5a3d 4fd7 2f3d 7abb eb3c
000000d0: 02ec 4a3d ff8a 063b b7af 653b 5116 233d
000000e0: 52ae 04bd 994d a9bb c4c3 963d 46d8 5b3d
000000f0: 6a6b 8f3d f2ab 593b af14 4cbb 8b3c 213d
00000100: 10e4 7c3d 7df2 633d 4ac8 403d b89c 3e3d
00000110: c9e2 b03c ff8c 213d d55c 263d 6ae0 563d
00000120: 7044 3bbd 8a01 073d 28f9 dc3b c236 1fbd
00000130: 3e08 343d 6d4f 17bd ee73 6abd 3550 f93c
00000140: be53 d03c a23e f53c 17bc e43c c1fa 24bd
00000150: 88e4 203d 326d 10bb d131 473c b21d 6a3d
00000160: ac14 883c 5f08 3ebc 92f1 49bc 68be 53bd
00000170: 3f86 56bc b59f 43bd acc9 0f3d db32 f83c
00000180: 5994 13bc 62ef ed3b 2e13 173b 1942 2bbd
00000190: bc14 21bd 7153 d5bc 19b7 9b3b 399b 293d
000001a0: f3f5 a23c d6bc 70bd 45b2 f53b eb0c 0d3d
000001b0: cf66 14bd 58e5 063d b33f 243d 55e3 3a3d
000001c0: a697 6e3c 1634 783d a4aa b83c e4d6 0b3d
000001d0: 7754 14bd 40c6 9cbd 9de8 673d 48ab 1d3c
000001e0: ea5c 893d 89d1 c6bc c879 42bd 1cbb 90bd
000001f0: 72ef 243d 8977 fa3c 33d7 8d3c d461 78bd
00000200: d4d9 b8bc d5a6 1abc 37a0 6e3b 65a6 543c
00000210: 6d17 513d 3955 90bd a552 913d e9dd 2f3c
00000220: bc8f bd3c caad 663c 3fcc 91bc d2fd 15bc
00000230: f5dc 85bc bde8 84bc f322 843b 7ab9 3bbd
00000240: d82e 63bd 6254 873c e7d3 723d e756 3e3b
00000250: 641e 50bd a759 823d 2bec 573c 9ee8 5c3c
00000260: d93e c139 493a 3ebd 3e14 983d 8127 8a3c
00000270: 26ca 5d3d 86dc 21bd 72cd f93c 560a f0bc
00000280: 8eb1 37bd 2494 35bd 8164 2abd 18a2 883b
00000290: c92e 883d c85c 8ebd 5f73 e93c 26d8 1136
000002a0: 1423 b6bc 7cfd b2bc 8058 16bd cd7a 823d
000002b0: 61a7 42bd bc83 6b3c e244 36bd 1cbc 2ebb
000002c0: 7d1b 7bbd 34f9 44bd d72e 163d 14c5 be3c
000002d0: 9c74 f3bc 9a11 e73c 28b0 a3bb f16d 823d
000002e0: 9a57 603d 5228 92bc dede f1bc 014d 863d
000002f0: ac82 12bd 7546 903c 5467 283d 233b 703d
00000300: 4a37 2abd 7157 0a3d 66da 8cbc 1568 8b3d
00000310: c714 853d c139 8d3d c132 703d 08e8 b0bc
00000320: 3ab4 21bd 516d 143d 59ad 7b3c 15d5 0b3d
00000330: 426e 49bd 202e f43c e32b 8b3d 630b 58bc
00000340: 0dd8 ad3c 3eee 15bd 6ceb 293c 2ad4 593c
00000350: 0574 843d aa56 243d 1843 10bd 038e 1abc
00000360: 39be 8abc d5e8 01bd 14dc 8c3d fc23 b3bc
00000370: 8a08 893d 71b5 59bc 4232 43bd 785a 413d
00000380: d5bd 5bbd 6e44 ff3c 4801 9fbd bbed 2bbd
00000390: d4df 12bb 677d e0bc 3015 443c df8c 86bd
000003a0: cef8 b13c 2eaa 6b3d dd08 39bd b2ab 973c
000003b0: fd4f e5bc fbe2 e8bb ab02 193d d365 31bd
000003c0: 793b f8ba 6b9d e63c 7cfd e53c 0e72 26bd
000003d0: 89c3 893c 3de7 713d 0b3d 883b 8047 01bd
000003e0: 8e65 28bd 24bf 283d ce41 cd3a cacd dfbc
000003f0: 2de9 613c 9d9d 173d 65d0 5b3d ee39 38bd
0.045055974 0.025440287 0.048501614 0.0713035 -0.056207027 0.027914014 0.030709477 0.050089955
0.0372854 -0.009161797 -0.005753517 0.051161885 -0.029729834 0.019356899 -0.0032736384 -0.08763248
-0.012722429 -0.05294376 -0.008362226 -0.061221275 -0.049748242 -0.031272314 0.047797278 0.058846418
0.053397197 0.04532988 0.03536552 0.050592523 -0.03330551 -0.008604998 0.06117386 0.032020424
-0.03482008 0.08009991 -0.058647126 0.046987467 -0.044940684 -0.04341006 -0.023174323 0.013823507
0.04063584 -0.06166196 0.051291864 -0.055593465 -0.074956045 -0.051133394 -0.023547677 0.072468154
0.05217636 0.053444292 0.042929944 0.02877592 0.04954148 0.0020529625 0.003504736 0.039816204
-0.032392807 -0.005166721 0.07361558 0.05367305 0.070029095 0.003321406 -0.0031140258 0.03936438
0.061740935 0.055651177 0.04706601 0.046536177 0.021592515 0.039441105 0.040615875 0.05246011
-0.045719564 0.032960452 0.006743569 -0.03887058 0.043953173 -0.03694098 -0.057239465 0.030433754
0.025430556 0.029937092 0.02792172 -0.0402782 0.039280444 -0.0022037742 0.012157873 0.057157226
0.01661142 -0.0115986755 -0.012325661 -0.051695257 -0.01309353 -0.04775973 0.03510444 0.030297687
-0.009007537 0.0072612027 0.0023052203 -0.041811083 -0.039326414 -0.026040765 0.0047520516 0.041407797
0.019892668 -0.058773838 0.007498058 0.034436148 -0.03623086 0.032933563 0.04009981 0.045626957
0.014562523 0.060596548 0.022542305 0.034140483 -0.036213364 -0.07655001 0.05661832 0.009623356
0.06707175 -0.024269836 -0.04747942 -0.07066938 0.040267415 0.030574577 0.017314529 -0.06064017
-0.022564806 -0.00943919 0.0036411413 0.012979125 0.05104773 -0.07047505 0.07095841 0.01073406
0.023139827 0.0140795205 -0.017797587 -0.009154754 -0.016340712 -0.01622426 0.0040324866 -0.04583118
-0.055464596 0.016519729 0.059284117 0.0029043497 -0.050810233 0.06364756 0.013178865 0.013483195
0.00036858654 -0.046442304 0.07425736 0.01686454 0.054147862 -0.03951695 0.030493472 -0.029301804
-0.044847064 -0.04433073 -0.041599754 0.0041697137 0.066495486 -0.0695129 0.028497396 2.1732499e-06
-0.022233523 -0.021849386 -0.036705494 0.06371079 -0.047522906 0.01437467 -0.044499286 -0.0026662415
-0.06130551 -0.04808922 0.036665764 0.023287334 -0.02971869 0.028206635 -0.0049953647 0.06368626
0.054771043 -0.017841492 -0.029525217 0.06557656 -0.03576915 0.017611722 0.041114166 0.058650147
-0.041556634 0.033774797 -0.017193984 0.068069614 0.064981036 0.06895781 0.058642153 -0.021595016
-0.039478518 0.036237065 0.0153611535 0.034138758 -0.049177416 0.02980715 0.0679548 -0.013186309
0.021221185 -0.03660416 0.01037107 0.013295213 0.064674415 0.04012171 -0.035220236 -0.009433272
-0.016936408 -0.031716187 0.06877914 -0.021867745 0.06691082 -0.013287888 -0.04765535 0.04720542
-0.053647835 0.03116056 -0.07763916 -0.041974764 -0.0022411244 -0.027403546 0.011967942 -0.06569838
0.021725085 0.057535343 -0.04517447 0.018514488 -0.027992243 -0.0071071363 0.03735606 -0.043309998
-0.0018938623 0.028151235 0.028074972 -0.040636115 0.016816871 0.059058417 0.0041576675 -0.03156233
-0.041112475 0.04119791 0.001565987 -0.027319808 0.013788504 0.037015546 0.053665537 -0.04497712

fc3.weight f4 [256, 256]
00000000: b5e9 21bd 79f3 6d3c a016 bdbd e151 103e
00000010: a224 6fbd 5010 24be 48c9 2bbd a1ac a33c
00000020: 78a4 1bbd f8f1 023e 12c9 bfbc 77b8 143d
00000030: e80a 3d3d d21b 693d 06c4 9f3c 4296 8cbd
00000040: 2b5a 0c3d 5d97 513d 1964 213d d094 c03b
00000050: b021 a8bc b6e8 7f3d 8764 94bd 39b0 563d
00000060: 3349 48bd 21bd 573d 5061 18bd 64ba e43b
00000070: b5f7 84bd 585d 523c 8972 2cbd 4beb ef3d
00000080: a856 51bd 41da 80bd df1a 59bc 7101 6fbb
00000090: 95a5 00bd 7023 333e f578 bbbc 90c0 543d
000000a0: 0589 47bd ad03 ef3c 2b00 96bd a217 2cbc
000000b0: 848c 00be 5b10 efbc 12fe b2bd 0457 93bc
000000c0: b799 c13b cc53 023b ce89 053d 4f59 b8bc
000000d0: f446 71bd 0d27 263d 4b5c 053d 337e bebd
000000e0: 4603 6bbd 2261 4abd 06ad 30bd 0bd9 cfbc
000000f0: 31f2 91bd 1556 33bd 29e9 47bd 3780 893d
00000100: 3566 163d ebda 3e3c cdfa 18bb 3430 4e3d
00000110: 13d0 0a3d c718 1f3c 86f8 9e3c 4d65 0ebd
00000120: 9253 783d 63ef 97bd b1f0 20bc 965a 433d
00000130: 697a 87bc 2f8d d1bc aa62 1bbd 097f 45bd
00000140: 3f44 75bd f8a4 a1bd a0d6 43bd 59ea cdbd
00000150: 265a 54bd 7b13 49bd 6564 c0bc edb4 9fbc
00000160: c9e4 7c3d c7e7 aebc 710e 893d 8004 823c
00000170: 509b bfbd 1c70 1c3e bf5a 88bd 6fec bbbd
00000180: 4f17 d7bc 281d b03d 0039 95bd fda5 31be
00000190: 66c9 783d 1eec 03be 1940 ca3b d836 e63c
000001a0: 4879 053d a6dd 70bc 4a69 15bc 4539 dbbc
000001b0: 13d2 97bd d090 fbbc 0649 9f3b e623 25bd
000001c0: 187b 833c de0d bd3c a752 8fbc a5d3 68bd
000001d0: 09ef 453e 317c 3c3d affd f53c f947 b83d
000001e0: f2ae ffbb 4142 a2bc 4528 c8bc 4c15 59bd
000001f0: 902d 1abd 0e02 26bb ee3f b9bc 7989 773c
00000200: 2cfc d1bc bcef 0b3d a5ff 8ebd c2b9 f7bb
00000210: 85da 023c cbfd 9b3c b73a c7bd 02d1 2abd
00000220: 8d8d 12bd fb1d 1ebe 55e0 b2bc ebab a93c
00000230: 3191 3c3d e029 d4bc 74ae 6ebd ce6f d5bb
00000240: b9be dd3b f220 363d fff1 eb3d 759d 35bd
00000250: e3d7 4d3d ff15 bfbd 7530 093d a7b4 913d
00000260: 399f 6f3d bbf6 29be 890c 583d 17af 6b3e
00000270: 3167 5c3d e827 cf3c 22c0 98bd b181 b1bd
00000280: c387 b6bd e715 f33d ead9 293d c756 f9bd
00000290: 198c b8bd 2b08 c23c 4947 b3bc f4de 703c
000002a0: f494 1ebc 8398 38bd 0a94 7b3c b999 49ba
000002b0: ebfb 2a3d 9c8c 75bd ac63 cebd a776 da3d
000002c0: 3489 4cbd 7c4f 65bd b6a0 b6bd 8458 193c
000002d0: 1353 e63c a15f 18bd 8194 b53d 663d 7bbd
000002e0: 8ccf 98bd 427a 55bc 46e0 0b3d e5e9 4dbd
000002f0: 914f d2bd 9378 33bd b725 e93b 4ddc 5cbd
00000300: d02e 9cbd 311a 9fbd 75b0 cbbc 1b67 553d
00000310: c039 093d 3573 cebd a944 18bc 06da ea3d
00000320: ba47 c7bd 1582 393d dd4d 97bc 5751 8a3c
00000330: 33e6 87bc 4ef0 073e b47d 19bd 5059 8d3c
00000340: 1358 9f3c 35e0 4f3d f0c2 b03d 57a0 ffbd
00000350: 221b f7bd 1f45 acbc a7d1 08bd 1d27 1dbd
00000360: 2bb5 d3bd ab65 d5bd 971f 40bc c208 2bbc
00000370: 1f08 79bd b406 3fbe 006d 3bbd d0dc 8e3d
00000380: e42b 0ebd 0904 0cbe 5817 e33c b830 f3bc
00000390: e36f 3f3d 7405 71bd 6e0e 15bd 32fa 23be
000003a0: 50ad 4b3d d24e b7bd ba8c e93b a04b 053d
000003b0: df09 4dbd 7ec8 49bd 240b bdbd 0ddb 11bd
000003c0: 4ade 39bc 64b8 953c d745 febc a7ef 273c
000003d0: 02ff 2c3d 621a 043e 584a 033e ba8e ab3c
000003e0: cc6d 353d c64a 13be 3315 e7bc 34e3 8d3c
000003f0: afd0 90bd 51e0 c5bc a62f d0bd e249 0ebe
-0.03952952 0.01452338 -0.09232831 0.14093734 -0.058384545 -0.16021848 -0.041940004 0.019979777
-0.037998646 0.12787616 -0.023411307 0.036308732 0.04615298 0.056911297 0.019502651 -0.06864597
0.03426568 0.051169742 0.0394021 0.005877115 -0.020523876 0.06247779 -0.072457366 0.052414153
-0.048897933 0.0526706 -0.03720218 0.0069802273 -0.06492559 0.012839638 -0.042101417 0.117148004
-0.051108032 -0.06291629 -0.0132510355 -0.0036469365 -0.03140791 0.17493987 -0.022884825 0.051941454
-0.048714656 0.029176557 -0.07324251 -0.010503681 -0.12553602 -0.029182604 -0.08739866 -0.017985828
0.005908217 0.0019886373 0.032602124 -0.022503523 -0.058905557 0.040564585 0.03255872 -0.09301414
-0.05737617 -0.04940904 -0.043133758 -0.025372049 -0.071262725 -0.043783266 -0.048806343 0.06713908
0.036718566 0.011648874 -0.0023342848 0.05033894 0.03388984 0.009710497 0.019405615 -0.034764577
0.060626574 -0.07418706 -0.00982301 0.04769381 -0.016537862 -0.025580017 -0.03793589 -0.048216853
-0.059879538 -0.078927934 -0.047812104 -0.10054464 -0.051843785 -0.049090844 -0.023485372 -0.019495452
0.061741624 -0.021350754 0.066922076 0.015871286 -0.093557954 0.15277141 -0.066579334 -0.091759555
-0.026256232 0.08599311 -0.072862625 -0.17348476 0.060738944 -0.1288304 0.006172192 0.028102323
0.032586366 -0.014701283 -0.009119341 -0.026760707 -0.07413115 -0.0307087 0.004861 -0.04031744
0.016049907 0.023077901 -0.017495466 -0.056842465 0.19329466 0.046016876 0.030028192 0.08998103
-0.0078028375 -0.019806983 -0.024433265 -0.052998826 -0.037641108 -0.0025330815 -0.022613492 0.01510846
-0.02563294 0.034164175 -0.06982354 -0.007559986 0.007986669 0.019041916 -0.09727996 -0.04170323
-0.035779525 -0.15441124 -0.021835485 0.02071186 0.046036903 -0.025898874 -0.05827184 -0.0065135723
0.0067671207 0.044465013 0.115207665 -0.044339616 0.050254714 -0.09330367 0.033493478 0.07114535
0.058501456 -0.16598026 0.05274633 0.2301601 0.05380935 0.025287583 -0.074585214 -0.08667315
-0.08912613 0.11869412 0.041467585 -0.121747546 -0.090110965 0.023685535 -0.021884577 0.014701594
-0.009679068 -0.04506732 0.0153551195 -0.0007690448 0.041744154 -0.05994855 -0.10077605 0.106671624
-0.049935535 -0.055984005 -0.08917372 0.009359483 0.028115785 -0.037200574 0.088662155 -0.06133785
-0.074614614 -0.013029637 0.03414943 -0.050271887 -0.10269082 -0.04381616 0.0071150917 -0.053921033
-0.07626116 -0.077686675 -0.024864415 0.052100282 0.03350234 -0.10080568 -0.009293714 0.11467366
-0.09730478 0.04529007 -0.018469745 0.016884489 -0.01658926 0.13275263 -0.037473395 0.017254502
0.019451177 0.05075093 0.086309314 -0.12481754 -0.12065722 -0.021029053 -0.033403065 -0.03836738
-0.103372894 -0.10419782 -0.011726282 -0.0104391 -0.06079876 -0.18654901 -0.045758247 0.069757104
-0.034709826 -0.13673414 0.027721092 -0.029686317 0.046737563 -0.05884309 -0.036390714 -0.1601341
0.04972583 -0.08950581 0.0071273716 0.032542825 -0.050058242 -0.04926347 -0.092306405 -0.035609294
-0.011344502 0.0182764 -0.031039162 0.010250009 0.042235382 0.12900689 0.12821329 0.02094208
0.044294164 -0.14383993 -0.02820835 0.017320253 -0.07071053 -0.024154814 -0.10165338 -0.13895372

fc3.bias f4 [256]
00000000: 4a5e 823d 68ad 363c adc8 f73c 7a12 00bd
00000010: 4577 a83a 229e 073d 7ab0 07bc 465f 44bd
00000020: 476d 36bd 5c41 413b d532 6cbd ef2f 163c
00000030: 680a 663d 3537 953c 7e46 85bc d0d9 0f3d
00000040: a64b 6d3d 0f65 64bd f1c3 6cbd d079 df3c
00000050: f3be adbc cd57 83bd a658 50bd 090f 443d
00000060: 4635 6f3d 184f 80bd 6a70 64bd 5511 7cbd
00000070: 27c8 38bd dd0e 08bd 15a6 62bb 23b9 a1bd
00000080: 811c 6b3d 9f48 8bbd 6c9e 1dbb 8fc6 053b
00000090: 2d1e 09bd 636d f53c b293 63bc 9240 14bd
000000a0: e97e 08bd bfe1 1f3d e7ab 3f3b 71e8 af3d
000000b0: 98d8 14bd ae3b 6fbd 9f16 243d d920 5a3d
000000c0: 7d78 62bc 920b 623d 3f1b 9f3b 6382 e1bc
000000d0: 3189 ddbc 3517 5abb cf13 29bd 340b 383d
000000e0: a557 0fbc ee79 1bbb 0704 293d 60b2 8e3d
000000f0: 86c8 eb3c b651 b3bc 4fb2 be3c 67cd 1fbd
00000100: 19b3 473d 46de 40bd 571a 103d 4caa 993d
00000110: 6a97 e63c 61ea f33c 3337 5bbd 8338 f4bc
00000120: 1a0e 44bb b61e 66bd 8bb6 653d 8b3f 3d3d
00000130: 7e9c 043d bca3 cc3c 7595 4f3d 2702 81bd
00000140: 73c1 1fbd 2aa1 b53c ee18 053d 2b0d 41bc
00000150: 8540 b53c f203 8a3d 1f35 6bbd bd4e e7bc
00000160: b9c7 793d e7e0 0abc 5fb9 a53c e64f 613d
00000170: f7a3 683d 5a83 4bbd 95fc 66bd 9185 243d
00000180: 2c2e 25bd 7049 1b3c 1cd6 073d 20c5 693c
00000190: b4ce 26bd fb1b 91ba 3052 9fbd 93e3 923c
000001a0: 3eea 523d d739 ecbc 5a5d f33b 3f0c 003d
000001b0: 60ae 52bc 7b9d 47bd d3eb c1bc b4eb 963d
000001c0: 5619 c3bb 62fd edbc 49ee 3dbd 7c0f 64bb
000001d0: c3d6 99bd fd4b e73c 16af 3c3d 11d3 10bd
000001e0: b9da b9bc aa87 bc3c e471 493c 57b2 fd3c
000001f0: 0e8d 5f3d e67a 573d 04fa a2bc 94a6 823d
00000200: 701e 36bd 7176 ffbc 5e7d 213d 5cac a63c
00000210: c77a 7abd 08cf b03c d5f6 90bd e5ef 6cbd
00000220: f6ac b33c 834b 23bc 7ad7 03bd 52c9 083d
00000230: 1a66 6abc d1e2 d03c 3b23 5ebc 258a 2e3d
00000240: 0464 09bd 4eae 803d 16fa 57bd 74b5 d53c
00000250: 8533 bcbb 6fe1 d5bc 4e62 00bd ff18 1a3d
00000260: e527 2f3b 7f78 b13c 0e8e 37bc f0b3 d4bc
00000270: 8dcc 873d bcf0 8b3b d93c 80bd 9254 9a3c
00000280: e119 21bd 046e a2bc 28a9 c33c 6963 1dbd
00000290: 473d fb3c 9be8 aabd 3f8d 62bd 5c38 7c3d
000002a0: f27c c43c ddde 9d3d 53f1 28bd 5b3b be3c
000002b0: 5745 b63c cd22 533d d547 fdbc ca6e ebbc
000002c0: 7def 09bd 1a5d 9d3d c83b 8b3d 347c 1fbd
000002d0: ede0 2abd b230 6a3c 2fb0 623d 7804 3b3d
000002e0: ceea 81bd 42d8 603d a807 213d a35b 32bc
000002f0: 5655 813c 8381 2f3d dc4f c93c a956 943d
00000300: ddb7 afbb 623a 8a3d 6a0f e93c 6035 43bd
00000310: a96d a13b cd36 0b3c 3899 083d 26e1 c7bc
00000320: d079 e7bc 1a45 abbc 9b3e c1bc 99d8 143d
00000330: ac88 3f3d 2fe7 eebb 4b95 543c 23ed 213d
00000340: cc3f 123d 1cf8 503d 25e1 5f3d 1bf4 093d
00000350: 0e9c fd3b 425d 97bb 7ba7 b9bb 0079 3e3d
00000360: 4ad6 4bbd fae0 2bbd c67b 59bc df85 8eba
00000370: 1df9 2ebd c75a 02bd 5fe8 b5bc 888e 483d
00000380: b05a 063d 8a84 31bd e3ea 7bbd d2ef 883c
00000390: 06e4 84bd 5ffd 6a3b e34c 773d bbbf 413b
000003a0: 6b7a ca3c 8c37 84bb b419 7e3d 1022 f4bc
000003b0: eb27 683d 11e2 1e3a f18f 8ebd ee26 4bbb
000003c0: 4905 0b3c d94a 62bd b741 093d 3a94 2a3c
000003d0: 75d0 77bc afa9 003d 6dda e7bc 774b 123d
000003e0: ce40 403d e73b d43c e347 a73c ce4f db3a
000003f0: a084 fcbc 8646 38bd 60c6 283c 0712 b9bc
0.063656405 0.011149742 0.030247057 -0.03126762 0.0012852928 0.03310979 -0.008281821 -0.047942422
-0.04453781 0.002948842 -0.057665665 0.009166702 0.056162268 0.018214801 -0.016268965 0.03511983
0.057933472 -0.05576044 -0.05780405 0.027279764 -0.021209216 -0.06413231 -0.05086579 0.0478659
0.058400415 -0.06265086 -0.05577127 -0.061539967 -0.045112755 -0.0332173 -0.0034583856 -0.0789664
0.05740023 -0.06800961 -0.0024050726 0.002041254 -0.033476043 0.029959386 -0.013890194 -0.03619439
-0.033324156 0.039033648 0.002924675 0.085892566 -0.036339372 -0.058406524 0.040060636 0.053253982
-0.013822672 0.055186816 0.004855543 -0.027527994 -0.027042957 -0.0033277993 -0.041278657 0.04493256
-0.008748923 -0.0023723799 0.041263606 0.06967616 0.02878214 -0.021889549 0.023278384 -0.039014246
0.048754785 -0.047086976 0.03518137 0.07503185 0.028148372 0.029774847 -0.05351944 -0.029812103
-0.0029915632 -0.056181632 0.05608229 0.046203177 0.032375805 0.024980418 0.050679643 -0.06299239
-0.039002847 0.022171576 0.032494478 -0.011782925 0.022125492 0.06739034 -0.057423707 -0.028235788
0.060981486 -0.008476472 0.020229993 0.055007838 0.056796994 -0.049685813 -0.056393225 0.04016644
-0.040327236 0.009477958 0.033163175 0.01426819 -0.04072447 -0.0011070961 -0.07779348 0.017930781
0.051492922 -0.028836174 0.0074269 0.03126168 -0.012858957 -0.04873417 -0.02367202 0.073691756
-0.005953948 -0.029051486 -0.046369825 -0.0034799268 -0.07511666 0.028234476 0.046065412 -0.03535754
-0.022687303 0.023013908 0.01229522 0.030968828 0.05457788 0.05260744 -0.019894607 0.063794285
-0.04446262 -0.031184407 0.0394262 0.02034586 -0.061152246 0.021583095 -0.070783295 -0.05784597
0.02193306 -0.009966734 -0.032187916 0.03339512 -0.0143065695 0.02549878 -0.013558204 0.042612214
-0.033542648 0.06283246 -0.052728735 0.0260875 -0.0057434463 -0.026108472 -0.03134375 0.037621494
0.002672666 0.021663902 -0.011203302 -0.025964707 0.06630812 0.004270641 -0.06261606 0.018839154
-0.03933132 -0.01982785 0.02388437 -0.038424883 0.030668868 -0.08345147 -0.055310484 0.061577186
0.02398536 0.077085234 -0.04124577 0.023221662 0.02224986 0.05154686 -0.030918041 -0.028739352
-0.03367566 0.07683773 0.06798512 -0.03893681 -0.041718412 0.014293836 0.055343803 0.04565856
-0.063436136 0.05489374 0.039313942 -0.010886106 0.015787762 0.04284812 0.024574213 0.072430916
-0.0053624944 0.06749417 0.028449733 -0.047658324 0.0049264026 0.008496952 0.033349246 -0.024399351
-0.028256327 -0.020906974 -0.023589423 0.036339376 0.0467612 -0.007290743 0.012975047 0.03953279
0.035705373 0.051017866 0.054658074 0.033680063 0.0077395504 -0.0046192715 -0.005665717 0.046502113
-0.04976491 -0.0419626 -0.013274139 -0.0010873637 -0.04271804 -0.031824853 -0.02220553 0.048964053
0.03280133 -0.04333929 -0.061503302 0.016715918 -0.064888045 0.0035856587 0.06037606 0.0029563743
0.024716577 -0.004034942 0.06203623 -0.029801399 0.056678694 0.0006060908 -0.069610484 -0.0030998546
0.008485147 -0.05524716 0.033509936 0.0104113165 -0.015125384 0.031411823 -0.028302396 0.0357165
0.046936803 0.02590747 0.02042002 0.0016732158 -0.03082496 -0.04498913 0.010301203 -0.022591604

fc4.weight f4 [2, 256]
00000000: e584 89bd ce7d 943c 587d 063d accb 013d
00000010: 6201 2bbd 5bd7 78bd 4d48 3b3d c728 563d
00000020: c1dd 88ba f773 68bd b831 ea3c e589 383d
00000030: b42e 973d 5c65 053d a84c 96bc 3475 9ebc
00000040: 4051 6abb a675 c1bd 0fa5 5cbe 7993 a9b9
00000050: 98bb 513d 98c3 103d 1cb6 1c3d e1c7 883c
00000060: 2735 26bd c73c 91bd ee5a 20bc 08ee 773c
00000070: 1b12 a63c eda6 34be 14d8 b73c 8cd4 a73b
00000080: d9e7 0cbd e64c a8bd de9a debc 6d4c a1bd
00000090: ab07 0fbb 3ae6 c73b 6ef2 5ebc 4deb 883c
000000a0: 51d4 283d 6d41 353b 733f 82bc 56d0 9ebd
000000b0: 88d4 41bd be9e 233d 5719 923c c8b9 993d
000000c0: dfb9 383c 4181 9e3d 8efe 81bd 378c 563d
000000d0: f8ec 8a3d 9ab8 58bd 2272 293d 0fb5 8c3d
000000e0: 60e0 c2bb 8382 80bd a377 963c c7e2 293d
000000f0: eeb2 cf3c 937c 623c 088f a03c 0fc5 2f3d
00000100: 17e5 c93c 7249 9f3c 209f 6dbd f6f4 96bc
00000110: ccd7 a2bd 7918 13bd 05dc 543d b2ec 9d3b
00000120: 34bf 53bd 47dc acbc 2989 503d b6a1 123a
00000130: 32e0 743c 7e76 933d 9940 a3bc 2c3b 073d
00000140: 5068 fdbb 9a69 0ebd df4c 413d c920 eabc
00000150: 04de 2f3d 067b 8fbc f8cb 10b5 9bd0 263d
00000160: f024 4abc 6c03 993a 61b0 3b3d 85c2 8f3b
00000170: ccd4 523d 94ee 233b 1619 b4bc 411d e63c
00000180: 7368 813d 5d4f 10bd 24b6 9b3b aec8 503d
00000190: 6a3f b7bb a6e6 e1bd 462b 07bb b1f5 a7ba
000001a0: e212 08bc 6efe 243d 2116 81bc 5e8c 773d
000001b0: f807 443c a638 28bc 0fa0 473d 506b d7bc
000001c0: be08 51bd 246c c03c 1b06 4ebc c879 3f3d
000001d0: 9a51 fb3c 7982 17bd bab1 42bd 138d c93c
000001e0: 21e9 5d3d 5300 5f3c 6643 423d c4a2 09bd
000001f0: 1718 92bd 2079 38bd 15b1 81bb c53e 92bd
00000200: 293e 8d3d 4aae 2a3c 3129 113d 251c 103d
00000210: df93 133c 9281 c9bd 5e7c ad3c 820f 84bb
00000220: e8d7 283d bc07 5ebd 0db1 453d 442f a4bd
00000230: 2099 ddbd 34f3 2e3d 0891 8bbd 62ad 5a3d
00000240: 3a3d babc be96 0abd 87cd 983c 9db5 b53c
00000250: a0fc 5fbd 3b19 793d aa10 d03a 3078 23bd
00000260: a86f 723d b0d3 4abd be4e f73a 6c93 123d
00000270: 409a 7f3d 734f 193c a0e1 0e3d 35c1 00be
00000280: 71f5 82bd 48b3 da3c 5b13 0cbd aab7 febc
00000290: 40c3 84bd 604b 493d 2ed6 353d 7248 9c3d
000002a0: acbd 4e3d 41ba 87bd f712 843b 3b0c a2bd
000002b0: e551 ed3c e73e 9e3c c95b 3abc 117b d1bd
000002c0: ca36 e63b 018c 68bd 1745 81bd fe2e 24be
000002d0: ecdc 8dbc 1d6b 95bc 23cc 9bbd 4fbb 87bd
000002e0: c13c 85ba cf3a 203d 6e19 f5bc 10f6 35bc
000002f0: 99d2 93bd 0cfa febb 89bf 533d f65f 66bc
00000300: 3efd 283d 49bc 2abd 94f1 e13c 9dec eb3b
00000310: c449 36be dbe0 ddbc ab62 293d 6ade 24be
00000320: f5c1 423d 1697 c8bc ed0e 4abd 48b0 2bbd
00000330: 571a 31bb 0c5e d4bd 2f54 783c ad68 99bd
00000340: 747e b13a a6f6 39bd c740 4abd 7113 89bd
00000350: 3509 333d 9beb 18bd 30e5 80bd c752 753d
00000360: 9f05 83bb 4636 113d a9f2 b73b 0de1 c13b
00000370: bf42 943c ec83 c1ba 5540 a5bd 244f 403d
00000380: 2cbf 63bd 95ef f6bb 4731 a6bb 3e64 7e3d
00000390: 12f2 f73c 120f 523d 9793 4f3c 2513 cb3a
000003a0: 2f77 113d cd8d 483c d663 863d 60b5 d83c
000003b0: b070 22ba a763 98bd fe95 553d 2b35 86bd
000003c0: 36f4 eb3b facd 99bc c656 92bd 8298 24bc
000003d0: 313a 8c3d df5e 3c3d 3a96 c5bd 51fa 97bd
000003e0: b4d1 9a3c 9043 71bd f388 743d 7693 993c
000003f0: 83e1 3c3c 85c5 dfbc eef6 f33c e795 1b3b
-0.06714801 0.018126395 0.03283438 0.031688377 -0.041749366 -0.060752254 0.04572325 0.052284982
-0.0010442064 -0.056751218 0.02858816 0.04505338 0.07381955 0.032567367 -0.0183471 -0.019342996
-0.0035753995 -0.09446268 -0.2154734 -0.00032344068 0.051204294 0.035342783 0.03825961 0.016696872
-0.040578034 -0.070916705 -0.009787304 0.015132435 0.020272305 -0.17641802 0.022441901 0.005121773
-0.034400795 -0.08217792 -0.027173456 -0.07875905 -0.0021824639 0.006100443 -0.013607604 0.016713763
0.041218106 0.0027657405 -0.015899396 -0.07754581 -0.047321826 0.03994631 0.017834349 0.07506138
0.011274784 0.07739497 -0.063473806 0.052379813 0.067834795 -0.052910425 0.04136861 0.06870472
-0.0059471577 -0.06274893 0.018367594 0.041476037 0.025353875 0.013823646 0.019599453 0.04291254
0.024645371 0.019444201 -0.05801308 -0.018427353 -0.07951316 -0.03591201 0.05196764 0.004819476
-0.051696017 -0.02110113 0.050912056 0.0005593555 0.01494603 0.07200335 -0.019928264 0.033015415
-0.0077333823 -0.03476868 0.04719245 -0.028580086 0.04293634 -0.017514717 -5.3940994e-07 0.040726285
-0.012337908 0.0011673993 0.045822505 0.004387202 0.05147247 0.002501403 -0.021984618 0.028090121
0.0631875 -0.035231937 0.0047519375 0.050972633 -0.0055922763 -0.11030321 -0.0020625158 -0.0012814311
-0.008305283 0.040281706 -0.015757622 0.0604366 0.0119647905 -0.010267412 0.04873663 -0.026296288
-0.051033728 0.023489065 -0.012574698 0.046747 0.03067856 -0.036989663 -0.047532775 0.024603402
0.054177407 0.013610917 0.047427557 -0.03360249 -0.07133501 -0.04503739 -0.0039578774 -0.071408786
0.06896622 0.01041753 0.035439674 0.03518309 0.009007423 -0.09839167 0.021177467 -0.004030169
0.04122153 -0.054206595 0.048264552 -0.08016828 -0.10820222 0.042712405 -0.06814772 0.053388007
-0.022734273 -0.033835165 0.01865269 0.022181327 -0.05468428 0.060815077 0.0015874107 -0.03990954
0.059188515 -0.049518287 0.0018868071 0.035785124 0.062402964 0.009357321 0.03488314 -0.12573703
-0.063944705 0.026696816 -0.034198146 -0.031093437 -0.064825535 0.04914415 0.04439371 0.07631005
0.050473854 -0.06627322 0.004030581 -0.07912489 0.028969714 0.019317104 -0.011374422 -0.10228551
0.0070255743 -0.056774143 -0.06312006 -0.16033551 -0.017317258 -0.018239552 -0.07607295 -0.06627523
-0.0010165201 0.039118584 -0.029919352 -0.011106029 -0.07217903 -0.0077812728 0.051696334 -0.014060965
0.041257136 -0.04168347 0.027581014 0.0071998374 -0.17801577 -0.027084759 0.041353863 -0.16100469
0.047548253 -0.024486106 -0.04933064 -0.04191616 -0.0027023756 -0.103695005 0.01515679 -0.074906684
0.0013541714 -0.045401238 -0.049378183 -0.06693161 0.043709952 -0.037334066 -0.06293714 0.059893396
-0.003998473 0.03545215 0.005613644 0.0059167207 0.018098233 -0.0014764047 -0.08068911 0.046950474
-0.055602238 -0.0075358846 -0.0050717923 0.062107317 0.030266795 0.051283903 0.0126694655 0.0015493376
0.035514053 0.012240839 0.06562011 0.026453674 -0.00061966013 -0.07440882 0.052144997 -0.0655311
0.007200743 -0.018774975 -0.07145457 -0.010046126 0.06847037 0.045988914 -0.09647794 -0.07420791
0.018898822 -0.058902323 0.059700917 0.018747073 0.011528376 -0.027315864 0.029780831 0.0023740472

fc4.bias f4 [2]
00000000: 8970 7ebc 74ca 183d
-0.01552976 0.03730245
