pitch_snn.pth (torch, 577734 bytes, 8 tensors)

fc1.weight f4 [256, 40]
000000 4d 6d 13 bd 39 10 3f 3d d5 0c e1 3d 8d 1c 8c 3d
       -0.03599291 0.04664633 0.10988776 0.06841383
000010 10 5e 3e bd aa 2a 30 3e 6a 25 c7 3d 0f e0 42 3e
       -0.046476424 0.17203775 0.09723933 0.19030784
000020 1a 72 91 bd 17 fd 9e bd d3 9b 3f bd e3 44 d0 bd
       -0.07101841 -0.07763117 -0.046779465 -0.10169389
000030 96 6c cd bc 31 f9 ea bd a9 da 46 bd 6b 90 b5 bd
       -0.025076192 -0.11473311 -0.048548374 -0.08865436
000040 b8 6f a4 3d cd 6a 24 3d 3e f9 84 3d 65 e5 df bd
       0.08029121 0.040140916 0.06492852 -0.109324254
000050 6a da 31 3c 70 99 81 3c c7 1d 03 be 7a 19 8f 3c
       0.010855297 0.015820235 -0.12804328 0.017468203
000060 12 cf 8d 3d f2 60 1b 3c 5a 28 2b be 04 cc 62 3d
       0.06924261 0.009483563 -0.16714612 0.055370346
000070 23 61 34 3d ce e1 04 3d ee 1f e8 bd 7e 62 19 be
       0.04403795 0.032441907 -0.11334215 -0.14978978
000080 3e b0 0b be 9f 57 8c 3c 47 3b c2 3d d8 2a f5 3c
       -0.1364145 0.017131625 0.094839625 0.029927656
000090 0f 61 21 3d 63 35 02 be 03 41 e5 3d 19 84 bc bd
       0.039399203 -0.12715678 0.111940406 -0.09204883
0000a0 dd d0 eb bd 0e b7 c4 3d 8c 65 f5 bd 95 9c 0e 3d
       -0.11514447 0.096052274 -0.11982259 0.034817297
0000b0 b6 79 90 be e8 c6 61 be 85 8c 42 be 26 cf 23 be
       -0.28217858 -0.22048533 -0.18998916 -0.1599699
0000c0 b0 6d 3c bd 02 1a 03 3d d7 f5 f8 bd dc 0c 40 bd
       -0.046003044 0.032007225 -0.12156265 -0.046887264
0000d0 3d 2a 62 be 92 c5 81 3c 14 96 d4 bd 6c 10 a5 bd
       -0.22086425 0.01584128 -0.10380188 -0.08059773
0000e0 0d c8 79 be 86 19 cb bd 33 e4 a5 bd 2d ea 67 bd
       -0.2439272 -0.099169776 -0.08100166 -0.05661981
0000f0 6d 9d 42 bd 46 97 0a 3e 07 59 e9 bc c4 56 d8 bb
       -0.047513414 0.13534269 -0.028484834 -0.00660214
000100 7f 57 53 3d 3a 2d 00 3e 65 7e df 3c 4b 72 fc 3c
       0.051597115 0.12517253 0.02728195 0.030816218
000110 66 6d ac 3c fa 95 c1 3d cb 6a f6 3d aa ee 03 3e
       0.021048259 0.09452434 0.12032088 0.12884012
000120 fa 29 c8 3d 87 91 91 3d ab 4a 85 3b 7e f3 b8 bd
       0.097736314 0.07107835 0.004067739 -0.090308174
000130 82 da be 3d fd 8e 4f 3d d1 90 8f bd 56 9c 40 3d
       0.09319021 0.050673474 -0.070100434 0.047024094
000140 9f a4 bf bd b7 51 bf bd 57 55 09 3e 79 7f 8b 3c
       -0.09357571 -0.09341758 0.13411461 0.017028557
000150 f9 71 f2 3d 93 ee 03 3e 2f bd 42 3d c6 41 f1 3d
       0.11838145 0.12883978 0.0475437 0.117801234
000160 5c fa 04 be 9e 26 c6 3c ab 5c b0 bd 2e d1 7d bc
       -0.1298613 0.024188336 -0.08611425 -0.015491767
000170 d2 15 1f 3d 70 4a 90 3d ef ec 56 bc 9d a6 fd 3d
       0.03883917 0.07045448 -0.013118013 0.123852946
000180 e3 4e ea bd 9e 65 26 3d a8 cd 5b 3d ea e9 2c bc
       -0.11440828 0.040624253 0.053662926 -0.010553816
000190 61 92 c1 3d 29 b3 9a 3d f3 e9 38 3e 00 18 52 bd
       0.09451748 0.07553703 0.18057995 -0.05129242
0001a0 f0 22 f8 bd 27 43 81 3c f1 77 71 3d 9b 33 1c bd
       -0.12116039 0.015779091 0.058952276 -0.038135152
0001b0 3b f6 9b bd 8c 9e 0b be 7e 4e 84 3c 7c b8 a5 3d
       -0.07615324 -0.136347 0.01615071 0.08091828
0001c0 e2 a9 1d 3d b6 3e 2f 3d 89 bb 42 3e 89 89 d0 bd
       0.03849209 0.042784415 0.19016851 -0.10182483
0001d0 3e 09 1c 3e 44 a2 76 bd 2b 0f bf 3d 30 0a dd 3d
       0.152379 -0.060213342 0.09329065 0.10792959
0001e0 f7 68 65 3e 47 74 41 3e 98 0f c0 3d 82 f7 a8 3d
       0.22403322 0.18892013 0.09377974 0.08250333
0001f0 7a 71 9c bc 59 98 c9 3d b8 6b 33 3e ba b0 63 bd
       -0.019097079 0.09843511 0.1752156 -0.05558846
000200 11 86 c0 3d e4 1e 9c bd b0 0c 46 3e 59 12 02 3e
       0.09400571 -0.076230794 0.19340777 0.12702312
000210 d4 a6 42 3e e8 9f 56 bc 40 e2 b5 bd d0 e6 cb bd
       0.19008952 -0.013099648 -0.088810444 -0.09956133
000220 53 65 c0 bc b5 6d 90 3d b3 e7 3f bd 6c 51 e2 3c
       -0.023485815 0.07052175 -0.046851825 0.027626716
000230 a5 bc c7 3b c2 a2 2a 3e 0d ee 67 3e e9 b3 43 3e
       0.006095486 0.1666365 0.22649403 0.19111599
000240 8d d4 1e 3e 97 2e 8e 3d 4e 68 95 3b d2 a6 8f 3c
       0.15510769 0.0694248 0.004559553 0.0175356
000250 4d ce 25 3e 29 7d a2 bd 7e ce 3c 3e a0 04 b8 bd
       0.16191979 -0.07934029 0.18438146 -0.08985257
000260 39 ee 4e bd af b9 fc 3d 02 62 bf 3d 2c 0a 55 3e
       -0.050520156 0.12340104 0.093448654 0.20804662
000270 4b 58 db 3d d5 71 18 3d 8d 0a 03 3e 46 e1 f8 3d
       0.107102 0.037217934 0.12796994 0.121523425
000280 0e ff bb 3d 44 7b e1 3c 64 5a 17 3e 1b 70 ba bd
       0.09179507 0.027524598 0.14780575 -0.09103414
000290 a8 ca 01 3e a6 e5 aa ba 75 25 99 3d 73 df c1 bd
       0.12674963 -0.0013038411 0.074778475 -0.09466448
0002a0 84 24 66 3c 98 28 fd 3b 98 49 a2 bd a4 52 00 bc
       0.014046792 0.0077257864 -0.07924193 -0.007832203
0002b0 5d 3a 11 3e e7 47 25 3e fe ff 90 3d 6b cb 11 3e
       0.1418242 0.1614071 0.07080077 0.14237754
0002c0 a4 9b 5a 3a b5 44 ea bd c6 5a 37 3e a6 38 d3 3d
       0.00083392323 -0.11438886 0.17905721 0.10313539
0002d0 e4 95 94 be 38 87 0f be 9d 33 cb bd 9a 8b 37 be
       -0.29020607 -0.14016426 -0.09921954 -0.17924348
0002e0 91 1a 31 be 46 d8 26 be cf 90 ad bd 63 97 f8 bd
       -0.1729529 -0.1629344 -0.08474886 -0.1213825
0002f0 c9 6d 89 bd fe 0d 1b be 90 e8 50 be 8e 0c 15 be
       -0.06710393 -0.15142056 -0.20401216 -0.1455557
000300 10 d3 f3 bc 57 24 44 be 64 f4 7c 3d 6c fe 2c bc
       -0.029763728 -0.19154488 0.061756507 -0.010558706
000310 5d 97 37 be a3 fe 77 be c7 98 85 bd 33 c5 90 bd
       -0.17928834 -0.2421823 -0.065232806 -0.07068863
000320 07 6f 0b be fa 13 e8 3d ad a8 16 3e ce 06 0c 3d
       -0.13616572 0.11331935 0.14712782 0.034186177
000330 53 b6 fe bc 2c 9f 63 3c 76 ac 05 be 25 91 29 bc
       -0.031092798 0.01389293 -0.1305407 -0.010349547
000340 42 16 ea bc d4 03 9a 3c 7d c1 30 bc 3c 52 ea bd
       -0.028575066 0.018800654 -0.010788319 -0.11441466
000350 6b 77 41 3d ec 27 c2 bd 42 c5 6f 3d 78 14 a1 3d
       0.047233026 -0.09480271 0.05853773 0.07865232
000360 78 8b 0a 3e ef 52 3f 3d dc 2f c2 3b 2b 8a ad bd
       0.13529766 0.04670995 0.0059261154 -0.08473619
000370 d2 48 8a 3d 84 83 0a be ce 56 b6 3d 36 87 ff 3d
       0.067521706 -0.13526732 0.089032754 0.12476961
000380 79 a7 a1 3c 7a b6 3d 3c 82 b9 c6 bd 88 6b fe bd
       0.019733177 0.01157915 -0.097033516 -0.12422854
000390 c3 f9 04 3e f2 e7 18 bd 26 db 8c bd 19 82 09 bd
       0.12985902 -0.037330575 -0.06877737 -0.033571336
0003a0 26 30 dd bd dc 52 04 be f3 7b 00 bd 71 0f 89 3b
       -0.10800199 -0.12922233 -0.031368207 0.004182749
0003b0 1b 27 7b bd 30 44 13 be 45 d2 a2 bd c3 ee e9 bd
       -0.06131659 -0.1438148 -0.07950262 -0.11422493
0003c0 e5 83 26 3d ba 8a 5a 3d cb e2 01 3e 64 ae d3 bd
       0.04065313 0.053354956 0.12684171 -0.10335997
0003d0 ee 53 c9 bd 67 2c 1b 3e 07 87 c7 3d 50 0a e1 bd
       -0.098304614 0.15153657 0.09742551 -0.10988295
0003e0 ce 59 b3 bc fb d2 90 3d 88 87 02 3e a0 da a2 bd
       -0.021893408 0.07071491 0.12747014 -0.07951856
0003f0 aa c6 1c be 65 e8 18 3d 0e ce 38 3d 67 e1 96 3d
       -0.1531016 0.037331004 0.045118384 0.07367211

fc1.bias f4 [256]
000000 9e 15 1c 3e bc 2e 24 be ae 87 88 bd 60 2c 26 bd
       0.15242621 -0.16033453 -0.06666504 -0.040569663
000010 5d 7b 31 bd 73 46 da 3d 03 91 90 3d dd ba fc 3d
       -0.04333054 0.10657968 0.07058909 0.12340329
000020 f0 fb 94 bd f4 c6 21 3e 21 f7 92 3d af 81 29 be
       -0.07274616 0.15798551 0.07176042 -0.16553377
000030 59 af 65 3d 43 39 e9 3d 78 93 10 3e 90 a2 85 3c
       0.056075428 0.11387875 0.14118755 0.016312867
000040 e7 98 04 be 2f 8d 69 bd fc 39 f4 3d 49 9c 1a be
       -0.12948953 -0.05701941 0.11925122 -0.1509868
000050 6a 57 dd 3d af 3c cd bd 3e 54 60 3d 25 49 e7 bd
       0.108076885 -0.1002134 0.05476784 -0.11293248
000060 52 66 fc bd 7c a3 b4 3d 07 c5 10 be 35 23 c0 bd
       -0.123242036 0.08820245 -0.1413766 -0.09381715
000070 03 09 14 3d 4a 34 d2 3d 01 e2 17 be 01 1a 9e 3d
       0.036141407 0.102638796 -0.14832307 0.077198036
000080 49 b7 be bd 9b 97 b4 3d f4 d4 11 be 1e f9 f8 bd
       -0.093123026 0.08817979 -0.14241391 -0.1215689
000090 5c ef 10 be 67 6a 96 3d 1c 63 ec bd 0f 8c 3f 3d
       -0.14153808 0.073445134 -0.11542341 0.04676443
0000a0 af 21 f4 3d dc d2 97 3d a4 9a 0a 3e 64 c6 b3 bd
       0.11920487 0.07413265 0.13535553 -0.087780744
0000b0 8d 0d 80 3c b6 23 5e 3d 5b 4f 50 3d 7c c9 00 3e
       0.015631462 0.054233275 0.05085693 0.1257686
0000c0 85 56 56 3d 79 d2 c7 3c f7 35 6f 3d 6d 1c 06 3e
       0.052328605 0.024392353 0.058401074 0.13096781
0000d0 df be 1b 3d e3 f0 fe 3d 59 1a 08 be dc 09 81 3a
       0.038023826 0.12448289 -0.13291301 0.0009844857
0000e0 d6 6e 00 bc 12 13 5f bb 98 60 03 3e 6e 51 b5 bb
       -0.007838925 -0.0034038466 0.12829816 -0.005533389
0000f0 16 99 d1 bd 0d 90 e9 bb 83 af 22 be 41 b7 ee 3d
       -0.10234277 -0.007127768 -0.15887265 0.11656047
000100 de 19 da 3c 23 d4 c2 bc a6 e5 40 3e b7 46 99 bd
       0.026623663 -0.023782795 0.18837604 -0.07484191
000110 b6 62 20 3d a2 99 94 3d e6 ce 23 3e 87 52 65 3d
       0.039156638 0.07255866 0.15996894 0.055986907
000120 b4 b9 23 be 34 35 8d bd 87 d2 f4 3d b3 d5 66 bd
       -0.15988809 -0.06894913 0.119542174 -0.056356143
000130 f6 a1 04 be 9d 7d d9 3d 1b 5b a4 bd e7 98 04 3e
       -0.12952408 0.10619662 -0.080251895 0.12948953
000140 29 7a b7 bd b1 9a 1a 3e e9 6c ed 3d f0 0a 57 3d
       -0.08958847 0.15098073 0.115930386 0.052500665
000150 1e 35 d0 3b d3 1f 88 3d c4 e4 4d bd bd ff 2e 3d
       0.0063539883 0.06646695 -0.050266996 0.04272436
000160 d3 bd 10 bd 43 75 f0 bd c8 f0 82 3d b7 73 db 3c
       -0.03533728 -0.11741116 0.06393582 0.026788576
000170 96 47 bf bd 91 1a cb 3d 52 a8 fb bd 1e 75 0f 3d
       -0.09339826 0.099171765 -0.12287964 0.0350238
000180 fb 69 06 be 44 53 e1 3d ef 3f 11 be 26 f9 24 3c
       -0.13126366 0.1100221 -0.14184545 0.010069167
000190 1a 41 91 bc 55 13 9b bc 8d 3f 27 3d 1a 59 64 bd
       -0.017731238 -0.018930117 0.04083209 -0.055749036
0001a0 6c 94 67 3d c2 b1 87 3d 75 9f 76 bd b0 6c 2c bd
       0.05653803 0.066257015 -0.060210664 -0.04209584
0001b0 d9 12 81 3d e1 d9 f2 3d 32 c8 15 3d 43 12 b1 3d
       0.06302423 0.11857963 0.036567874 0.08646061
0001c0 38 ae 90 bd 57 01 1a be 26 80 27 3e bf 87 8d 3c
       -0.070644796 -0.15039574 0.16357478 0.017276643
0001d0 b1 22 ab bd b5 4d ae bc da e8 94 3d f2 05 93 3d
       -0.08356226 -0.021277288 0.072709754 0.07178868
0001e0 62 1c 08 3e 2f f5 ba 3d 2c 95 44 bd fd 1a 52 3d
       0.13292077 0.09128796 -0.047993824 0.05129527
0001f0 b2 ad 41 bd 1d 13 f4 3d c3 74 92 bd 8e 62 26 3e
       -0.04728479 0.11917708 -0.07151177 0.16248533
000200 7e 6f 8a 3d 0e bd db bd 31 a4 cf 3d 22 b9 a3 3d
       0.06759547 -0.10729419 0.10138739 0.07994296
000210 d0 76 fc 3d c5 6a 98 3d 6d 1f 09 3e 3d a6 17 3e
       0.12327349 0.0744224 0.13390894 0.14809509
000220 95 23 da 3d 92 23 ae 3c eb 14 b3 bd 00 14 ab 3d
       0.10651318 0.021257196 -0.08744224 0.08353424
000230 ac 97 08 bd b6 71 2a 3e 20 9e 16 be 40 63 e7 3d
       -0.03334777 0.1664494 -0.14708757 0.11298227
000240 8a 88 b6 3d 82 93 bf 3d 1b f7 7a 3d 37 24 c0 bd
       0.089127615 0.09354307 0.061270814 -0.093819074
000250 29 61 f2 3d 13 f8 3f bd 53 68 93 3d fe b5 92 3d
       0.11834938 -0.04686744 0.07197633 0.071636185
000260 b8 b1 8b 3d dd 03 60 3d 6d 9d 06 3e 3c e6 26 be
       0.068210065 0.054691184 0.1314599 -0.16298765
000270 7e 8b 02 3e cf 9e ff bc 74 d0 ec 3a 7b 54 df 3d
       0.12748525 -0.031203656 0.0018067495 0.10904785
000280 54 b2 06 be 62 0a 47 3d 26 d2 b9 3c b2 93 bd bc
       -0.13153964 0.048593886 0.022683214 -0.023141716
000290 6b b4 27 3e 68 68 99 3d df 04 5e 3d 2b ab 22 be
       0.16377418 0.07490617 0.054203864 -0.15885608
0002a0 3d 78 f4 3d f2 db 03 be 3c 27 27 bb 93 a5 3b 3d
       0.11936996 -0.12876871 -0.0025505563 0.0458122
0002b0 1c 86 6c bd 28 d7 18 be 90 ad 7c bd 8e d6 c1 3d
       -0.057745084 -0.14925826 -0.06168896 0.09464751
0002c0 b8 81 fb 3d e8 9a 17 be d7 95 ba 3b 8f e5 9b bb
       0.12280601 -0.14805186 0.005694132 -0.00475759
0002d0 29 3d 47 bc 25 7b 0f be d6 c2 9c bc e8 a4 f3 3d
       -0.012160578 -0.1401182 -0.019135874 0.11896688
0002e0 a5 ef 0e 3e 73 05 32 bd da c8 05 be 96 3a c6 bd
       0.13958605 -0.043462228 -0.130649 -0.09679143
0002f0 73 3c c3 3d 2f f7 0c be 39 99 1b be 8a 15 42 3d
       0.09533014 -0.13766168 -0.15195169 0.047383823
000300 23 d8 08 3e 72 93 17 be c4 1d 02 3e 32 63 ba bd
       0.133637 -0.1480234 0.12706667 -0.09100951
000310 dc e4 39 bd dc c7 25 3d 41 75 1c bd fc 98 17 3d
       -0.045384273 0.040473804 -0.03819776 0.03701113
000320 ae 5d cb 3d 13 c1 b5 3d fd e5 d8 3d 58 95 3d 3d
       0.09929977 0.088747166 0.10590742 0.046285003
000330 07 af 77 3d 33 71 0b 3e 98 57 06 3e 47 c4 83 3d
       0.060469653 0.13617401 0.13119352 0.06433921
000340 fc 2c cd 3d 83 5c 19 be 93 b8 d2 bd b2 9d 07 be
       0.10018346 -0.14976697 -0.10289111 -0.1324375
000350 50 f0 ae bc 26 7f 8b 3c c7 ec bb 3c 9d ed 5d bb
       -0.021354824 0.017028403 0.022940053 -0.0033863552
000360 f5 3e 67 bd 60 9c af 3d 62 0d d8 3c f9 cd b9 bd
       -0.056456525 0.08574748 0.026373569 -0.09072489
000370 b5 62 d1 bc 2d d1 45 bd 8f ff 07 3e 6b 1f 1a 3d
       -0.025559762 -0.04829519 0.13281082 0.03762762
000380 be e3 a5 3d ff 0e eb bc e9 cb 1b 3e 8b 9d f1 bd
       0.08100079 -0.028693674 0.15214504 -0.11797627
000390 80 3e 0c 3e 82 4b 35 3d ac 6c a2 bc 28 2d 1a bc
       0.13695717 0.044261463 -0.01982721 -0.00941018
0003a0 35 3b c2 3d 40 a5 aa 3d 02 8d e9 3d c0 31 89 3d
       0.09483949 0.083323 0.11403848 0.06698942
0003b0 02 4c aa 3d db ac 12 3e e6 38 22 3e f6 f8 13 3c
       0.083152786 0.14323752 0.15842018 0.009031525
0003c0 2c 67 2c bd 79 1d c3 3d ae 42 f2 3d 10 22 0c 3e
       -0.04209058 0.09527106 0.118291244 0.13684869
0003d0 67 9a f6 3d 48 c6 b5 bd 30 1e c8 bd 7a b5 95 3d
       0.12041169 -0.0887571 -0.09771383 0.073100045
0003e0 1b a9 ba 3b 70 1b f3 3c fc b2 88 3d 55 f6 3c 3c
       0.0056964285 0.02967617 0.066747636 0.0115333395
0003f0 e0 21 3d 3c a6 9c b2 3d d1 25 f2 bc 15 e6 80 3d
       0.011543721 0.087212846 -0.029559048 0.06293885

fc2.weight f4 [256, 256]
000000 7e 01 8d 3c 0c 02 1a bc 43 da 67 bd 55 6f 85 3d
       0.017212626 -0.009399902 -0.056604635 0.065153755
000010 b4 da b3 bd 12 fe 9d 3d c2 8a 26 3d 04 35 08 3c
       -0.08781949 0.07714476 0.040659674 0.008313421
000020 10 40 6a bd d8 2f bd 3c 43 5f 62 bb a1 77 24 bb
       -0.05719 0.023094103 -0.0034541644 -0.0025095718
000030 34 75 12 be f0 08 4c bc a4 e2 95 3d ae 75 7c bd
       -0.14302522 -0.012453303 0.07318619 -0.061635666
000040 da 39 ad 3c 2c 34 76 bd 04 db cc 3b 75 be 07 bd
       0.02114575 -0.06010835 0.0062516946 -0.03314062
000050 76 3d 13 3d 66 48 67 bd 33 28 e6 3c 2f 71 d4 bd
       0.035947286 -0.05646553 0.02809534 -0.103731506
000060 0d 40 38 3d 5b 92 13 bd 71 bb 40 3d 3b 0a 7a 3d
       0.04498296 -0.036028247 0.047053758 0.061044913
000070 3a 3e a2 3b 89 64 9c bc aa 8e f4 3c 13 4c 98 3d
       0.0049512656 -0.019090908 0.029853184 0.07436385
000080 06 35 4f bd f5 d0 58 3d 1e 29 33 bd 82 fc 90 bb
       -0.050587676 0.052933652 -0.043740384 -0.0044246325
000090 2f 50 90 bc 59 73 57 bd 2c 77 ac bc 58 fb 82 3d
       -0.01761636 -0.05260024 -0.02105292 0.06395596
0000a0 a9 9e 4a 3c 7d 4b ac 3d 5c c1 38 bd ae 13 11 bd
       0.012366929 0.08412836 -0.045106277 -0.03541916
0000b0 e0 a1 63 bb 0c 7a 8e 3d ce db 05 3b 09 30 37 3d
       -0.0034733936 0.06956872 0.0020425203 0.044723544
0000c0 93 af 01 3e b5 c3 09 bd 63 2b 93 3b 60 11 09 bc
       0.12664632 -0.033633906 0.004491256 -0.008365959
0000d0 97 ed ce 3b 12 7b 46 3d 21 94 73 bd 76 b5 a1 3d
       0.006314944 0.048457213 -0.05946744 0.07895939
0000e0 d3 0a b0 bc 57 2d cd ba c0 ee 92 3b 43 3b cb 3c
       -0.021489536 -0.0015653771 0.0044840276 0.024808532
0000f0 b5 75 5e 3d 80 b6 22 3e f6 fc 17 bd 4e 4c 73 3d
       0.054311473 0.1588993 -0.037106477 0.05939894
000100 f8 22 d4 ba 70 ff 15 3d 69 57 98 3d 5f 19 f2 3b
       -0.0016184738 0.036620557 0.07438547 0.0073882784
000110 8f 18 96 3c d0 05 c1 3c 56 7e 60 3d 14 d6 b6 bc
       0.018322257 0.023562342 0.054807983 -0.022318877
000120 0e 69 1e bd 68 0f 02 bd 75 35 00 bd 7f dc ee 3c
       -0.038674407 -0.031752974 -0.03130098 0.029157875
000130 35 8a d3 bc d3 96 65 3d 6f b0 13 3c fc f3 1a bb
       -0.025822738 0.05605204 0.009014233 -0.0023643961
000140 ba 79 05 3d e1 31 ad 3d 9e 4a 24 be 2e 5d 86 bd
       0.03258679 0.08456779 -0.16044089 -0.06560741
000150 fd 02 f6 3d 82 59 84 3c 25 91 cd 3a 36 1a 8b 3c
       0.12012289 0.016155962 0.0015683515 0.016980272
000160 09 7f a6 3d ee 47 97 bc e1 c9 ad 3c 7f f2 f7 3c
       0.08129699 -0.018466916 0.021214427 0.030266998
000170 d9 31 5a bd 5c b6 e6 3c f7 51 2c bc 68 48 09 3e
       -0.053270195 0.028163128 -0.010517589 0.13406527
000180 04 7c 41 3d c0 ad 91 bc 45 14 79 bd 74 0d ef bd
       0.04723741 -0.017783046 -0.060810346 -0.11672488
000190 fb 4e 33 bd 72 5c 36 bd e3 38 bf bb 70 2e 87 bd
       -0.043776494 -0.044521756 -0.005835639 -0.06600654
0001a0 84 b3 b1 3d 1f b9 f6 3d 50 0f 2f 3d e5 7f ac bd
       0.08676818 0.12047028 0.042739213 -0.084228314
0001b0 12 eb 1f 3d e9 8a 64 3d 78 0f 81 3d bb 00 dd 3c
       0.03904254 0.055796538 0.063017786 0.026977887
0001c0 b5 7f b1 bc ea ec 65 bd cb 85 96 bd e8 74 30 bd
       -0.02166734 -0.056134142 -0.07349738 -0.04308024
0001d0 9c a9 a0 bc 37 c0 01 3d 95 85 ea bd e6 ce 0f be
       -0.019612126 0.03167745 -0.1145126 -0.14043769
0001e0 59 f4 67 3d 80 70 44 3d cd f8 e0 3d a3 4d 9d bd
       0.056629512 0.04795885 0.10984955 -0.07680824
0001f0 ac 3e 09 3d c5 c4 99 bd 53 28 28 bd 31 56 11 3b
       0.033507034 -0.07508234 -0.04105408 0.0022176618
000200 3a 00 6e 3d 9a ad 90 3d 10 ab d6 bd be b5 58 3d
       0.058105685 0.07064362 -0.10481846 0.052907698
000210 b7 25 d0 bb 31 fc 9c 3b 75 8d c4 3c a0 9d 7f bb
       -0.006352152 0.0047908057 0.023993233 -0.0039003864
000220 6c 01 04 3d 78 b9 da 3d ad 36 2b 3d 32 82 3c bd
       0.03222792 0.106799066 0.04180019 -0.0460226
000230 59 e3 c1 3d be 50 cb bc 1a e7 10 bb a5 a1 e7 bc
       0.09467191 -0.024818774 -0.0022110404 -0.02827532
000240 5c 59 52 bd c6 67 ba 3c 51 1f 0c bb cd d4 05 bd
       -0.05135475 0.022754561 -0.002138097 -0.032673646
000250 6d 10 55 3d 2b 08 77 bd 9d ed ef bc b0 2b 8e bd
       0.052017618 -0.060310524 -0.029288108 -0.069419265
000260 41 be 87 be 04 a1 7d 3d 93 88 35 3c 20 57 18 bd
       -0.2651234 0.061921135 0.011079925 -0.037192464
000270 fd 28 0c 3c a0 3f 1f bd df 91 0d 3c 37 1e 05 3d
       0.008554694 -0.038879037 0.008640735 0.03249952
000280 26 46 03 bd 6f da 29 bc 48 5d 34 3d b1 1e c9 3c
       -0.03204932 -0.01036702 0.044034272 0.024550768
000290 4e a8 5f bd c2 1a 8c bd bb 29 f4 bc 0a e7 47 3c
       -0.054603867 -0.06841041 -0.029805055 0.01220108
0002a0 18 82 ea 3b 5f b8 fe bc 15 82 bf bd 97 2c 86 3c
       0.0071566217 -0.031093774 -0.09350983 0.016378684
0002b0 9a be 71 bd 8a ab d5 3c 91 d2 22 bd a1 24 f6 3c
       -0.059019662 0.026082773 -0.039751593 0.030046763
0002c0 89 07 a1 bc 3c 46 40 bd 2e db 97 bc 6b e5 e5 3b
       -0.019656913 -0.04694198 -0.01853713 0.007015874
0002d0 91 03 b8 bc f5 42 e5 bc 80 15 24 be 60 2a c6 3d
       -0.022462638 -0.02798603 -0.16023827 0.09676051
0002e0 fe 10 f2 3d e9 34 96 bb 90 30 ea 3d 26 bb 2d bd
       0.11819647 -0.004583944 0.11435044 -0.042414807
0002f0 93 27 b2 3c 14 d4 70 bd 37 fe 71 3d 5a 84 0f 3c
       0.021747386 -0.058796003 0.05908033 0.008759582
000300 36 51 1d 3c 48 0f 20 bd 0a 27 9e bd fb c9 91 3d
       0.009601882 -0.039077073 -0.0772229 0.07118603
000310 44 28 8a bd 41 71 9c 3b 37 4c 96 bd 6d eb 90 3d
       -0.06745961 0.004774243 -0.073387556 0.07076154
000320 63 d4 00 3c fe 01 84 3d 70 1f b8 3d 72 e2 94 3c
       0.007863137 0.064456925 0.08990371 0.018174384
000330 7f 13 84 3d 0c d7 19 be db 84 07 bc 96 41 92 bb
       0.06449031 -0.1502344 -0.008271421 -0.004463385
000340 a3 99 8c bd 6c 47 3b bc c4 b0 72 3d fe 2c 2e 3d
       -0.068652414 -0.0114306025 0.059250608 0.042523377
000350 42 47 f2 3c ff c5 05 3e 90 3e 80 bd e9 f8 16 3d
       0.029574994 0.13063811 -0.06261933 0.036858473
000360 23 2b 12 be ed b0 c3 bc d5 4c c2 bc 0d 92 8b 3d
       -0.14274268 -0.023888076 -0.023718277 0.06814966
000370 f6 4d ef 3c b2 e9 7b 3d 07 e5 60 3d 71 7c cd 3d
       0.02921198 0.061502166 0.054905917 0.10033501
000380 a3 33 0e 3d 1f 9c 4a 3d 02 eb b7 bd ab 82 de 3c
       0.034717213 0.049465295 -0.08980371 0.027161917
000390 28 c0 d3 3c 3f 21 8f bc 82 67 16 bd 2f fa 3c 3d
       0.025848463 -0.017471908 -0.036719806 0.04613703
0003a0 0a da 89 3d 67 52 a7 3c 82 30 2d bd 64 f5 ad 3c
       0.06731041 0.020425035 -0.04228259 0.021235175
0003b0 a9 14 e7 bc 58 7d 5f 3d a8 a7 ff bc c3 26 07 be
       -0.028208094 0.054562896 -0.031207874 -0.1319838
0003c0 28 31 37 3a 4d 6f 8a bd 97 d6 75 3c 59 68 af 3d
       0.0006988221 -0.0675951 0.0150047755 0.085648246
0003d0 0c 62 0e 3d bf 8f cb bb 0b b7 9a bd 8e 0b 18 bd
       0.034761474 -0.006212204 -0.07554444 -0.037120394
0003e0 14 2b db bd 2e a1 d5 bd da 74 a2 bc 4d da db bd
       -0.10701576 -0.10431133 -0.01983111 -0.10734997
0003f0 ae 32 4f bd 85 ba 77 3d 10 c9 9c bd 89 38 f1 bc
       -0.05058544 0.060480613 -0.07655537 -0.029445903

fc2.bias f4 [256]
000000 ce 4f 77 3d 95 e9 a3 3b f4 e0 89 3d c3 74 82 3d
       0.060378842 0.0050022104 0.067323595 0.06369927
000010 4d 3c 24 bd f5 01 f1 3c c2 cc 9d 3d e4 4a 08 bd
       -0.04009657 0.029419878 0.0770507 -0.033274546
000020 87 e0 67 bd 08 82 84 bc ad 30 27 bd 35 c2 00 3c
       -0.05661061 -0.016175285 -0.040817905 0.007858803
000030 86 c1 e5 bc 3d 38 74 3d 17 d3 76 3c 51 68 5e 3d
       -0.02804638 0.059623946 0.015064976 0.054298703
000040 f1 60 51 bc 7f f2 d2 bc 36 4c 19 bd 2f a1 4f bd
       -0.01277946 -0.025750397 -0.037426196 -0.050690826
000050 82 8f 14 3c 90 34 21 bd 0f 9c e1 bc 96 47 b4 bc
       0.009067418 -0.039356768 -0.027540235 -0.022006791
000060 60 25 92 bd 8b 43 20 3d 29 6c 24 3d 15 26 66 bb
       -0.07136035 0.039126914 0.040142212 -0.0035117914
000070 66 f0 3a bd 2b c7 3f 3d f1 e9 3b 3d d6 ab ab 3b
       -0.045639418 0.0468208 0.0458774 0.0052389903
000080 93 53 3d 3d 52 09 e2 bc 15 27 a9 bc 7f 9d 6e 3d
       0.04622228 -0.027592335 -0.020648519 0.05825567
000090 69 34 61 3d 66 8f 13 bd f7 23 8f 3d bb 40 53 bd
       0.054981623 -0.036025427 0.069892816 -0.051575404
0000a0 a1 3b 62 bd 65 84 81 bd 90 99 f1 bc 9e 75 e0 bc
       -0.055232648 -0.063240804 -0.02949217 -0.027399834
0000b0 b4 bf 0c 3d f9 13 cf 3c a0 ae 6b bd f7 c8 a8 bc
       0.03436251 0.025278078 -0.057539582 -0.02060364
0000c0 01 61 fc 3c 67 e8 77 3d 53 b0 40 3d e6 7b 24 bd
       0.030807974 0.06052437 0.047043156 -0.04015722
0000d0 12 93 2d 3d 85 a0 81 bd 93 08 5e bd 92 45 3f 3c
       0.042376585 -0.06329445 -0.054207396 0.011674302
0000e0 cb ab 89 3d 63 a1 11 3d cb 3d aa bc f1 60 ff bb
       0.0672222 0.0355543 -0.020781418 -0.0077935387
0000f0 9e 21 5a bd 33 4f 11 3d 02 cb 31 3d 4d 4c a1 bd
       -0.053254716 0.03547592 0.043406494 -0.07875881
000100 8d 31 88 3d 7e 31 df 3c ca f2 fa 3c 6c 1b 7a bc
       0.06650076 0.02724528 0.030633349 -0.015265327
000110 77 c4 2b 3d 2c 21 46 bd bc 33 63 bd ba 33 8b bc
       0.04193541 -0.04837148 -0.05546926 -0.016992439
000120 1c c1 83 3d cd 76 85 3d ea 1d 65 3d e5 85 28 bd
       0.06433317 0.065168 0.05593673 -0.041143317
000130 70 10 81 3d cd 5e 9c bd a4 b6 02 bd 50 09 f3 3c
       0.06301963 -0.07635269 -0.03191246 0.029667526
000140 48 b1 bc bc e1 87 26 bd c6 48 49 bd 11 80 96 3b
       -0.023033753 -0.040656928 -0.049141668 0.0045929034
000150 f3 4e 8f 3d 16 e4 95 3c 76 e7 26 3d a8 92 a5 3c
       0.0699748 0.018297236 0.040748082 0.020211533
000160 04 18 b7 3c a9 db 60 bd c0 ee 69 3d d6 37 fc 3c
       0.022350319 -0.054896984 0.057112455 0.030788343
000170 c2 ce 46 3d f0 18 8a bd b5 8c 17 bd fb ea 57 3d
       0.048537023 -0.06743038 -0.036999423 0.05271433
000180 a9 f9 19 bd df b2 96 bc f6 ea 8b 3c 43 1e 1f bd
       -0.03759161 -0.01839584 0.017079812 -0.03884722
000190 66 d2 f3 3b 00 e2 8b 3d 5b a1 31 bc 8d 06 0e bc
       0.007440853 0.068302155 -0.010841693 -0.008668554
0001a0 6b 1a 2e bd d8 59 80 bd 6a 99 63 bd 64 5e 22 bc
       -0.042505663 -0.06267136 -0.05556623 -0.0099102
0001b0 d1 2b 52 3d 99 c3 86 3d f9 9b cd 3c 4e b6 83 3c
       0.051311318 0.06580276 0.025098788 0.01607814
0001c0 f3 2a 89 bd e4 7d 91 3d f1 f5 e5 3a 31 33 29 bd
       -0.06697645 0.0710409 0.001754461 -0.041308586
0001d0 32 df 4b bd ca 25 47 bb 52 a8 0e bd 8e 96 20 bd
       -0.049773403 -0.0030387514 -0.03482849 -0.03920608
0001e0 5d 5a 8b bc bc 9b 07 3d 1e 23 e9 bb be 8e a7 3d
       -0.017010862 0.033107504 -0.007114782 0.08181523
0001f0 6f 6d 6d 3d 50 97 f7 3c d3 f0 e8 bc ae d7 ee bc
       0.057965692 0.030223519 -0.028435146 -0.029155578
000200 50 36 21 bd e4 80 22 bd 37 e6 2b bd 8a 36 89 3d
       -0.039358437 -0.0396737 -0.041967597 0.066998556
000210 9e 23 33 bd 17 5b c7 bb 4b 01 b4 bc 9d a3 33 3d
       -0.04373514 -0.006083857 -0.021973273 0.043857206
000220 da 60 a7 bc 76 fd 2c 3d 89 40 4b 3d 5d 34 db bb
       -0.020431925 0.042233907 0.049622092 -0.006689592
000230 d0 83 29 3d b4 3a 74 3d 5e 20 12 3c 7e a5 72 bd
       0.04138547 0.059626296 0.00891885 -0.059239857
000240 84 82 af 3c 4b 7f e8 3c 2b 67 58 3c 2c 36 28 bd
       0.02142454 0.02838101 0.013208191 -0.041067287
000250 ba ca 4d 3d 5c f6 14 3d b0 cb 6d bc b3 f4 d9 3c
       0.050242163 0.03636776 -0.014513895 0.02660594
000260 89 7a 4b 3b 0c 32 67 bd 58 f5 dd bb ff 53 2a 3b
       0.0031048378 -0.056444213 -0.006773632 0.0025990007
000270 46 1a 76 3d fd f5 bc 3c 03 c1 50 3d bf 69 fc bc
       0.06008365 0.023066515 0.05096532 -0.030812142
000280 0c fe 3c 3d dd 7f 52 bd 7b 07 f3 3a e2 8a 59 3c
       0.046140715 -0.05139147 0.0018541658 0.013277741
000290 ca 53 8a bd 61 01 24 3d 62 fa 98 3c 64 55 3f bd
       -0.06754263 0.040040378 0.01867408 -0.046712294
0002a0 d5 f0 ae bc 14 8d 2e bd 39 c9 78 bd 4d 26 eb 3b
       -0.021355072 -0.04261501 -0.060738776 0.0071761967
0002b0 a9 c4 65 bc d0 80 8a bc 99 6d dd 3c 51 f2 1c bd
       -0.014023938 -0.016907126 0.0270298 -0.03831703
0002c0 12 91 5b bd fe e4 09 3d 13 a2 10 bb f6 21 39 3d
       -0.053605147 0.03366565 -0.002206926 0.045198403
0002d0 f6 de 29 bd 1b e3 a0 bd 16 31 df bc 87 07 3d bd
       -0.041472398 -0.07855817 -0.027245086 -0.046149757
0002e0 37 03 54 3d cb 1f 92 bc 61 c0 10 bd 10 99 09 bc
       0.05176088 -0.017837426 -0.035339717 -0.008398309
0002f0 08 44 88 3d fd d4 ee bc 66 39 2f bd 2c ac 84 3d
       0.06653601 -0.029154295 -0.04277935 0.06478152
000300 b3 b8 5e 3d ae 24 03 3d a2 1e 3b 3d ce a7 07 bd
       0.05437536 0.032017402 0.04568351 -0.033119015
000310 f7 5d 06 bd 5b 74 6f 3d 0e 19 19 bd ce 85 23 3d
       -0.032804456 0.058460575 -0.03737741 0.039922528
000320 ba 5c cf bb 84 d7 df bb 96 54 4c bd a1 73 10 3d
       -0.0063281925 -0.0068311114 -0.049885355 0.035266522
000330 f7 77 b9 bc a0 8b 72 bd 89 4f e1 3b b8 76 a0 bd
       -0.022640212 -0.059215188 0.0068759364 -0.07835144
000340 57 01 08 3c 77 5a d9 3c 7b 5d 82 3c 0d f6 19 3d
       0.008301101 0.026532395 0.015913716 0.037588168
000350 42 75 27 3c 60 86 35 3d 05 04 1d bd 5c 13 47 3d
       0.010220828 0.044317603 -0.03833391 0.048602447
000360 dd 55 01 3d 17 86 97 3d 41 42 41 bd 8d 58 e3 3c
       0.031576026 0.073986225 -0.047182325 0.027752185
000370 06 76 af bb 9e 4d 18 3d dc e7 16 3d f5 05 c1 3c
       -0.0053546457 0.037183397 0.036842212 0.02356241
000380 62 27 95 3d ba 1e 56 bc 5d 2e aa bb 8a 82 23 bd
       0.07282902 -0.013068849 -0.005193515 -0.039919414
000390 4c f6 ab 3c fc b5 2c bc 77 95 0e bc fb 5a 95 3c
       0.020991467 -0.010541435 -0.008702627 0.01823186
0003a0 55 55 f2 bc dd d6 b4 bb de f1 2f 3d 76 b1 46 bd
       -0.029581705 -0.0055187778 0.042955272 -0.048509084
0003b0 52 05 84 3d 4f 54 f6 3b 06 c9 c5 bb 93 ab 12 bd
       0.06446327 0.0075173746 -0.0060359268 -0.035808157
0003c0 b8 f0 89 3d 92 1c bf bc 5e b1 20 3d 88 58 61 3c
       0.067353666 -0.023329053 0.03923165 0.013754018
0003d0 eb c8 41 bb 85 30 2a 3d f1 3d 5c 3d 86 da f5 bc
       -0.002956922 0.041550178 0.05377001 -0.030011427
0003e0 50 9c 7c 3d 10 c8 36 3d 1e e4 7d 3d 42 66 73 bc
       0.06167251 0.04462439 0.061985128 -0.014855923
0003f0 9f a8 47 3d 7d 37 97 bb d1 a0 0e bc 21 2c 0a 3d
       0.048744794 -0.004614769 -0.008705334 0.03373349

fc3.weight f4 [256, 256]
000000 6d 35 92 3d fe a7 b9 b9 8a af 35 bc 82 c3 81 3d
       0.071390964 -0.00035411114 -0.011089215 0.06336118
000010 77 1d 19 bd c0 95 b0 3c 47 93 69 bd 0c 76 5f bd
       -0.037381615 0.021555781 -0.05702522 -0.054555938
000020 de f4 1e bd 84 25 4e 3d 84 69 68 3d 29 d9 bf bc
       -0.038807742 0.050328746 0.056741253 -0.02341898
000030 b8 42 1f 3d f7 8d 77 3c 64 84 12 3d e5 2e 58 3d
       0.038881987 0.015109531 0.03577079 0.052779097
000040 f0 f9 cb bc 6a f5 fe bc 9f 78 f5 b9 40 ed 12 bb
       -0.024899453 -0.031122882 -0.0004681991 -0.0022419244
000050 c5 77 55 bd dc f2 61 bd e4 9c 6b 3d 13 81 03 bd
       -0.052116174 -0.05516325 0.05752267 -0.032105517
000060 26 8e 3c 3d 48 ad 44 bc 17 c6 a9 3c bd 77 01 3c
       0.046034 -0.012004204 0.02072434 0.007902083
000070 3d 57 94 bc 1c a7 69 bd 5e b2 fd bc 8f 83 81 bd
       -0.018108005 -0.057044134 -0.030968841 -0.06323921
000080 1a 25 95 bc 2d 61 ff 3a 78 cb 20 bc a3 9b 2a bc
       -0.018206168 0.0019483917 -0.009814136 -0.010413083
000090 2d 9b d7 bd 26 9e d3 3c 93 f5 1c 3b 9e a0 58 bd
       -0.10527644 0.025832247 0.0023950085 -0.05288755
0000a0 55 a9 37 bc 50 26 bb 3c 18 57 a2 bb 69 45 67 3d
       -0.0112098055 0.022845417 -0.00495423 0.05646268
0000b0 ca 7c 9f bd e7 a3 1c 3c 5d c6 2a 3d 0e 9b 3b bd
       -0.077874735 0.009560562 0.04169308 -0.04580217
0000c0 1b 2d dc bc 7d a5 89 3d 1a 23 82 bd e8 7d 90 bc
       -0.026876977 0.067210175 -0.06354351 -0.017638162
0000d0 e6 df 9a 3d 2c 78 20 3c 6a 0a 83 bc 68 13 a2 bc
       0.075622365 0.009794276 -0.015996177 -0.019784644
0000e0 18 08 34 bd b6 6f 26 bd d9 59 a6 bc 50 0a 8f bd
       -0.04395303 -0.04063388 -0.020306515 -0.06984389
0000f0 23 39 2c 3d db 14 02 3d 12 2e 73 3c 80 91 f0 bb
       0.042046677 0.03175817 0.014842527 -0.0073415637
000100 02 93 d7 bb 11 3a 6c bd 9f 33 6b 3d fc 82 7b 3c
       -0.006578804 -0.057672564 0.057422277 0.015351053
000110 f0 9c 05 be 6e 4d 31 3c 4c 37 33 bd 62 0a 83 3d
       -0.13048148 0.010821683 -0.043753907 0.06398465
000120 2f 40 20 3d a7 10 54 bd 9a d8 18 bd 57 1a b7 3c
       0.03912371 -0.051773693 -0.037315942 0.022351427
000130 c9 5f 07 bb f4 3b 0f bc 78 7e 8f 3d 23 1c 2d bd
       -0.0020656458 -0.008742321 0.07006544 -0.04226316
000140 2b b5 30 bc fb 57 1f bd 33 de 2a bc 4d 2f af 3c
       -0.010785381 -0.038902264 -0.010428953 0.02138486
000150 b2 6d 14 3d 16 5f ac 3b 46 6a 91 bc 03 45 33 3d
       0.036237426 0.0052603586 -0.01775087 0.043766987
000160 93 7e 1c bd a3 f8 49 3d 12 c9 b0 bd ae eb 96 ba
       -0.038206648 0.049309384 -0.08632101 -0.001151433
000170 dd e4 2f 3d f7 e0 3d 3d ff 76 1d bd 9c 62 7f bc
       0.04294287 0.04635712 -0.03844356 -0.015587475
000180 b0 f7 1a bd e9 93 55 bb c8 d4 6b bc 41 ea 9e 3c
       -0.03783387 -0.0032589382 -0.014393993 0.01939881
000190 0c 1a 29 3d ca 14 59 3d d2 b3 de b8 9d a1 a6 bc
       0.041284606 0.05299834 -0.00010619279 -0.020340735
0001a0 e8 30 39 bc 53 6e 6d bd 5d 2d 06 3d 1f e9 06 3d
       -0.011303164 -0.05796654 0.032758106 0.032937165
0001b0 c6 9b 02 3d ed 92 ab bd 52 39 66 bd fc ae 7e bd
       0.03188684 -0.08377633 -0.05620701 -0.062178597
0001c0 67 b8 83 3d 63 ba 1a 3c 76 aa 67 3c 28 65 72 3d
       0.06431656 0.009443852 0.014139762 0.0591785
0001d0 f9 5a a8 bc 47 e3 08 3d ea 3b 7f bd 31 5d c4 3c
       -0.020551192 0.033419874 -0.062312998 0.023970218
0001e0 eb 04 58 bd 38 df 99 bb 28 7e 0b 3d e7 fc 1a bc
       -0.052739065 -0.004695799 0.03405586 -0.009459711
0001f0 65 e9 3f bd 52 0f 0e bd 86 72 36 bd 08 ab 15 bd
       -0.04685344 -0.03468258 -0.04454281 -0.03654006
000200 58 1f 6b 3d e9 47 87 3c 08 de b4 bc 5b ec 91 3d
       0.05740294 0.016513782 -0.022078529 0.07125159
000210 e0 d6 93 bc a1 97 2a bb 0b b6 3a bd 19 24 43 bd
       -0.018046796 -0.002603032 -0.045583766 -0.047641847
000220 6e c6 84 bc 55 bb d0 3b d8 8e 39 bd e9 13 14 3c
       -0.0162079 0.006369988 -0.045302242 0.00903795
000230 9d 3f e6 3c 20 49 69 3d 20 b1 be bc 9a 52 44 bd
       0.028106505 0.056954503 -0.02327782 -0.047930337
000240 60 2c 10 bd d9 e5 22 3d 7c 2e 5a 3d 4d 96 91 bc
       -0.03519857 0.03976998 0.053266987 -0.017771864
000250 de e9 0c 3d 38 75 28 be cc 36 86 bd 1c c5 74 3d
       0.03440272 -0.16450965 -0.065534204 0.05975829
000260 43 d8 5f 3d f5 4f 52 3d 22 6b c6 bb d8 e4 8f 3c
       0.054649603 0.051345784 -0.0060552517 0.017565176
000270 fe 85 53 3c d7 16 31 bd 13 ba 9f bd 4b c2 59 3b
       0.012910364 -0.043234672 -0.07799163 0.003322738
000280 f5 ce 71 3d cc ff a4 3c c3 69 dc 3c ae 6d 7e 3d
       0.05903526 0.020141505 0.0269059 0.062116317
000290 fe f5 26 bd f8 02 a7 3d e4 a9 fb bd f3 2d 96 3d
       -0.04076194 0.08154863 -0.122882634 0.07332983
0002a0 78 42 bf 3a 85 22 9e bc 30 d1 8a 3c 26 db 4a 3d
       0.0014591953 -0.01930357 0.016945451 0.049525402
0002b0 5a 93 1d bb a3 0d b9 bc 55 59 23 3d 7e 43 74 3b
       -0.0024044127 -0.02258951 0.039880116 0.0037271674
0002c0 d3 7f bb bc 05 d9 f6 bc 15 6f fb 3c 98 92 13 bd
       -0.0228881 -0.03013278 0.030692616 -0.036028475
0002d0 89 2b 3d bc aa b8 7d bd c2 66 9d bc a9 3f 41 3c
       -0.011546024 -0.061943687 -0.019214038 0.011794963
0002e0 0c 87 b4 bd 87 ef 59 bd 9b 13 08 bc d2 64 29 bd
       -0.08814821 -0.053206947 -0.008305456 -0.041355915
0002f0 00 00 14 be 70 df 47 3c c8 37 9a 3c 4a c8 3e bc
       -0.14453125 0.012199268 0.018825427 -0.011644432
000300 9c 6d 71 bc 88 86 2d 3d f4 81 89 bd 50 6b d4 bc
       -0.014735606 0.042364627 -0.0671424 -0.025930077
000310 a1 d7 80 3d 1a 50 9a bd 70 62 ea 3c a2 ad d0 bc
       0.06291128 -0.075348094 0.028611392 -0.02547342
000320 09 05 5a 3d d8 00 df bc 53 b8 b3 bb 0b c2 54 bc
       0.05322746 -0.027222082 -0.0054846196 -0.012985717
000330 52 ab 90 3d 35 9a 72 bc 85 d7 a5 3b 70 d9 78 3c
       0.07063927 -0.014807274 0.0050610923 0.01518856
000340 fa 7f ae bd f3 aa 5b 3d d2 92 7e 3d 68 13 a2 3b
       -0.08520503 0.053629827 0.062151738 0.004946161
000350 e4 0c 26 bd ce f9 50 bd ca 52 e1 3c 10 eb 17 bd
       -0.040539637 -0.051019482 0.027505297 -0.037089407
000360 51 6d 4b bd a9 bc 45 bd d7 a6 1b bd 0f 5a c1 bd
       -0.0496648 -0.048275623 -0.038000908 -0.094410054
000370 6d 53 84 3c 4c 0e da bc 55 6f f7 b9 16 8f 38 3d
       0.016153062 -0.026618145 -0.0004719446 0.045058332
000380 95 eb 94 bc ae 77 42 3d fd de b2 b9 b6 59 8a bd
       -0.01817874 0.047477417 -0.00034116945 -0.06755392
000390 16 58 fe 3c b3 88 91 bd ab 34 1f 3d 87 45 96 bc
       0.031047862 -0.071061514 0.038868587 -0.0183437
0003a0 33 40 99 bc 96 f3 c1 3d 18 14 8e bc 0e fe 18 3d
       -0.01870737 0.094702885 -0.017343566 0.03735166
0003b0 01 69 b6 bd a4 71 c1 3b 9a 34 0b bc 2b 93 17 bd
       -0.08906747 0.0059034396 -0.008496428 -0.037005585
0003c0 f8 8f 20 bd af d8 3d bd 49 6a e0 3c 2a f8 f3 bb
       -0.0391998 -0.046349224 0.02739443 -0.007445355
0003d0 01 27 f0 3b 12 48 27 be 90 61 0b 3d 4a f4 22 bc
       0.0073288684 -0.16336086 0.03402859 -0.009945938
0003e0 9f 7c d3 3b cf 88 22 3c 12 2c 9b bc 43 52 b1 bc
       0.006454065 0.009920313 -0.018941913 -0.02164567
0003f0 0f 50 cb bb 1a 31 94 3d 7e 8d 31 3d 2a c2 c8 bb
       -0.006204612 0.07235928 0.043347828 -0.006126662

fc3.bias f4 [256]
000000 71 b3 1b bc c3 6d 10 3d c6 28 59 3d 2d cc 9a bc
       -0.009503231 0.035260927 0.0530174 -0.018896187
000010 36 31 23 3d cb 33 77 3d f4 14 1e bd 42 1e 4b bd
       0.039841853 0.060352128 -0.0385942 -0.049589403
000020 f6 5c 24 3d 11 79 23 3d 1c ab 42 3d 03 ca d4 3b
       0.040127717 0.03991038 0.047526464 0.0064938082
000030 f1 a1 85 3d f0 5f 01 3d 1d 49 06 3d 48 f4 89 bd
       0.065250285 0.031585634 0.03278457 -0.06736046
000040 04 7f 81 3d 7e 50 de 3a f8 f7 c8 bc 33 1f 55 bd
       0.063230544 0.0016961244 -0.024532303 -0.052031707
000050 f5 51 72 bd 37 c9 50 bc 81 06 64 3c 81 4b 18 bd
       -0.05916019 -0.012743286 0.013917566 -0.03718138
000060 bd 20 73 3a 42 90 ed 3c c8 82 40 3d c2 a9 a3 3b
       0.0009274593 0.028999452 0.046999723 0.004994602
000070 e5 a6 0c 3d af 60 1d bd 30 66 52 3d d8 7f f5 bc
       0.03433885 -0.038422283 0.051366985 -0.029968187
000080 b8 63 3c 3d 77 eb 8b bc fa 03 85 3c 30 ec 38 bd
       0.045993537 -0.017080052 0.016237248 -0.04514712
000090 89 4c 30 bd b1 ed bc 3c bf 90 cc 39 f5 c9 21 bd
       -0.04304174 0.023062559 0.00039017756 -0.03949924
0000a0 73 2c 27 3d f4 69 78 3c 50 f6 25 3d a9 ec 0b 3d
       0.040813874 0.01516198 0.040518105 0.034161244
0000b0 80 77 0c 3d fb 85 38 3d 6d 76 5f 3d cc ae 5f 3d
       0.03429365 0.04504965 0.0545563 0.05461006
0000c0 d6 eb 23 3d c9 02 08 bd 56 51 04 3c 8c c1 7f 3c
       0.040019833 -0.03320578 0.008076033 0.01561011
0000d0 cf aa 3d 3d 1a f6 7b 3d 01 1e 48 bd b4 0f 21 3c
       0.046305474 0.061513998 -0.04885674 0.009830404
0000e0 ed ea a1 bc 05 98 59 bc 46 13 3a 3d 55 56 b0 bc
       -0.019765342 -0.013280873 0.045428537 -0.021525541
0000f0 fa 3c 79 bb f8 f1 e6 3c 20 c7 5a 3c 69 d2 fb 3b
       -0.003803073 0.028191552 0.013353139 0.007684995
000100 99 76 95 bc 6a be db 3c 6a b9 87 bc 21 fb 92 bc
       -0.018245028 0.026824195 -0.016567905 -0.017942013
000110 45 3e 21 3b 12 c3 af 3b d0 3f bf bc 15 44 72 3d
       0.0024603766 0.0053638304 -0.023345858 0.05914696
000120 50 04 31 3c 09 09 d3 bc 17 e7 ef bb d5 96 15 3d
       0.010804251 -0.025761144 -0.007321249 0.036520798
000130 a2 29 41 3d 2b 7e 02 3d ee 8c 4a bd 6f b5 d3 3b
       0.047158845 0.031858604 -0.049450807 0.0064608376
000140 9e 07 2d 3d 5e 8e 10 bd 8b 32 de 3b a9 de c6 3c
       0.042243592 -0.035292022 0.0067809275 0.024276095
000150 e1 aa c7 bc 3f 51 b1 bc 7a 64 40 3d 5a da 1e 3d
       -0.024373474 -0.021645186 0.046970822 0.038782455
000160 12 64 99 3c db 40 13 3d 22 d9 c2 3b 11 da cb ba
       0.018724475 0.035950523 0.0059462944 -0.001555266
000170 12 89 27 bd 83 32 2f 3d 6b b5 13 3d ac 2f 66 3c
       -0.040902205 0.04277278 0.036061686 0.014049452
000180 1c ac 54 bb 66 2c f0 bb 5b 8d 31 3d a1 a8 34 3d
       -0.0032451218 -0.0073295115 0.043347698 0.04410613
000190 7e 76 83 3d 44 33 1e 3d 11 38 ac 3c 64 79 6d 3d
       0.06419085 0.03862311 0.021022828 0.057977095
0001a0 49 d6 1d 3d aa ff 58 3c e6 8f 1b bd f9 73 5d bd
       0.038534436 0.013244549 -0.03797903 -0.05406568
0001b0 8e b6 02 3d 89 4b 5f 3c 56 50 f2 3c fc 10 80 3c
       0.03191238 0.013628849 0.029579323 0.015633099
0001c0 e7 78 23 3d 0a f3 0d bc c1 ea e1 3b 6b 93 17 bc
       0.039910223 -0.008663902 0.00689444 -0.009251456
0001d0 84 01 ac 3c f3 93 79 bd 36 98 19 bb 18 80 6d 3d
       0.020996816 -0.06093211 -0.0023436672 0.057983488
0001e0 28 a4 7c bd c6 92 da bc 2d 08 14 bd 22 81 c4 bc
       -0.06167999 -0.026681315 -0.03614061 -0.023987357
0001f0 af a8 93 3d 6a 88 0f 3d a6 4d 1d bd 5e 24 40 bd
       0.07209908 0.035042204 -0.03840413 -0.046909682
000200 94 35 00 3d 16 38 5e bd c0 e8 32 bd 5d 73 2f bd
       0.031301096 -0.054252706 -0.043679 -0.04283463
000210 fe 43 44 bd 50 c1 78 bd 29 ee db 3c 9b d3 40 3c
       -0.047916405 -0.060731232 0.026846962 0.011769201
000220 10 84 2c 3d 2d ed 17 bd e4 4b 8e bd e1 13 88 3c
       0.042118132 -0.037091423 -0.06948069 0.016611042
000230 b8 14 14 3d 31 cd 67 3c 8b 9e 9c 3d b1 99 44 bd
       0.03615257 0.014148043 0.07647427 -0.047998134
000240 0e e0 56 3b ea 3c 5b 3d 65 07 b0 bc 78 9c 31 bc
       0.0032787356 0.05352489 -0.021487901 -0.010840528
000250 fa 97 50 3d b7 8a f6 bc 39 4b 53 3c e1 26 a3 3d
       0.050926186 -0.030095441 0.012896352 0.079664
000260 cb 6e 13 3d 6a 64 fe bc db 4b 93 3c f1 1f 06 bd
       0.035994332 -0.03105374 0.017980507 -0.032745305
000270 a1 cb c8 bc bc 8b ba 3b e9 dc c6 bc 8e e8 85 bd
       -0.02451116 0.005692927 -0.02427526 -0.06538497
000280 4a 3b c0 3c 6e 34 b6 3c 9e d0 9d bd d6 4d 17 3c
       0.023465771 0.022241797 -0.07705806 0.009234866
000290 dd f4 1b 3d c8 de d3 bb 91 0e 49 3d 83 16 32 bb
       0.038075317 -0.0064657666 0.049086157 -0.0027174063
0002a0 02 66 81 bd da 9a 13 bd 90 31 cf bc a7 6d ea bc
       -0.063182846 -0.03603635 -0.025292188 -0.02861674
0002b0 1a ae 81 3d 52 8b ba ba b6 4c 6e bd d1 a1 79 3d
       0.06332035 -0.0014232195 -0.058178626 0.060945336
0002c0 cb ea a7 bb 7a 86 85 bd 91 45 4e bd a3 e0 9f bd
       -0.005124425 -0.0651979 -0.050359312 -0.07806518
0002d0 77 c1 78 3d f8 3c 81 bd 44 38 4d bc a8 4c 01 3d
       0.060731377 -0.06310457 -0.012525622 0.031567246
0002e0 3f bb 11 bc a2 bd 4d bd 62 c6 40 bc 78 b2 31 bd
       -0.008894741 -0.050229676 -0.011766048 -0.04338309
0002f0 a2 81 85 bd d9 d6 3b bc 64 a3 5d 3d 55 ed 8f bc
       -0.06518866 -0.011464798 0.0541109 -0.017569223
000300 f4 74 39 bd 4f c0 4e 3d 5c 7b 93 3d 0c bb 4e bc
       -0.04527755 0.05047637 0.07201263 -0.012617838
000310 93 15 49 3d ae 25 e6 bb af 78 5c bd 27 95 8f 3d
       0.04909284 -0.0070235347 -0.05382603 0.070108704
000320 2a 27 8b bd 34 7d 96 3c dd 90 72 bd bf bf 8c 3d
       -0.06794579 0.018370248 -0.059220184 0.0687251
000330 35 13 80 bd a2 9d e7 bc d9 40 01 3d c2 ff 28 bd
       -0.062536635 -0.028273407 0.031555984 -0.041259535
000340 a5 e1 84 3d aa 30 3e bd 97 82 9f bc 57 1d 86 3c
       0.06488351 -0.04643313 -0.01947145 0.016371412
000350 ac 75 e4 bc 9d 78 ef bc e2 9b 7b 3d 71 dd 0c bd
       -0.027888142 -0.029232318 0.06142796 -0.03439087
000360 8e c6 13 3d e9 7d d3 bc 94 70 b0 bc 5b 27 78 3d
       0.03607803 -0.025816875 -0.021538056 0.060584407
000370 bd 06 32 3d a7 d6 38 bd 03 47 0b bb 7a f3 4a bd
       0.043463457 -0.045126583 -0.0021252043 -0.049548604
000380 86 0e 89 bc 42 16 8d bd 15 b8 5a bd 56 86 61 3d
       -0.016730558 -0.06889011 -0.05339821 0.055059753
000390 34 b8 a2 bd f0 ca 73 bc b0 8c ad bc 8f e8 5e bb
       -0.0794529 -0.014879927 -0.02118525 -0.0034013127
0003a0 27 b1 eb 3c 63 12 23 bc 50 15 4b bd 0f 43 63 3b
       0.028770996 -0.009953114 -0.049580872 0.0034677421
0003b0 12 3f c4 3c 7a 34 51 3d 9c 83 27 3c 37 aa a6 bc
       0.023955856 0.051075436 0.010224249 -0.020344837
0003c0 f7 4f 67 bd 9b 62 14 3d f4 02 48 3d 8a 09 57 3d
       -0.056472745 0.03622685 0.04883094 0.05249933
0003d0 11 9f 56 3d 83 e8 d5 3c 74 e2 02 bd d5 0e e6 bc
       0.05239779 0.026111847 -0.031954244 -0.028083244
0003e0 b4 a2 04 3d 08 d1 9e 3c 1e bd 26 3c 07 73 00 3c
       0.03238173 0.019386783 0.010176925 0.007839925
0003f0 03 a4 9f bd b3 95 33 3d bd 75 8e bd 30 41 00 3d
       -0.07794955 0.043843936 -0.069560505 0.031312168

fc4.weight f4 [2, 256]
000000 95 a7 0a bd 5f c4 d3 3b 32 e0 e7 3c a1 f3 9c 3a
       -0.033851225 0.0064626182 0.028305147 0.0011974463
000010 cd a2 78 bd 0f bb 1c bc 44 3e 81 bd 21 ac 78 bd
       -0.060702134 -0.009566083 -0.06310704 -0.06071103
000020 9f cf 16 bd b2 1e 4b bd 0f 8d f1 3c 1f 48 f9 3c
       -0.036819097 -0.04958982 0.029486207 0.030429898
000030 07 96 9a bc 1a 9a 07 3b fc a2 54 3d 96 a7 32 3d
       -0.018870367 0.0020691217 0.051913247 0.043616854
000040 97 e8 82 ba 5f a8 21 3d a8 6d 14 bd 3f 3b ad bd
       -0.000998753 0.03946721 -0.03623739 -0.08458566
000050 d5 13 86 bd 75 d4 7c bc 9d 1c 01 3d ef 7a 88 3c
       -0.065467514 -0.015431513 0.03152143 0.016660182
000060 27 c4 db 3c 22 b6 2f 3d 7b a0 ac bc 93 d7 a2 bd
       0.026826931 0.042898305 -0.021072617 -0.07951274
000070 51 13 18 3c 07 67 78 3d 6c b5 66 bc e4 70 1f 3a
       0.009281949 0.06064513 -0.01408134 0.00060821907
000080 a3 f7 b8 3b 3d fe 53 bd f4 f8 af bd 05 76 ea 3b
       0.005644755 -0.051756132 -0.08592406 0.0071551823
000090 27 59 82 3c cd 32 2c 3c 6c d1 87 bd 0d 9c 34 bd
       0.015911652 0.010510159 -0.06631741 -0.044094134
0000a0 d6 df 01 bd dc 01 e9 ba 67 2a 8c bd 1f c0 d1 3c
       -0.031707607 -0.0017777043 -0.06844025 0.025604306
0000b0 cd b7 0d bc 44 0d 86 3c dc fc 14 bd bd b0 27 bd
       -0.008649779 0.016363747 -0.036373958 -0.040940035
0000c0 4c ce d5 3c 9f a9 1c 3d 78 87 45 bc 1c 52 d1 3b
       0.026099347 0.0382477 -0.012056224 0.006387962
0000d0 3a fe a0 3d dd 32 83 3c 96 ce 99 bd 3c 2b da 3c
       0.0786099 0.016015464 -0.07510106 0.026631944
0000e0 ec 0e 06 3d 25 c2 68 3d 39 b4 4e bd a1 6c 9d bc
       0.032729074 0.056825776 -0.050464842 -0.019216837
0000f0 99 3b 75 bc b8 95 ed bc e6 23 7d bd 88 c3 58 bc
       -0.0149678225 -0.029002056 -0.061801814 -0.013230212
000100 dd b6 36 3c 9e 68 70 3d fb 5e 54 bd 7c b8 b5 3b
       0.011151996 0.05869352 -0.051848393 0.005545674
000110 49 9b 3b 3b a4 a7 a1 3a 72 a6 ee 3c 3f e3 44 bd
       0.0028626493 0.0012333286 0.029132102 -0.04806828
000120 0b 0f cc 3c c1 d6 ef bb 46 2f 80 3a d8 f4 d0 3b
       0.024909517 -0.007319302 0.0009779714 0.006376844
000130 23 c7 a3 bc ff 76 55 bb 8f 44 6b 3c 21 49 46 3d
       -0.019992417 -0.0032572148 0.014359607 0.048409585
000140 37 54 f1 3b e7 6d 66 3d 3f db 47 bd 36 73 32 3b
       0.0073647755 0.056257155 -0.048793074 0.0027229316
000150 01 6b 74 bd a3 1e 72 bc 12 86 30 3c 47 d4 ee bc
       -0.05967236 -0.014777812 0.010774152 -0.029153956
000160 dd ee e4 bc 10 dc 47 3c a0 3c 21 3d 1c 5f 43 bb
       -0.02794593 0.012198463 0.039364457 -0.0029811328
000170 fc 53 c0 3c 64 ad 41 bd 51 cb a7 bd 13 28 ac bb
       0.023477547 -0.0472845 -0.081930764 -0.0052538007
000180 72 73 60 3d 57 06 5d bc f1 f8 00 3d 12 bf ed bc
       0.054797597 -0.013490281 0.03148741 -0.029021773
000190 7d 13 8e bd 11 8a 6f bc cb 68 e6 bd e2 82 ac 3d
       -0.06937311 -0.01462032 -0.112504564 0.084234014
0001a0 56 33 f5 3c 9a e9 8a 3d d0 03 58 bc 11 80 a8 3c
       0.029931705 0.06782837 -0.013184503 0.02056888
0001b0 db a2 97 bd 2e 21 3d 3d 6b 03 49 3d e5 05 3a bd
       -0.07404109 0.04617422 0.049075525 -0.045415778
0001c0 93 32 25 bc fb ae 10 3d 66 f2 4c 3d 24 aa dd 3b
       -0.010082859 0.035323124 0.050035857 0.006764667
0001d0 e6 ba 3e 3d ae e9 32 3d 30 3f dc 3c 5d 1c 80 3c
       0.04656496 0.043679886 0.026885599 0.015638525
0001e0 86 37 05 bc 01 67 f1 bc 88 1a 45 3d f2 57 9d 3c
       -0.008130914 -0.029468061 0.048121005 0.019206975
0001f0 17 4a 3b bd c1 d3 aa 3d c2 5e e1 3b cc f0 2a 3d
       -0.045724954 0.0834117 0.006877751 0.041733548
000200 47 8d 10 3d cc e3 d1 bd 8d 08 e4 bd 6f 0f fd ba
       0.035290983 -0.10248527 -0.111344434 -0.0019306968
000210 f0 4e 3d 3d 01 60 18 3d af 2c 91 3d 1b 3a a5 bd
       0.04621786 0.03720093 0.07088601 -0.08067723
000220 14 aa 82 bc c0 37 d9 3a cd 93 20 3c 06 88 31 3d
       -0.01595024 0.0016572401 0.009800863 0.043342613
000230 72 4a 14 3a a8 23 ad bd 46 62 7c bc fa 4f 34 3d
       0.0005656845 -0.084540665 -0.01540429 0.044021584
000240 7d 3e d4 3c 51 28 a3 3d ef 2b 6a bd 14 f4 23 3d
       0.025908703 0.07966674 -0.057170805 0.040027693
000250 2e bd 75 bd ca bb 6b 3d 1d 2c 9f 3b c5 9f f6 bc
       -0.05999487 0.057552136 0.0048575536 -0.03010548
000260 3b 0b 4d 3d 0f 91 a8 bc 06 a8 2d 3d c2 5f 99 bb
       0.05005954 -0.020576982 0.042396568 -0.0046806047
000270 e4 ea 16 3d b2 98 52 3c 0c ca f8 bc 40 10 2c 3c
       0.036845103 0.012853788 -0.030369781 0.010501921
000280 96 2d 05 3c ec 4f 20 3d 9d 2b 31 bd 96 33 f6 3c
       0.008128544 0.03913872 -0.043254483 0.030053895
000290 32 17 a6 bd c7 95 82 bd 03 c2 74 3d eb 6d f4 bb
       -0.08109893 -0.06376224 0.059755336 -0.0074593923
0002a0 0c ee 40 3b 85 3a 5d 3b bc 3f cc bc 3d 25 36 3c
       0.0029438762 0.0033756804 -0.024932735 0.011117277
0002b0 a2 da 31 bd d4 14 64 bb 95 08 a2 b9 a9 ea 8b 3c
       -0.043421395 -0.0034802454 -0.00030905442 0.017079668
0002c0 30 4a 70 3d 41 ee b2 3c 84 e8 da 3c b8 b4 1c 3d
       0.0586645 0.021842124 0.0267222 0.038258284
0002d0 90 46 a8 bd 75 87 e7 3c f5 c7 87 bc b0 fc b6 3d
       -0.08216584 0.028262833 -0.01657484 0.08934915
0002e0 1a e1 7e 3d 42 73 e7 3c ce ec 50 3c 30 e5 19 bb
       0.062226392 0.028253201 0.012751771 -0.0023482554
0002f0 ae 7e 01 3c fe a6 8d bb 9c ed 4d 3c 1c 11 b0 3d
       0.007903738 -0.0043228855 0.0125688575 0.08597013
000300 d7 b4 e7 bb 82 fc 3c bd 80 2c 9f bd f3 f5 dd bc
       -0.0070711183 -0.046139248 -0.077721596 -0.027094817
000310 b9 ca 63 bd 84 f6 5d bc fe 47 1e bc 37 e8 1e bd
       -0.055613253 -0.013547543 -0.009660719 -0.038795676
000320 bd 10 c9 3c a2 d0 83 3b 71 aa 2e 3d 13 59 b2 3d
       0.024544114 0.0040226737 0.042643014 0.08708396
000330 61 58 16 bc e8 e6 6c 3c d0 a5 18 3d 4c 56 a4 bd
       -0.009176345 0.014459349 0.037267506 -0.08024272
000340 f1 9e a8 bd 22 76 65 bd 1d 1f e5 bd e4 f6 e0 3a
       -0.08233441 -0.056020863 -0.11187575 0.0017163423
000350 6a cc 19 bd 3f 04 92 3d 55 09 8e 3c 3f fe b7 3b
       -0.03754846 0.07129716 0.017338434 0.0056150253
000360 81 e2 8b 3d d1 f0 94 bc 49 8c cf 3b 5d 42 0e 3d
       0.068303116 -0.018181236 0.006333862 0.034731258
000370 81 f6 20 3d 50 6b d7 3c ab a4 2c 3d c7 a3 99 3c
       0.039297584 0.026296288 0.042149227 0.018754853
000380 13 00 00 be 20 13 61 bd 50 e2 cd 3c f6 f5 00 bd
       -0.12500028 -0.05494988 0.025132328 -0.031484567
000390 c3 e6 08 ba e4 a5 07 bb bc 01 a7 3c bb 8e 78 3b
       -0.00052223745 -0.0020698244 0.02038657 0.003792687
0003a0 05 b8 69 bd 40 71 42 bd ee cb 8c 3c 20 86 87 3c
       -0.05706026 -0.047471285 0.017187085 0.016543448
0003b0 44 30 5d bc 8c 12 29 3c 2d 89 43 bd 1b d1 92 bb
       -0.013500277 0.010319363 -0.047738243 -0.0044804937
0003c0 67 5d 33 bb cf eb 61 bd ae 83 49 3d 58 6f 40 bd
       -0.0027368905 -0.055156525 0.049197845 -0.046981186
0003d0 41 4c 50 3d 4e 45 47 bd 0e 09 16 3c 31 76 cf bb
       0.05085397 -0.04865008 0.009157432 -0.006331228
0003e0 2c b5 95 bd 0a f4 54 3d ea a1 8b bd 9c eb 23 bd
       -0.073099464 0.051990546 -0.06817992 -0.040019616
0003f0 b8 7f 3f 3c 0e 03 15 3d 78 7d be 3c b2 6c ce bc
       0.011688165 0.036379866 0.023253188 -0.025198314

fc4.bias f4 [2]
000000 4d cb 1b bd bf 67 76 3d
       -0.03803568 0.060157534
