snn_nondistorted.pth (torch, 577930 bytes, 8 tensors)

fc1.weight f4 [256, 40]
000000 3f 27 b3 3d 49 cb f0 bc 6e ce f4 bc 79 3d 0d be
       0.0874772 -0.029393809 -0.02988359 -0.13792981
000010 b4 38 b4 3b da 8b 28 be fd 68 8d 3d af 58 57 3d
       0.0054999236 -0.16459599 0.069047906 0.05257481
000020 26 d7 d6 3d 40 b9 c1 bd 56 d0 35 3d 93 7e 16 be
       0.10490255 -0.09459162 0.044388138 -0.14696722
000030 ef c7 da 3d d7 f6 12 bd 6c 42 74 bd e5 c4 c2 3d
       0.106826656 -0.035879936 -0.059633657 0.09510211
000040 75 ce 10 be b0 f0 c7 3b 7f 14 25 be ba 0d 03 be
       -0.14141257 0.00610169 -0.161211 -0.12798205
000050 a6 19 ff bd dd d8 bf 3d 1f a4 e2 3d da e2 e2 3d
       -0.12456064 0.09367535 0.1106646 0.11078425
000060 3c b6 57 bd 84 63 f2 bd 74 47 12 3d 49 c6 df bd
       -0.052664027 -0.11835387 0.035712674 -0.10926492
000070 45 cd 1a be c4 f9 04 3e 32 0d 23 bc 38 c5 f4 3c
       -0.15117367 0.12985903 -0.0099518765 0.029879197
000080 a1 78 a2 3c b2 fc 99 3d 38 03 de bd 9d 93 d0 3d
       0.019832911 0.07518901 -0.10840458 0.10184405
000090 a6 5d 84 3d 58 a0 03 be 85 b3 17 3e 70 92 25 3e
       0.064631745 -0.12854135 0.14814575 0.16169143
0000a0 48 ee 7f 3d db 93 8d 3d 65 31 2a 3e 40 fd cd bd
       0.062483102 0.06912967 0.16620405 -0.10058069
0000b0 36 5e ea bd 44 61 1b 3d bc df 1c 3e 00 0e d8 bd
       -0.114437506 0.037934557 0.15319723 -0.10549545
0000c0 97 f5 f9 bc 99 1c 0d 3e e6 32 3a 3c 1e 8f a9 bc
       -0.030512614 0.1378044 0.011364674 -0.020698126
0000d0 36 e6 be 3b 33 85 de 3c 2e 77 e0 bc cd f3 08 be
       0.005825783 0.027163124 -0.02740058 -0.13374253
0000e0 c9 b0 a8 3c 95 3c 04 be d1 35 04 bb d0 53 bf 3d
       0.02059211 -0.12913735 -0.0020173679 0.09342158
0000f0 d1 24 ed bd 7d 0d cd 3d 63 a4 09 3e f8 e5 27 3d
       -0.11579288 0.10012338 0.13441615 0.0409908
000100 b3 a3 03 be a2 93 ab bd ee 96 1a 3d 66 4d 4e 3d
       -0.12855415 -0.08377768 0.037741594 0.05036678
000110 64 d2 55 be 39 c1 2b be 3c 1f 4f bd 74 11 ce 3d
       -0.20881039 -0.16772927 -0.050566897 0.10061923
000120 52 45 00 3d d6 dd 87 3d 98 42 ae bd 87 be 53 3d
       0.03131611 0.06634109 -0.085087955 0.051695373
000130 6d 3d ec 3d eb db 9e bc b5 cb b3 bd f2 e9 1b be
       0.115351535 -0.019391974 -0.087790884 -0.15225962
000140 b7 75 53 3d 2a b4 9b 3d d3 e4 34 bd 1e 66 1a be
       0.051625933 0.07602723 -0.044163536 -0.15078017
000150 5d 6a 8a bc 06 87 82 3d 2c 82 10 be 30 ee de 3d
       -0.016896421 0.0637341 -0.14112157 0.108852744
000160 25 42 dd 3d 86 f1 80 bd 8e 0c 62 bd c8 67 f2 bd
       0.10803632 -0.06296067 -0.055187754 -0.11836201
000170 b0 0e 55 3b cf c3 8f 3d d7 61 57 3c d0 7c cc bd
       0.0032509975 0.070197694 0.013145885 -0.099847436
000180 2c 81 a4 3c 09 56 c1 3c ef e5 8c bd 81 97 8c bd
       0.020081125 0.023600595 -0.06879794 -0.068648346
000190 de f6 c4 bd f5 09 d8 3d cd ee 93 3d 20 07 34 3d
       -0.09617399 0.10548774 0.07223282 0.043952107
0001a0 bf 84 bf bc f9 37 4d 3d 9f 1c 2a 3e ea f4 c6 3d
       -0.023378728 0.050102208 0.1661248 0.097146824
0001b0 24 99 0b 3e 9f 65 de bc ac 17 ce 3d ca 57 b7 bd
       0.13632637 -0.027148066 0.10063109 -0.08952291
0001c0 e0 29 1f 3e d7 8f 21 3c e8 64 5e 3e 6f 50 ce 3d
       0.15543318 0.009860954 0.2171818 0.10073935
0001d0 1d 7c 5e 3e d5 a9 e2 3d 03 9a 1d 3c 50 fa 1b 3e
       0.21727033 0.11067549 0.009619239 0.15232205
0001e0 ef 76 9d bd 3b 86 5e 3c 61 b7 5b bd a9 f6 c7 3c
       -0.076887004 0.013581808 -0.05364168 0.024409609
0001f0 07 19 7e bc c1 e9 2b 3d 0c 44 d8 3c fb ca 7a 3b
       -0.015508897 0.041970972 0.026399635 0.0038267958
000200 0c 04 c8 bd 80 f9 99 bd 0c ef 33 bc d0 c7 a3 3d
       -0.09766397 -0.075182915 -0.010982286 0.079970956
000210 6b e3 03 be 0c 92 3f 3d 71 b0 ab bc 02 ab 67 3d
       -0.12879722 0.04677014 -0.020958157 0.05655957
000220 88 1e c9 3d 2d ad 25 bd db 0d 00 3e ca 58 1c 3e
       0.098202765 -0.040448356 0.12505285 0.15268245
000230 db 91 5d 3d ca d8 7c 3c 9f c6 98 3d 53 95 0f 3d
       0.054094177 0.015432546 0.07459759 0.035054516
000240 24 1d 56 3d a2 42 a6 3d 41 17 91 bb 91 b0 b9 bd
       0.052273884 0.08118178 -0.004427821 -0.090668805
000250 b8 cf 3a 3d f6 bf 18 bd a1 7b 09 3e a4 12 6c bc
       0.045608252 -0.037292443 0.13426067 -0.014408741
000260 51 bc fd 3c bf 4f dc 3d 4b e8 9a 3d b1 62 0c 3e
       0.030973585 0.10757398 0.075638376 0.13709523
000270 a5 0b 18 3e 49 91 07 3e da f3 09 3d 10 2b fd bd
       0.14848192 0.13239016 0.03367982 -0.12361729
000280 48 34 2f 3d 16 00 e2 3d ef 7b 1f bd 98 11 aa bd
       0.04277447 0.11035173 -0.03893655 -0.08304137
000290 b4 0f 31 bd d6 50 0e 3e 87 02 aa bc 48 d1 03 3e
       -0.043227866 0.13898024 -0.020753158 0.12872803
0002a0 9b 5c a3 bc 29 41 c3 bd 14 cb 31 3d a0 b7 e0 3c
       -0.019941619 -0.09533913 0.04340656 0.02743131
0002b0 21 49 15 3e 2d 53 c9 bd c4 6d de 3b 43 25 18 3e
       0.14578678 -0.09830318 0.0067879874 0.14857964
0002c0 a0 ce 63 bd 92 48 4e 3d 67 9a d8 3c 6d c5 97 3d
       -0.055616975 0.050362177 0.026440812 0.07410703
0002d0 50 b4 24 3e f5 91 e6 3d a7 31 40 3b 6a 89 16 be
       0.16084409 0.11258308 0.002932647 -0.14700857
0002e0 bb 03 5a bd 10 9d f4 bd 29 5a 10 be 26 52 12 be
       -0.053226214 -0.1194402 -0.14096893 -0.1428915
0002f0 c4 91 ff bd 40 e7 0f be 8f 8d db bc a4 fb 92 bd
       -0.124789745 -0.14053059 -0.026800899 -0.07176903
000300 46 c6 38 3e 8b 0a 6d 3d b3 1b ec bc 0a f0 3b 3d
       0.18044385 0.057871383 -0.028821802 0.045883216
000310 09 5e 15 bd 84 b1 be 3d 62 4b 07 3e e2 71 22 be
       -0.036466632 0.09311202 0.1321235 -0.15863755
000320 ca 84 b3 bd ee 99 a8 3a 57 cb c8 3d a4 49 3d bd
       -0.08765562 0.0012863257 0.09804409 -0.046212807
000330 63 05 20 bd 6f 6b e7 bd 0e ef 9e bd d2 0a d8 bd
       -0.039067637 -0.11299788 -0.0776044 -0.10548939
000340 a1 b1 5a 3d 87 ad 21 bd ba 47 e0 3d d8 aa b2 3d
       0.053392056 -0.03947213 0.10951181 0.08723992
000350 08 57 c8 3d e9 7b 15 3d 79 ef 62 3d b3 82 aa bd
       0.09782225 0.036495123 0.05540416 -0.0832571
000360 ff 2f 23 bd f4 f6 ad 3d 38 11 dc bc 80 53 fc bd
       -0.039840695 0.08494368 -0.02686368 -0.12320614
000370 64 0d 8e bd 39 21 81 3d b7 95 74 bd 13 0a de bc
       -0.06936148 0.06305165 -0.05971309 -0.027104413
000380 72 d9 f4 bd f7 3c 35 3d f0 20 9a bc 8d 4a 07 3e
       -0.11955537 0.044247594 -0.018814534 0.13212033
000390 78 84 b3 3d 81 8b b5 3c 75 d8 92 bd 8d a4 1b 3d
       0.08765501 0.022161247 -0.07170192 0.037998725
0003a0 3a 6c 25 3d 1a 34 9d 3c e8 00 2d be 8e 36 16 be
       0.040386416 0.019189883 -0.16894877 -0.14669248
0003b0 6d 26 02 be d3 1f 0d bd 77 fa 13 3c 31 e0 af bd
       -0.12709971 -0.034454178 0.009031883 -0.08587683
0003c0 48 5a 47 3e a4 e8 9a bd 94 ad d9 bd 82 39 b6 bd
       0.19468033 -0.07563904 -0.106288105 -0.088976875
0003d0 79 a2 b3 bd 16 23 4a 3e 22 16 cb bd 3b 16 18 3e
       -0.087712236 0.19739947 -0.09916331 0.1485223
0003e0 cd 0d b5 bd 94 65 e2 bd 1a 07 ac bc c6 c6 e1 bd
       -0.08840523 -0.11054531 -0.02099948 -0.11024241
0003f0 67 7d b8 3d 79 0a 81 3c 1a 1d 6e bd 73 70 f1 3d
       0.090082936 0.015752064 -0.058133222 0.11789026

fc1.bias f4 [256]
000000 96 8f f4 bd a0 1c 0d 3e db ae e9 3c 1b e5 12 3d
       -0.11941449 0.13780451 0.02852576 0.035863023
000010 b3 68 14 3e 8d 8e ba bd de dd a6 3d b7 2d af 3d
       0.14493065 -0.09109221 0.081477866 0.08553641
000020 a2 b5 9f bd 16 e7 e4 3d ec 23 fe 3a f3 c3 0f 3e
       -0.077983156 0.11176889 0.0019389368 0.14039592
000030 8b 24 e9 3c 7e 08 59 3d 53 49 87 bd 77 9e 10 be
       0.028459808 0.052986614 -0.06605782 -0.1412295
000040 38 9f 1b 3d 3f 35 e1 bd dd 48 9c 3d 5a f4 40 3d
       0.03799364 -0.10996484 0.07631085 0.04710803
000050 cc a1 ad 3d 2f 9c 05 3e 1a bb ab 3d 44 10 5d bd
       0.08478126 0.1304786 0.08385296 -0.05397059
000060 bc 22 02 3e 12 92 32 3d bc 92 a4 bd 78 ce 04 3e
       0.12708563 0.043596335 -0.080358 0.12969387
000070 bc 2a 93 3d 6b cd 22 3e 1d 87 54 3d b8 43 2a 3d
       0.07185885 0.15898673 0.051886667 0.041568488
000080 23 21 1d 3e 91 a7 50 bd 73 05 ea 3d 52 24 b6 3d
       0.15344672 -0.050941054 0.114268206 0.08893646
000090 66 0f ca bd 19 d1 1a 3d d2 91 df bd af d0 87 3d
       -0.09866218 0.037797067 -0.10916485 0.066316
0000a0 43 17 bb 3c 1d 74 41 3c 3c 8f cd bc 5b 78 40 3d
       0.02283824 0.011807469 -0.025092714 0.04698978
0000b0 cc cb 40 bc 5d e0 00 be 9c 20 9e 3d fa 93 b1 3d
       -0.011767339 -0.12585588 0.077210635 0.086708024
0000c0 8a 8a ef 3d 2c 80 a1 bd 42 e8 96 bc 6d 1a a9 3d
       0.11696346 -0.07885775 -0.018421296 0.082569934
0000d0 03 48 35 3c dd 07 a1 bd 42 bc 79 bc 4b 87 3f bd
       0.011064532 -0.07862828 -0.015242638 -0.046759885
0000e0 29 aa 1d bd a5 af f8 bd e1 1c 30 3e d0 a3 2f bd
       -0.038492355 -0.121428765 0.17198516 -0.042880833
0000f0 0b 38 16 be 00 e3 cd 3c 71 14 6e 3d ec 75 c2 bd
       -0.14669816 0.025132656 0.058124963 -0.09495148
000100 35 1d 00 3e 44 2f 11 3e ca 71 2f be 57 d3 07 3e
       0.12511142 0.14178187 -0.17133251 0.13264214
000110 82 fd d8 bc 99 6c 0d be 0d ce 13 be 4d ab 4f 3d
       -0.02648807 -0.13810958 -0.14434071 0.050700475
000120 3d a1 0e 3e 7d 4a 0f bd 6b e8 2f 3d 15 d9 b8 3d
       0.13928695 -0.034983147 0.04294626 0.0902578
000130 b2 30 fc 3d c2 5c a1 bd 4d 34 01 be d7 34 0b be
       0.123139754 -0.0787902 -0.12617607 -0.13594376
000140 ec d9 2d 3d 1b 57 b7 3c 67 2f 3a bd 73 b3 f2 bd
       0.042444155 0.022380402 -0.045455363 -0.118506335
000150 ca 6a d0 bc 2c fb 1c bd f8 42 0b 3e 89 ac 8a 3d
       -0.025441546 -0.038325474 0.13599765 0.0677119
000160 fe c3 14 3d 55 cd 42 3d 07 28 40 3c 39 76 8c 3d
       0.036319725 0.0475591 0.011728293 0.06858487
000170 4d b9 2e 3e 6d b2 30 bc 4f 3b a5 3d 59 96 41 3d
       0.17062874 -0.0107847275 0.08067953 0.047262523
000180 94 5a a4 3d 37 65 13 bd 8a 80 b4 3c 68 25 2e 3d
       0.08025089 -0.035985198 0.022033948 0.042516142
000190 05 11 e0 bd 9e 81 27 3d 8b d4 05 3d b1 4b ea bd
       -0.10940746 0.040895097 0.0326734 -0.11440218
0001a0 f6 05 23 3d a4 71 ae 3c 04 7e 10 3e c7 d5 ba 3d
       0.039800607 0.021294422 0.14110571 0.09122806
0001b0 26 8a bc 3c 5c 26 26 3c 5f 24 91 3d 12 b0 d2 3d
       0.023015093 0.0101409815 0.07087015 0.10287489
0001c0 7b 72 65 3c dd 98 1d 3e e3 13 2a 3e df 59 73 3d
       0.014004345 0.15390344 0.16609149 0.05941188
0001d0 37 fa f9 bd 0e 52 28 3e 2c 19 5b 3d 3f 3f 00 be
       -0.12205928 0.16437551 0.053490803 -0.12524126
0001e0 9a e7 ef 3d 8f 4a 8a 3c 84 35 34 3e c8 32 2b 3d
       0.11714096 0.016881255 0.1759854 0.041796476
0001f0 5f b1 ca 3d 37 81 d7 bd 7c 3a 06 3e cd d2 09 bb
       0.09897112 -0.10522693 0.13108248 -0.0021030188
000200 d5 93 18 be ed bd 85 bd a8 ed 14 3e 3c b7 3a 3d
       -0.14900143 -0.06530366 0.14543784 0.045584902
000210 81 6b 3b 3d 53 69 ed 3d 1a b7 45 3d f4 25 66 3d
       0.04575682 0.115923546 0.048270322 0.05618854
000220 3c 13 94 bd f8 3b cb bd cc 86 33 3e 1d e3 b2 bd
       -0.07230231 -0.099235475 0.1753189 -0.08734725
000230 d9 80 23 be 52 d1 9d 3c b5 be bc bd 50 b2 f6 3d
       -0.1596712 0.01926485 -0.09216062 0.12045729
000240 c3 38 d6 3d 4f 20 ae bd 6c 67 bc bd 36 8d 9d 3d
       0.10460045 -0.08502256 -0.09199414 0.076929495
000250 bc d1 d7 3d 4b 9c 95 bd 60 77 66 bd c3 d1 2a 3e
       0.105380505 -0.07305201 -0.05626619 0.1668158
000260 58 ad 00 3e 8e dc 1e bd 11 bc c4 bd 7f 10 b5 3c
       0.12566125 -0.038784556 -0.09606183 0.022102593
000270 e5 45 43 3d 5e 7e 9c 3d 16 b9 41 3d 8a f8 ae bc
       0.04767408 0.0764129 0.047295652 -0.021358747
000280 a3 f6 83 3d ef 87 a9 3c df 29 a5 bc 46 6e d2 3d
       0.064435266 0.020694701 -0.020161567 0.10274939
000290 4b d3 1d be 12 8f 35 3d d4 7f b4 3d bf 32 c6 bc
       -0.15412633 0.044325896 0.08813444 -0.02419412
0002a0 55 17 ab 3d e8 62 34 3e aa b9 2a 3e 38 e9 49 3c
       0.083540596 0.17615855 0.16672388 0.01232367
0002b0 35 40 01 3e e2 c3 e0 bc 0b 02 e4 3c a7 b0 d6 3d
       0.1262215 -0.027437154 0.027833005 0.104829125
0002c0 8d 37 1d 3e 28 34 3a 3d b2 59 df bd d7 ab 2c bc
       0.15353222 0.045459896 -0.1090578 -0.010539017
0002d0 a4 be 98 3c 24 25 86 bd 08 2c 24 3e 11 43 2b be
       0.018645592 -0.06550053 0.16032422 -0.16724803
0002e0 e3 aa 87 bc 75 ae 0d bd a4 26 34 3e f1 5d de 3d
       -0.016560977 -0.034590203 0.17592865 0.10857762
0002f0 a2 ca 9a 3d e7 4b aa bc 9f 21 ef 3d ba 10 0e be
       0.075581804 -0.020788146 0.116763346 -0.13873568
000300 b2 45 2b 3d 75 32 63 3b 27 93 8a bd 50 51 53 bd
       0.041814514 0.0034667526 -0.06766348 -0.051591218
000310 c0 8a 39 3c 69 4f 35 3e cb cf c6 3d 2c 88 93 bd
       0.0113245845 0.17706074 0.09707602 -0.07203707
000320 6b 1a 72 3d 79 02 05 be e5 d4 8b 3c 8e 9d d9 3c
       0.059107225 -0.12989224 0.01706929 0.026564386
000330 fd 6b 04 3e d6 18 52 3d fb e0 78 3d 0f a4 02 be
       0.1293182 0.051293217 0.060761433 -0.12757896
000340 78 13 0b 3b 9c 4a c8 bd e9 ea 8b bd 49 15 9e 3c
       0.002122132 -0.097798556 -0.06831915 0.019297259
000350 97 9f 63 3d a2 be c3 3d af a7 5b bd ef 59 08 be
       0.05557212 0.09557845 -0.053626712 -0.13315557
000360 fe 8f 0a 3e 28 54 9b bc 9f 36 0b 3e c8 42 13 be
       0.13531491 -0.018961027 0.13595055 -0.14380944
000370 6d 7c d2 3d d8 62 37 be 8e fc 2d 3d 3d 22 e1 bb
       0.102776386 -0.179088 0.042477183 -0.0068705366
000380 54 40 8a 3c bd 5f f3 3d f4 ca d6 bc 12 df 35 bd
       0.016876377 0.11883495 -0.026219822 -0.04440219
000390 ba 35 9e bd fe 30 17 be 01 d3 29 3e 91 42 8f 3c
       -0.07725091 -0.14764783 0.16584398 0.017487796
0003a0 b2 4e f6 3d 24 ad 5e bd 9e 2b 20 be 3c 31 18 bd
       0.12026729 -0.05436434 -0.15641639 -0.03715633
0003b0 e7 b5 c5 bd 78 f6 d2 bd f6 54 d2 3d f0 34 f7 bd
       -0.09653836 -0.103009164 0.10270111 -0.12070644
0003c0 14 e1 50 3d 05 c3 bc bd bd ba 31 bd 36 d5 08 3e
       0.0509959 -0.092168845 -0.043390978 0.13362584
0003d0 4b 7d 92 3d c7 a8 df bb 69 48 9d bd 16 04 85 bd
       0.07152804 -0.0068255397 -0.07679827 -0.0649492
0003e0 bf 88 00 3e 8e 21 25 3e 50 04 18 be 5c cf 29 3e
       0.12552164 0.16126081 -0.14845395 0.16583008
0003f0 32 da b3 3d 55 94 e9 3d e4 19 f1 3c 50 dc b4 3c
       0.08781852 0.11405245 0.02943129 0.02207771

fc2.weight f4 [256, 256]
000000 4c e8 9e bd 47 d1 24 3d 9d bc af bc 75 20 80 bd
       -0.07759151 0.040238645 -0.021452243 -0.06256191
000010 c3 50 a4 3c a0 4c 64 3a 71 c7 4c 3d 37 3b 9e 3c
       0.020058041 0.0008708928 0.04999489 0.019315345
000020 ef e7 16 bd 48 3b 18 3d c0 9f c5 bb ad 5f 29 3c
       -0.036842283 0.03716591 -0.0060310066 0.010337752
000030 d4 98 93 3d 81 75 fd bc a4 cb a0 3c 19 99 d4 bc
       0.07206884 -0.03093982 0.019628353 -0.025951909
000040 37 6f 57 3d dc ba 39 3d 28 36 e2 bd dc 3b db bb
       0.052596297 0.04534422 -0.11045486 -0.0066904854
000050 dc 1b 92 bc f0 92 23 3c 16 d3 56 3d 80 21 cb bd
       -0.01783555 0.009983763 0.0524474 -0.09918499
000060 f1 a4 7b 3c e1 e2 1d 3d 1f 45 a4 3d 40 d5 0f bd
       0.015359149 0.038546447 0.08020996 -0.03511548
000070 ea 6f c8 3c 76 dc 38 bd ef 79 b1 bd e0 79 cd 3c
       0.024467427 -0.045132123 -0.08665835 0.025082529
000080 95 57 de bc f3 9a 1f 3d 8d 4e 49 bd fd 3d 58 3d
       -0.027141372 0.03896613 -0.049147177 0.05279349
000090 00 bb 2d bd 39 e4 80 3d 1c 1a 81 3d 76 4d cf bc
       -0.042414665 0.0629353 0.06303808 -0.025305491
0000a0 f8 2d c1 bd 6a 58 17 3d 49 2c 3c bd 51 0c c1 3c
       -0.09432596 0.036949553 -0.04594067 0.023565443
0000b0 11 ba 0b bd 03 72 41 3c 7e b0 0f bd e6 d1 d5 bc
       -0.034112994 0.011806968 -0.035080425 -0.026101064
0000c0 71 3c 84 3c 18 29 93 bd 00 51 4a 3a 2a dd fc bb
       0.016142102 -0.071855724 0.00077177584 -0.0077167945
0000d0 ba 7c 77 3d 62 7a 50 3c 43 a4 b7 bd 34 f4 43 bd
       0.060421683 0.012724491 -0.08966877 -0.047840312
0000e0 a2 dd 6b 3d 54 17 ca bd 88 1b 4d bd 4f 78 b9 3c
       0.057584412 -0.09867731 -0.050075084 0.022640375
0000f0 36 10 fa bc 80 73 c6 bd f7 59 56 3d ee 04 0b 3d
       -0.030525308 -0.096899986 0.05233189 0.03394025
000100 5c a8 99 bc 42 5a 5b bb ca f6 57 3d f0 c9 48 3c
       -0.018757038 -0.0033470546 0.05272559 0.012255177
000110 a8 c3 24 bc 06 84 0b be e9 ce af 3c c3 ae 9f 3d
       -0.010056414 -0.13624582 0.021460967 0.07797005
000120 97 1b 3f bc 62 e2 48 bd d9 8e 18 3d e5 52 a4 3d
       -0.011664293 -0.04904402 0.037245605 0.080236234
000130 16 c7 b4 bc 1d a4 d7 bd d3 69 c4 bc 48 1a 21 3d
       -0.022067588 -0.10529349 -0.023976242 0.039331704
000140 83 9c 35 bc 7d 09 88 3a 46 e5 87 3d ee e9 27 3d
       -0.011084679 0.0010378804 0.06635527 0.040994577
000150 ea 0e 39 3c f3 66 62 3c 9b e4 63 3d 66 99 1b 3d
       0.01129506 0.01381849 0.055637937 0.03798809
000160 68 57 d9 bb f0 8c ee 3c 9d e7 8b 3d af a2 e6 bb
       -0.006632734 0.029119939 0.06831286 -0.0070384364
000170 86 72 b0 bc 00 bf 27 bc 03 6c cb 3c ad 95 ff bd
       -0.021538984 -0.010238409 0.024831777 -0.1247972
000180 64 cb ce bc 5c 63 da bb b4 40 13 be e0 26 60 3d
       -0.025243469 -0.0066646766 -0.14380151 0.054724574
000190 e7 8f 8f 3d ef 7a 1b be 10 17 4b bd aa c6 0c bd
       0.07009869 -0.15183614 -0.04958254 -0.03436915
0001a0 14 ea 15 bd ca 53 fe bb 76 1b 38 3d f6 f8 30 bd
       -0.036600187 -0.0077614533 0.044948064 -0.043206178
0001b0 05 5b 32 be 31 ba fc bd 17 46 62 bd 46 8e 22 bd
       -0.17417534 -0.12340201 -0.055242624 -0.039686464
0001c0 24 06 e1 3d 18 65 87 3d c3 2b d0 bc 62 4c 8f 3b
       0.10987499 0.06611079 -0.025411492 0.004373119
0001d0 7e 65 3f 3d 1a 16 0d 3d 64 1e b8 bd 14 15 8a bc
       0.04672765 0.034444906 -0.089901716 -0.016855754
0001e0 83 0a 10 3d 7e c2 c6 3b 0b 28 62 3d c3 4b bf 3d
       0.035166275 0.0060656657 0.05521397 0.09340622
0001f0 2d 5e d1 3c 4e aa ec 3c 1e ef 0a 3d b7 cd 87 bd
       0.025557602 0.028889801 0.033919446 -0.06631034
000200 21 26 c7 ba 63 91 87 3d f4 35 da 3c cc 76 99 bc
       -0.0015193858 0.06619527 0.026637055 -0.018733405
000210 26 38 9b 3c c4 73 3c 3d 05 47 3b bc 5b c1 1c bd
       0.018947672 0.04600884 -0.011430507 -0.038270336
000220 97 c1 31 bd 5b bf a8 3d 2a da e7 3c 60 e6 4d bd
       -0.043397512 0.08239623 0.02830227 -0.05026853
000230 80 41 39 3b ce fe df bc 19 c0 37 3d 5e 31 8a 3c
       0.00282678 -0.02734318 0.044860933 0.016869243
000240 47 ba 40 3d f6 1a 41 3d ab f2 1f 3c 99 5f 8c 3b
       0.047052648 0.047144853 0.009762446 0.004283857
000250 27 b7 3b bd 66 82 bd bd 8d 8b 5c 3c 47 6c 74 bd
       -0.045828965 -0.09253387 0.013461006 -0.059673574
000260 9c 7b 37 3a 4e 77 38 3d f5 aa 32 bd 5b b5 c6 bc
       0.0006999315 0.045035653 -0.04362007 -0.024256399
000270 e6 a4 02 3d 1b b8 f8 bc b1 eb 40 3d f0 68 78 3d
       0.03189554 -0.030361226 0.047099773 0.06064695
000280 34 76 3e bd 2b cf f7 bc 46 7a ad 3d b5 22 d8 bc
       -0.046499446 -0.030250153 0.084705874 -0.026383737
000290 d1 af 1b bd e6 fe 8e 3c 4a a6 0b bc ca a0 27 3c
       -0.03800947 0.01745553 -0.008523533 0.010231206
0002a0 f0 33 84 bd 99 e7 80 bb 7e 7f ce 3b 62 58 11 3e
       -0.06455219 -0.0039338586 0.0063018193 0.14193872
0002b0 ff c7 62 3d 0e 0a 92 bd ff 81 44 bd c7 4a 02 bd
       0.055366512 -0.07130824 -0.047975536 -0.031809594
0002c0 b1 27 5f 3d 62 3f 08 bb d8 24 56 3d 90 66 e1 bc
       0.054481212 -0.0020789732 0.05228123 -0.027514726
0002d0 f0 e3 32 bd e6 e2 a3 bc 50 dc 81 3d be 5e d0 3c
       -0.04367441 -0.020005655 0.063408494 0.025435802
0002e0 8a 9c 81 3c 26 84 c5 3b f3 e8 55 3d 3f fd 62 3a
       0.015821714 0.006027716 0.05222411 0.00086589524
0002f0 14 b8 9d 3d e2 de e3 3c 0e 8a d9 3a 3f c2 59 bb
       0.07701126 0.02781624 0.001659693 -0.0033227352
000300 71 6d 17 bc 1e cd 52 be 01 46 95 3c 08 df 38 bc
       -0.009242401 -0.20586058 0.018221857 -0.011283644
000310 cb 8c d0 bc 34 62 4a bc 12 a0 73 ba bd 63 8b 3d
       -0.02545776 -0.012352515 -0.00092935667 0.06806133
000320 2a 7f 70 bd d0 23 2c 3d e2 6a 11 3e 69 c5 74 bc
       -0.058715023 0.04202634 0.14200929 -0.014939644
000330 4d f1 06 3c 69 9b 2f bc 91 d3 f5 3c 14 9b 21 3d
       0.0082362415 -0.010718205 0.03000811 0.039454535
000340 b2 65 3d bd b7 46 c4 bc ce 2c a9 bc 19 5b 54 3d
       -0.046239562 -0.0239595 -0.020651247 0.05184469
000350 1d fa 2e 3d 6f 4f 40 bd d1 33 2e 3c f2 21 70 3d
       0.042718995 -0.046950754 0.010632471 0.058626123
000360 95 02 08 3c 6d 55 9e bd 43 43 5b bd c6 8c a9 3c
       0.008301397 -0.077311374 -0.053530943 0.020697009
000370 2e b5 e5 3c c4 b3 fb 3c c8 cf cb bd 53 e4 61 bc
       0.028040495 0.030725367 -0.099517405 -0.013787347
000380 b6 a7 f8 bc c5 88 7f 3c c7 a8 b7 bc e0 4f 54 bd
       -0.030353408 0.015596573 -0.022419346 -0.051833987
000390 78 5d b7 bd 7e 87 3b bd 3d cc 38 bd 3c 6b 13 bd
       -0.089533746 -0.045783512 -0.04511665 -0.03599094
0003a0 e5 00 0a bd 86 c0 9c 3c e2 48 67 3d b1 12 83 3d
       -0.03369226 0.019134771 0.05646599 0.064000495
0003b0 d5 36 0b bd 90 0b da 3c 1e 79 00 bd 5e 8e fc 3c
       -0.03398784 0.026616842 -0.031365506 0.030829605
0003c0 24 9f 2e bd 6e cf 68 3d 3e 7a 4c 3c 5d 56 75 bd
       -0.042632237 0.056838445 0.012480317 -0.059896816
0003d0 d3 e2 02 bd 7a b4 00 bd 3f 5f 98 bc 90 2f b7 3c
       -0.031954598 -0.031422116 -0.018600104 0.022361547
0003e0 82 3a 92 3c b4 27 27 bd d0 32 42 bb fc 61 a3 3c
       0.017850164 -0.04080935 -0.0029632337 0.019944184
0003f0 d1 64 14 be 19 68 4d bd 39 0f 19 3c 95 f2 e3 bd
       -0.14491583 -0.050148103 0.009342008 -0.11130253

fc2.bias f4 [256]
000000 b4 a3 42 3b ff 68 0f 3d 3b a7 2b 3d 09 9c de bb
       0.0029699625 0.03501224 0.04190753 -0.006793503
000010 6d 0a 1e 3d af a2 d3 3c af 17 99 3b a0 af 31 3d
       0.03858416 0.02583441 0.0046720128 0.04338038
000020 93 49 5e 3d 84 9c a4 3c 88 b6 4e 3c 13 78 39 bc
       0.054269385 0.020094164 0.012616761 -0.011320132
000030 1f 3f 84 3c e4 84 01 bd c6 92 1d 3d a0 17 b5 bc
       0.01614338 -0.031620875 0.038470052 -0.022105992
000040 39 fa fc 3a 85 50 fd 3c 5e a4 89 bd d7 26 02 bd
       0.0019300646 0.030922184 -0.06720804 -0.03177532
000050 f0 40 b2 bc 18 44 88 3d f5 b9 6b bd a5 81 0f 3c
       -0.02175948 0.06653613 -0.05755039 0.008758937
000060 93 ba ba 3c d1 56 fd bc cd c8 0c bc 03 16 34 bd
       0.022794044 -0.030925186 -0.0085927965 -0.043966305
000070 99 5a 70 3d 1c 16 69 bc c3 bb aa 3c 88 58 73 bd
       0.05868015 -0.014226463 0.020841485 -0.0594106
000080 04 dc 18 bd c8 a4 07 3d ce 3f 53 3d 1e 9c ff bc
       -0.0373192 0.033116132 0.05157452 -0.031202372
000090 fd b6 82 bc d0 b6 0f bd f8 9f 72 bd e8 ef 59 3c
       -0.015956396 -0.035086453 -0.05923459 0.013301827
0000a0 40 2b 34 3d 09 34 b8 3b 9b fc 52 3d 39 bd e7 3c
       0.04398656 0.0056214374 0.051510435 0.02828847
0000b0 b8 79 04 bd 07 81 a5 bc df 2b a9 3c c6 4e 6a bd
       -0.032342643 -0.020203127 0.020650802 -0.05720403
0000c0 f1 d6 21 3d 56 ba 83 3c ca fc 84 3d a2 9c 52 3d
       0.039511625 0.016080063 0.06493528 0.051418908
0000d0 92 04 3a 3a 15 1b 8a bd 97 f2 3b bd f6 c8 07 3d
       0.0007096018 -0.06743447 -0.04588565 0.033150636
0000e0 07 dc 2e 3d 57 31 64 bd b9 08 34 3d d9 88 45 3d
       0.042690303 -0.055711117 0.04395363 0.04822621
0000f0 1c 2d 4e 3c 4e fe 20 bd 4d 8f e8 bc a6 9c 85 3d
       0.012583997 -0.039305024 -0.028388644 0.06524019
000100 10 27 1c bb 98 e8 a0 3d 03 fc b0 3d 62 aa 15 3d
       -0.0023826994 0.07856864 0.086418174 0.036539443
000110 b5 ac 6e bc 23 25 7e 3d c7 09 07 bd d9 3f 81 bc
       -0.014567544 0.062047135 -0.03296831 -0.015777515
000120 e8 54 d8 3c fd d5 01 bd cf d9 df bc bc 61 9b bc
       0.026407674 -0.031698216 -0.027325539 -0.018967502
000130 b3 b9 2d 3d 98 a4 26 bd 79 4a d8 bc 48 a2 45 bc
       0.042413425 -0.040684313 -0.026402699 -0.012062617
000140 85 c9 f4 3c 6b d7 f6 3c 41 fe fd bc 5f e9 64 3d
       0.029881248 0.030132016 -0.031005027 0.055886623
000150 f2 dd ed 3b 75 97 45 bd e6 d1 ec bc c2 bb fe 3c
       0.007259124 -0.048240144 -0.028908681 0.03109539
000160 21 78 94 3b 5f bc 30 bd 2f 93 3f 3c 0e c0 6c 3c
       0.004530922 -0.043148395 0.011692806 0.014450086
000170 67 43 6d bc 69 84 90 3d 85 10 60 3d f3 26 37 3d
       -0.014481402 0.07056505 0.054703254 0.04471488
000180 5e 02 65 3c 85 f8 4a 3d 11 37 98 3d 0e 60 41 3c
       0.013977615 0.049553413 0.07432378 0.011802686
000190 1c d6 fb bc 62 46 84 3d 95 03 6e 3c 98 05 26 3d
       -0.030741744 0.06458737 0.014527221 0.04053268
0001a0 15 6f 6f bd 74 31 0d 3d b7 46 da bc 7a 4a 0a 3d
       -0.058455545 0.03447099 -0.026645048 0.033762433
0001b0 2d 71 c1 3c 33 87 00 bb ba 22 97 bc 36 f0 19 3d
       0.023613537 -0.0019611835 -0.018449176 0.0375826
0001c0 4f 15 81 3d 50 d2 67 3d f3 24 36 bd 40 04 d3 3b
       0.063028924 0.056597054 -0.04446883 0.0064397156
0001d0 ae 7d 6c 3d 05 e4 b7 3c 1c 14 6f 3d df 46 08 bc
       0.057737045 0.022447595 0.058368787 -0.008317678
0001e0 07 86 a9 bd 0b 8a 20 bc 3e ae f7 bb aa 9b 37 bd
       -0.08277517 -0.009798537 -0.007558613 -0.044826187
0001f0 ec e1 98 ba 0d 7e 71 3d 1d 3e 47 3d 70 8e 04 bd
       -0.001166401 0.058958102 0.04864322 -0.0323624
000200 9d 31 6b bd c0 06 6b bd 34 ba 2d bd d6 bb f5 3b
       -0.05742036 -0.057379484 -0.042413905 0.0074991984
000210 0b a1 f6 3c 70 c9 89 bd 9a 65 0c bd 24 d5 0f bd
       0.030106088 -0.06727874 -0.034276582 -0.035115376
000220 b8 64 d2 3c c8 7e 87 bd c4 4a bf bc 5a 19 65 3d
       0.025682792 -0.066159785 -0.02335108 0.05593238
000230 87 92 5e 3d e7 c9 fb bc fe d3 63 3d b2 ce 40 3c
       0.054338958 -0.030735923 0.055622093 0.01176803
000240 74 70 35 bd 93 d6 f0 3c 30 a9 24 3d 86 2f 60 bd
       -0.044296697 0.029399192 0.040200412 -0.054732822
000250 a4 46 a2 3c 17 34 fa bc cf 7b 45 3d a1 89 61 3d
       0.019809075 -0.030542416 0.048213776 0.055062894
000260 57 9c 8c 3d e1 28 7e bb 5c 01 86 bc 82 e5 29 3d
       0.06865757 -0.003878169 -0.01635807 0.04147864
000270 bf 4d 54 3d d3 88 b6 3b 53 bb 6d bb 36 8f d2 bc
       0.051831957 0.00557051 -0.0036274984 -0.025703054
000280 18 b6 ba bc 13 65 93 3d b1 35 df 3c 4d 80 c9 3c
       -0.022791907 0.07197013 0.027247282 0.024597311
000290 90 bb 7f 3d f6 3b 70 3d 2a 5d ae 3b a4 33 27 bd
       0.062434733 0.058650933 0.0053211646 -0.040820733
0002a0 18 ea b4 bc c1 52 89 bc c1 33 e1 3c d5 42 bf bc
       -0.02208428 -0.016763093 0.027490498 -0.023347298
0002b0 48 e4 c8 38 d0 10 10 bc af e7 2b ba 9d 71 b5 3c
       9.579264e-05 -0.008793071 -0.0006557656 0.022148902
0002c0 13 7b bb bc 0d 45 94 bc 52 c5 e8 bc 79 19 5a 3c
       -0.022885835 -0.018099332 -0.028414402 0.013311737
0002d0 67 82 b4 bc fd 6c 6e bd d8 03 46 3d f3 5a 57 3d
       -0.022034837 -0.058209408 0.04834351 0.05257697
0002e0 68 74 e8 bc aa d3 87 3d df 75 8f 3d 77 8d 95 3d
       -0.02837582 0.066321686 0.07004904 0.07302373
0002f0 59 7a d4 3c f4 ff 0f bd bf 6e 28 3c b6 e8 67 3d
       0.025937246 -0.035156205 0.01028031 0.056618415
000300 8f 40 47 3d 30 00 6a 3d 72 88 24 3d a1 d8 f6 bc
       0.048645552 0.057129085 0.040169187 -0.030132594
000310 34 60 c0 ba 9d e7 f9 3a 03 e1 21 3d 9f bb 0a bd
       -0.0014677108 0.0019066219 0.03952123 -0.033870336
000320 5b 96 08 3d 0e 0a b1 bc 89 77 ae bc 6c 02 99 bd
       0.033346515 -0.02161124 -0.021297233 -0.07471165
000330 8f 4f c4 bc e9 6c 4f 3d b2 c7 ee 3c 6f d6 9a 3a
       -0.023963718 0.050640974 0.029147957 0.0011813174
000340 bc 31 3c 3d c6 d6 2b 3c ba b4 31 3d b2 3b 1d bb
       0.045945868 0.010488218 0.043385245 -0.002399188
000350 e5 6c 23 3c 35 b1 97 3c 0b 94 e3 bc be da 40 3d
       0.009974693 0.018517116 -0.027780553 0.04708361
000360 bc ca 7d bd c5 50 0f bd cd 92 49 bd d1 17 c5 bc
       -0.06196092 -0.034989137 -0.049212266 -0.024059208
000370 19 c9 a2 bc 31 bc 6c 3d 51 c2 69 3d 58 f1 64 bd
       -0.019871281 0.05779666 0.05707008 -0.055894226
000380 e9 91 02 bc 6e b6 05 3d 09 27 26 bd fb f3 2c bd
       -0.007969358 0.03264468 -0.04056457 -0.042224865
000390 33 85 7d 3d cc 7e 04 bd ba 51 a2 bd eb 3c 28 3d
       0.061894607 -0.032347485 -0.07925744 0.04107372
0003a0 ed 95 6d bd 97 9d 8c 3d 4a 97 a9 bc ea 6d 27 3d
       -0.05800431 0.068659954 -0.020702023 0.040876307
0003b0 e9 fb a6 bd 75 e5 31 3c 2d dd 2e bc 1b bf a6 3c
       -0.08153517 0.0108579295 -0.01067285 0.020354798
0003c0 fb b0 83 bd 10 65 f6 3c 94 78 aa 3b 11 c0 85 bd
       -0.06430241 0.030077487 0.0052023623 -0.065307744
0003d0 bc 32 bc 3c 50 38 eb bc 04 17 4c 3d b3 a5 8a 3c
       0.02297341 -0.028713375 0.049826637 0.016924715
0003e0 47 a6 39 bd ca d6 19 bc a5 7e 24 bd 5e f3 49 ba
       -0.04532459 -0.009389589 -0.04015984 -0.0007703806
0003f0 8e 59 ff 3c fe 48 cc 3b 96 ed 94 3d d2 17 59 bd
       0.031170633 0.0062342873 0.072718784 -0.053001232

fc3.weight f4 [256, 256]
000000 45 15 1a bd 7e 90 0a 3d 9c bf 66 bd 4b 40 1d bd
       -0.03761794 0.033829205 -0.056335077 -0.038391393
000010 84 4c 03 bd 53 5f 9c bc fd a2 32 3c cc ac 47 3d
       -0.032055393 -0.019088423 0.010903117 0.048748776
000020 6c bd fa bc d3 4e 3a bd cb 4e cc bc 2c bf 25 bd
       -0.030607902 -0.04548533 -0.024939915 -0.04046552
000030 62 3d 57 bd 05 ff 68 bd 20 5b 02 3d 63 64 1c bd
       -0.052548774 -0.05688383 0.031825185 -0.038181674
000040 5c 82 c9 3c f3 71 02 3b ca 21 f9 3a 7d 30 0c bd
       0.024598293 0.0019904345 0.0019007262 -0.03422593
000050 58 66 20 3d 97 c9 52 bd f0 f8 48 3c 34 a2 96 bc
       0.039160103 -0.051461782 0.012266383 -0.018387891
000060 97 5b 11 3d c6 8c 36 bd 5c 94 28 bd 51 b9 1f bc
       0.035487738 -0.044567846 -0.04115711 -0.009748773
000070 e5 75 a8 3c df c2 4d 3c 74 0c b8 bc f4 56 c3 3c
       0.020564029 0.012558668 -0.022466876 0.023845173
000080 aa 0a 43 bd b8 82 a1 3b 6b 88 34 bd 70 8a 38 bc
       -0.047617592 0.004928913 -0.04407541 -0.011263475
000090 19 5c 0d 3d 9a 28 aa bc a3 86 aa 3b fc 53 73 bb
       0.03451166 -0.020771313 0.005204038 -0.0037128916
0000a0 cc b1 8a bc 5a bd a4 3c 2e cc b4 bc 1a 21 51 3d
       -0.016930483 0.020109821 -0.022070017 0.05105696
0000b0 0b 23 d8 bc 19 be 63 3c 56 22 fb 3c ef 1a 4f 3d
       -0.026383897 0.013900303 0.030656021 0.050562795
0000c0 5b 06 3b 3d 55 69 15 bd 72 ca 6d bd dd 31 d5 bc
       0.045660358 -0.036477406 -0.058054395 -0.026024753
0000d0 87 cd 7e 3c 39 e8 7d 3c 65 39 57 3d 21 9a a8 bc
       0.015551931 0.015497261 0.05254497 -0.020581307
0000e0 8a 2e 3f bd 3e 8d 69 3d e0 5a 56 3d 7f 98 95 bd
       -0.046675242 0.057019465 0.05233276 -0.07304477
0000f0 4f 09 b1 bb 52 14 48 bd c7 f5 b9 bd 1c 40 8e bc
       -0.005402721 -0.048847504 -0.090800814 -0.017364554
000100 51 e6 2c bd 47 ac 35 bd 6c 06 80 bd 11 4e 8d 3c
       -0.042211834 -0.04435375 -0.06251225 0.017249139
000110 82 13 83 3c 3b f7 6b 3d 8d 6f f6 3c 4f b1 00 bd
       0.016000513 0.057608824 0.030082488 -0.031419095
000120 50 d7 f0 ba 53 d7 3a bd db b1 64 3c a0 d5 06 3c
       -0.0018374715 -0.045615505 0.01395842 0.008229643
000130 1a f1 4a bd b8 cf 15 3d 05 e2 a3 bc 1e 6d e0 3c
       -0.04954634 0.03657505 -0.020005235 0.027395781
000140 64 a0 17 bd 4a 49 19 ba e0 8d ec 3c 49 78 19 bd
       -0.037018195 -0.0005847408 0.028876245 -0.03746823
000150 a7 bc 16 3d 51 ef 42 bd 5c 5a e6 3c 55 12 71 bd
       0.036801007 -0.04759151 0.028119259 -0.058855373
000160 c4 3e cc 3c 0e b8 3d 3d 60 39 c2 3c 29 fa 5d 3c
       0.024932273 0.046318106 0.023709 0.013548412
000170 9d dd 5b 3c d1 b7 ae 3c f3 96 de bc 8f 3a ca b9
       0.013419536 0.021327885 -0.027171588 -0.00038572072
000180 ed 00 af bc 67 60 89 3c c4 2e 2e bd e1 8e a9 ba
       -0.021362746 0.016769601 -0.042525068 -0.0012936258
000190 80 b6 e6 bc 76 c0 dd 3c 6e e7 3c bd a3 df 88 bc
       -0.028163195 0.027069312 -0.046119146 -0.0167082
0001a0 d6 17 75 bd 62 0c f5 bc 7b 8a 7b 3b 9e fe 46 bd
       -0.059837185 -0.029913131 0.0038382101 -0.048582666
0001b0 cd db 57 3c a2 49 87 bd f0 5b 02 3d 93 c6 ea bc
       0.013174963 -0.06605841 0.03182596 -0.02865914
0001c0 a8 64 09 3c b6 c1 e2 3c 14 8b f3 bc 86 e5 b5 bd
       0.008385815 0.02768026 -0.029729404 -0.08881669
0001d0 32 00 e3 bc df 50 d8 3c a2 52 49 3d 0a de 2e bc
       -0.027710054 0.02640575 0.04915107 -0.010673055
0001e0 96 c4 00 bc 9f 8a e9 bb ad dd 27 bc f4 9b 29 bb
       -0.00785937 -0.0071271206 -0.010245723 -0.0025880309
0001f0 c4 67 c1 bc b6 0a 59 3d 22 3a 25 3c c1 3e 40 3d
       -0.02360905 0.05298873 0.010084661 0.046934847
000200 94 41 dc bb 87 d7 1b bd 2a 3d 2d bd 37 a9 7a bd
       -0.0067216847 -0.03804734 -0.04229466 -0.061196532
000210 cd a9 72 bd 66 18 58 bd 9e 14 00 bd 38 6f f8 3c
       -0.059243966 -0.052757643 -0.031269662 0.03032647
000220 68 1e bd 3a 76 7a 48 3d e0 d7 44 bd 2a bb 59 bc
       0.0014428617 0.048944913 -0.048057437 -0.013289252
000230 d6 c0 f3 3c 6f c9 06 3d 28 34 5a 3c 70 ff 90 bd
       0.029755037 0.032906946 0.013318099 -0.07079971
000240 9a 45 81 3c 38 92 54 bd f1 97 30 3d 3f c4 2a bd
       0.015780259 -0.051897258 0.043113653 -0.04169106
000250 82 c1 86 bd 6f 50 34 3d 96 c2 41 3d 1c 3b c0 3c
       -0.065798774 0.04402202 0.047304712 0.023465686
000260 1b b7 b8 3b d8 70 1b bd 8b a5 0f bd 32 5d 82 3c
       0.0056370622 -0.037949413 -0.035069983 0.01591358
000270 db e4 34 ba c6 64 aa 3c 98 37 1d bd 9a 90 de 3c
       -0.0006900557 0.020800006 -0.038383096 0.02716856
000280 ee 82 d9 3c b1 c1 12 3d 77 67 06 bd 85 f2 bd bc
       0.02655169 0.03582925 -0.032813516 -0.023186931
000290 a7 30 d6 bc 2e d4 ec bc 2d 19 3e bd 28 db b5 3c
       -0.026146246 -0.028909769 -0.04641073 0.022199228
0002a0 9a a8 00 bd 19 70 fe 3c 1b 7a 43 3c b7 69 b6 bd
       -0.03141079 0.031059312 0.011930968 -0.08906882
0002b0 00 d4 94 bc 13 d4 8c bd 32 52 77 3d fd 11 7a bd
       -0.018167496 -0.068763874 0.060381122 -0.06105231
0002c0 0a 71 d3 3b 2e 61 36 bc 1f 7f 9d 3c 77 7a 04 3d
       0.0064526843 -0.011131568 0.019225655 0.032343354
0002d0 52 7e 1e bd e8 74 ab bc ad 1a 5d bd d1 c5 62 bd
       -0.038694687 -0.020929769 -0.053980518 -0.055364434
0002e0 fb fd 2c 3d 46 6a 10 bb be 02 d9 bb dd 6d 57 3d
       0.042234402 -0.0022036 -0.0066226413 0.05259501
0002f0 9e a8 90 bd 30 eb 2a 3d b8 ea 23 3d 83 e6 df bc
       -0.07063411 0.0417282 0.040018767 -0.027331596
000300 a0 99 46 3c 9d 49 01 bd b0 41 a8 bb d9 66 bf 3c
       0.012121588 -0.031564344 -0.0051347837 0.023364471
000310 db e7 dd bc 76 0f 05 3d 7b d3 a2 3c ba ae 87 3b
       -0.027088096 0.032485448 0.019876232 0.004140702
000320 08 44 e4 bc 1e ef 00 bc 3d cd 25 bd b2 64 50 3d
       -0.027864471 -0.00786951 -0.040478934 0.05087728
000330 3f 49 7a 3c c5 50 04 bd 3d 2f 28 bd 32 a0 22 3d
       0.015276252 -0.03230359 -0.041060675 0.039703555
000340 3e 80 49 bd d1 3e f4 bc 2b 14 a0 3c 8e ab ad bc
       -0.049194567 -0.02981511 0.019540867 -0.021199968
000350 19 97 a2 bc 48 b1 c8 bc fd cd 2f bd 7a 38 aa 3c
       -0.01984744 -0.024498597 -0.042921055 0.020778883
000360 35 52 6a 3d c6 ea 5d bc ae 13 14 bc 4e c2 67 3d
       0.057207305 -0.013544744 -0.009037895 0.056581788
000370 42 ff 42 3d 2a 8c 55 bd 7d 59 61 bd 9a e4 46 3d
       0.047606714 -0.052135624 -0.055016983 0.048557855
000380 65 bf fd bc 77 ef de bc 06 c8 56 3d 57 76 20 bd
       -0.030975053 -0.027213795 0.05243685 -0.039175358
000390 44 30 0d 3b 10 79 d0 bc b7 ba de bc 6e 36 3c 3d
       0.002154366 -0.025448352 -0.027188642 0.045950346
0003a0 aa f3 b6 3c a6 7d 19 bd e4 af 0d 3d cf 45 43 3d
       0.022332985 -0.037473343 0.03459157 0.047673997
0003b0 c6 55 2e bd 56 63 ea bc 03 c0 8d bd d0 c6 1d 3d
       -0.04256227 -0.02861182 -0.06921389 0.03851968
0003c0 6d 63 26 3d 3f 26 a5 3c 95 cd 0b bd 3c 7e ff bc
       0.040622164 0.020159839 -0.034131605 -0.031188123
0003d0 25 b6 0e 3d 5c 98 d0 3b 98 bb 94 3c a9 0a 85 bd
       0.034841675 0.006365819 0.018155858 -0.06496174
0003e0 37 61 6a bd 67 60 4f bd 90 21 69 3d da 13 6d 3b
       -0.057221618 -0.050629046 0.056916773 0.0036175163
0003f0 cb e8 4e 3d 0f 30 0c bd db e3 25 bc 08 00 90 bb
       0.050514977 -0.03422552 -0.010125126 -0.004394535

fc3.bias f4 [256]
000000 54 91 87 bd bb d3 3f 3d 45 f7 39 3c 88 d4 46 bd
       -0.06619516 0.04683278 0.011350458 -0.04854253
000010 f0 4a 6f bd cc be 46 bc 7e c2 cb 3c 3b f1 e4 bc
       -0.058421075 -0.01213045 0.024873015 -0.027947059
000020 03 25 70 bb b0 2a 93 bd 00 7e 8e 3c 93 d9 e8 bc
       -0.0036643154 -0.07185876 0.017394066 -0.02842406
000030 b9 31 14 3d 29 84 27 bb a2 51 6c bc b0 9b bc bb
       0.03618023 -0.0025560951 -0.01442376 -0.005755864
000040 a0 72 7b bd 59 e8 94 3d 08 54 3d bd 15 bf e2 bb
       -0.06138861 0.07270879 -0.046222717 -0.0069197514
000050 23 0e f1 bc ac 49 50 3b 12 bc 3b 3d 5b 1d 08 bb
       -0.029425686 0.0031782193 0.045833655 -0.002076945
000060 a0 48 ae bb ce 4a 84 bb fd 79 db 3c 51 a0 c8 bc
       -0.005318716 -0.0040372377 0.026791567 -0.024490507
000070 4e dc 37 bd 94 76 06 bd a9 a8 3c 3d 97 25 fe bc
       -0.044887833 -0.03282793 0.046059284 -0.031023784
000080 50 7a 0d bd 82 45 11 bd 68 7e 40 bd 18 b6 38 bc
       -0.034540474 -0.03546668 -0.04699555 -0.011273883
000090 3d a0 09 3d 8d 39 2b bc a4 e0 d1 3c 22 8c 2a bc
       0.03360008 -0.010450733 0.025619812 -0.010409387
0000a0 d3 b5 98 bc fd 8a 02 bd d8 a0 df bc 12 54 ec bb
       -0.018641388 -0.03187083 -0.027298376 -0.0072121704
0000b0 7f 1a a1 3b b8 5f c1 3c 02 7a 38 3c 3b 1e 51 3d
       0.0049164887 0.023605213 0.011259558 0.05105422
0000c0 22 96 03 3d 26 98 0d 3d 58 fd ce bc a2 1b 4a bd
       0.0321256 0.03456893 -0.025267288 -0.04934276
0000d0 ae 2f e3 bc 3c f7 aa bc 30 92 7d 3b d8 39 69 bd
       -0.027732696 -0.020869844 0.003869187 -0.05693993
0000e0 6e 00 fa bb 76 77 7e bd 9e d4 00 bd b0 17 41 3d
       -0.0076294458 -0.062125646 -0.031452768 0.04714173
0000f0 5e 8c 08 3d d6 b8 cb 3c e2 76 e8 bc 70 94 ba 3c
       0.03333699 0.02486841 -0.028377 0.022775859
000100 cb 04 e5 bc 4f 77 46 bd d9 d6 98 bc 6b f2 7d 3c
       -0.027956387 -0.048453625 -0.018657135 0.0154996915
000110 1d 95 f2 3c d0 3a 66 3d 4e b9 13 3d 59 85 d1 3c
       0.029612118 0.05620843 0.036065392 0.02557628
000120 f5 92 36 bd bd 66 f4 bc cc 5f 30 bd b3 54 e5 3c
       -0.044573743 -0.029834146 -0.04306011 0.02799449
000130 f6 85 42 bd dc 2f 57 bd 52 cd 77 bd c1 00 2a 3b
       -0.047491036 -0.052535877 -0.060498543 0.002594039
000140 47 72 5a bc 09 b6 7e 3c 12 2f c2 bb b0 3b f1 3c
       -0.01333291 0.01554633 -0.0059260214 0.029447407
000150 69 b0 24 3d 0d 71 8c bd 8f ff 0b 3d 79 d5 24 3c
       0.0402073 -0.068575 0.034179267 0.0100606615
000160 a0 1f 13 3d a0 02 87 3c b1 36 0d 3d 9b 61 4a 3c
       0.03591883 0.016480744 0.034475986 0.0123523725
000170 df 33 81 3d e6 25 13 3d 3c cd 8b bb 34 06 5b bd
       0.06308722 0.035924815 -0.004266409 -0.053472713
000180 f3 14 8b 3d 48 d3 43 3c b3 63 9d 3c 89 6d e6 3c
       0.06791105 0.011952229 0.01921258 0.028128402
000190 5e b0 52 3d cf ff 3d 3d 14 b5 04 bd 30 fd 7d bd
       0.051437728 0.046386536 -0.032399252 -0.062009037
0001a0 e6 a0 35 3d 87 8e 0a bd a4 19 43 bd 5b cc 07 bd
       0.044342898 -0.03382733 -0.047631875 -0.033153873
0001b0 09 f7 03 3c 55 dd a2 3c 0e 1d 79 3d 50 bd 16 bd
       0.008054503 0.01988093 0.060818724 -0.036801636
0001c0 c2 6b 26 3c c2 f6 8d ba 2d 11 50 3d b8 1b da 3c
       0.010157527 -0.0010830986 0.05079763 0.026624545
0001d0 bc e9 58 3d 8b 15 ac bc 35 2f e0 bc 64 64 14 bc
       0.05295728 -0.021006366 -0.02736626 -0.009057138
0001e0 75 59 a5 bc 70 c7 cf 3c 3f b0 7d bd d3 da 88 3c
       -0.020184258 0.025363654 -0.06193566 0.016705906
0001f0 c4 c4 30 bd 93 6d 0e 3b c4 a7 57 3c 5f 46 fd bc
       -0.0431564 0.0021732792 0.013162557 -0.030917345
000200 cc 4c 9e 3b 14 89 ed bc 36 ee 65 bc 63 73 31 3c
       0.0048309322 -0.028996028 -0.014033845 0.010830733
000210 fa 49 af bc f8 39 a7 bd 8a ea e2 3c 4c 72 56 bd
       -0.02139758 -0.081653535 0.027699728 -0.052355096
000220 42 24 0e bd 2e 95 48 bc d2 75 02 bd 90 a3 2e bd
       -0.034702547 -0.012242598 -0.031850643 -0.042636454
000230 31 21 28 3d c2 7e c7 3b aa 9e 4d 3c 00 6d a3 bc
       0.04104728 0.0060881088 0.0125500355 -0.019949436
000240 3e 6f 9a bd 18 db ea 3c 04 13 52 3d 2e 20 9a bc
       -0.07540749 0.028668925 0.051287666 -0.018814173
000250 3a c0 f2 3c 38 0c c5 bb bb be 66 3d 37 23 77 3c
       0.029632676 -0.0060134195 0.05633424 0.0150840795
000260 b6 c5 0c 3d 47 4a 10 bd 1d e1 3d 3d a0 6d 5c bc
       0.03436824 -0.035227086 0.046357263 -0.013453871
000270 d3 a3 74 bb 0a 61 61 3d 75 74 8a bc e3 1e 26 bd
       -0.0037329092 0.055024184 -0.016901234 -0.0405568
000280 87 a5 90 bd 0a be bc 3a 48 98 97 bc 1d 79 1b 3d
       -0.07062822 0.0014399898 -0.01850523 0.0379573
000290 84 67 34 3d 48 97 93 b9 82 65 90 bd 0f da 1e bd
       0.044044033 -0.00028150738 -0.07050611 -0.038782176
0002a0 24 48 04 3d b9 da 00 bd 75 40 d8 bc d8 e0 af bc
       0.03229536 -0.03145859 -0.026397923 -0.021469519
0002b0 e8 c4 eb 3c f9 e5 57 3d 6a c9 0d bd 0d cf 23 3d
       0.028780416 0.052709553 -0.03461591 0.03999238
0002c0 10 58 19 bb c6 f0 6c 3d e3 5c 71 3d ed e4 a6 bd
       -0.0023398437 0.057846807 0.058926474 -0.08149133
0002d0 91 2f bb 3c 0e 29 ec bc 43 91 30 3d 92 3e 1e 3c
       0.02284983 -0.02882817 0.043107282 0.009658473
0002e0 f1 b7 40 3c 1a da d7 bb 47 e8 5c bc 3d b7 10 3d
       0.011762605 -0.006587279 -0.013483114 0.035331
0002f0 4f 45 74 3d 99 6e 55 3d e3 54 1a 3d ec 97 3f bd
       0.05963641 0.052107427 0.03767861 -0.046775743
000300 fb d0 ed bc 1c fa 07 bb 05 a3 1d 3d 14 ef 7f 3d
       -0.029030314 -0.0020748442 0.038485546 0.062483862
000310 a2 87 b3 3c 41 3f 4d 3d 19 6f c1 bc 2d d2 29 bb
       0.02191526 0.05010915 -0.023612546 -0.0025912628
000320 34 eb 12 3d 8f d7 0f bc 3e f6 08 3d 81 25 0e 3d
       0.03586884 -0.0087794205 0.03343796 0.034703735
000330 f8 b8 6c bb 0d e1 20 bd 6b 5f 78 3b 2e a0 46 3d
       -0.0036120992 -0.039277125 0.003789867 0.048492603
000340 ec 35 74 bb 10 eb 37 3d 7f fb 55 bd 4e 78 98 bd
       -0.0037263585 0.044901907 -0.0522418 -0.07444821
000350 78 0f 94 bc 45 ea 4e 3d 4f 0e 15 3d a6 a7 42 bd
       -0.018073782 0.050516386 0.0363906 -0.047523163
000360 7b 42 eb 3a 76 ae ec 3c cb 6b 6c 3c 22 72 75 bc
       0.001794889 0.028891783 0.014429997 -0.014980825
000370 2f 37 8b bd df 37 6c 3d de f1 38 bc 88 dd d5 3c
       -0.06797635 0.05767047 -0.011288134 0.02610661
000380 ad dd df 3c b5 9f 03 3d 00 9d 16 3c 82 a4 18 bd
       0.027327383 0.03213473 0.009192705 -0.037266262
000390 1f 29 a9 3b c6 de fc bc 08 ad 45 3d fa b3 2a 3d
       0.0051623727 -0.030867945 0.04826072 0.041675545
0003a0 83 80 cd 3c f2 77 12 bd 62 b0 46 bd 31 56 42 3c
       0.025085693 -0.03575892 -0.048508056 0.01186137
0003b0 05 9b 61 bc de f9 ed 3c 45 6e 8f bd a5 4d 85 bd
       -0.01376987 0.02904981 -0.07003454 -0.0650895
0003c0 90 fe 90 bd 6f 23 68 bc 51 4c 83 3c 7d 92 50 bd
       -0.07079804 -0.014168604 0.016027601 -0.050920952
0003d0 07 39 1d 3c 97 2f 84 3d 30 86 ea 3c 66 52 81 3c
       0.009596116 0.064543895 0.028628439 0.015786361
0003e0 21 76 6a bc e4 f3 89 3d 9c ad 6a 3c 74 74 11 3d
       -0.014310391 0.067359716 0.014323618 0.03551145
0003f0 5d a5 a4 3c a8 ca 2b bd 52 50 44 3d a1 48 03 3d
       0.020098383 -0.041941315 0.047928162 0.032051686

fc4.weight f4 [2, 256]
000000 5a 4e 73 3d 46 6e f9 3a 54 fe ae bc 9e 7a e1 3c
       0.059400894 0.0019030056 -0.021361507 0.027524289
000010 dd fe 64 bc 5c c3 a5 3c b2 87 95 3c a1 ad b6 3c
       -0.01397678 0.020234756 0.018253181 0.02229959
000020 8f e9 42 3d 85 25 0e bd d5 d1 ad 3a 06 c7 a7 bd
       0.04758602 -0.03470375 0.0013261387 -0.081922576
000030 93 f0 45 bb 7c 16 9e bd e3 9c 49 3d f8 80 08 3d
       -0.0030203208 -0.07719132 0.049221884 0.03332612
000040 fb 35 43 3d 98 19 36 bd 7e 88 1d bc 10 0d 0d be
       0.0476589 -0.044458 -0.009615062 -0.13774514
000050 0e 0f 8f bd fc 17 73 3c 15 03 82 3d f4 53 04 be
       -0.06985293 0.014837261 0.06348244 -0.1292265
000060 94 93 dd 39 00 f7 a5 bd c8 ba d0 3c ec cd 24 3c
       0.0004226236 -0.08103752 0.02547969 0.010058861
000070 7b 32 22 3d 90 e5 6b bd 2f be 6f bd 6a 6d 1b bc
       0.039598923 -0.057591975 -0.058530983 -0.009486536
000080 da cc 6e 3d 68 df d1 bc 6c 32 61 bd ab 8a 68 ba
       0.05830083 -0.025619224 -0.054979727 -0.0008870761
000090 11 aa 0e be 80 1f 27 3b 5f ef 8f bd eb 16 e8 3a
       -0.13932063 0.0025500953 -0.07028078 0.0017707025
0000a0 53 3d 7e 3b 9a b2 ff bb 9f c7 de bb d8 0f 58 3c
       0.0038793876 -0.0078032734 -0.006798699 0.013187371
0000b0 3f 9c 38 bd 08 97 74 3d 02 84 c9 3c e0 9f 73 3d
       -0.045070883 0.059714347 0.024599079 0.05947864
0000c0 5b 7b a8 3c 61 4d 1d 3d 9b 86 d5 3c 19 02 2a bc
       0.020566633 0.038403872 0.026065161 -0.010376477
0000d0 bd cc fd bc 70 e1 4a bb fb 3d 8c bd b1 cc 11 bc
       -0.030981416 -0.0030957125 -0.06847759 -0.0088989
0000e0 09 da f5 bc 77 36 b4 3c 0d 15 1a bc 1f f2 25 3d
       -0.030011194 0.021998627 -0.009404433 0.040514108
0000f0 63 4b c1 ba 82 4f a2 3c 29 1f 10 3d 9a c2 08 39
       -0.0014747198 0.019813303 0.035185967 0.00013042465
000100 c8 16 ef bc dd b2 05 3c 7d 6e b8 bd 8b 1e 2a 3c
       -0.029185668 0.00816032 -0.09005449 0.010383259
000110 b7 41 d0 bb d7 34 60 bd 3e 50 68 bd 7f 4e c6 bc
       -0.00635549 -0.054737892 -0.05671715 -0.024207352
000120 09 8d f8 3c e8 49 15 bd cc 80 be 3c e2 c1 55 3d
       0.030340688 -0.036447436 0.023254775 0.052186854
000130 f4 5d f2 bc 47 f1 46 3d 85 67 5a 3d b3 7b 35 3a
       -0.029585816 0.048569944 0.05332138 0.00069230347
000140 00 5b 25 bd 31 b9 8c 3c 64 58 ed bc b2 c8 34 bd
       -0.040369987 0.01717815 -0.028972812 -0.04413671
000150 2e b3 b0 3c 1a 68 0a 3d 66 7a d1 bd b2 e8 8c bd
       0.021569815 0.033790685 -0.10228424 -0.068803206
000160 3e 59 58 3d 9c 93 26 3d 3b 0c 31 3c bc 11 ad bc
       0.052819483 0.040668115 0.010806139 -0.02112662
000170 d0 ad 1f ba 29 39 1b 3d bd f9 38 3d 52 17 3e 3d
       -0.0006091269 0.03789631 0.045160044 0.04640896
000180 b6 12 27 bd df 2c d3 3c 57 6f b1 3b ce d6 6f 3c
       -0.04078933 0.025778232 0.005414884 0.014638616
000190 a6 74 e2 bc 18 72 57 3d b8 5a 19 bc b8 41 97 38
       -0.027643513 0.052599043 -0.009360008 7.212482e-05
0001a0 fd 20 e9 3c 67 b4 dc bd 94 a2 a0 3c e3 48 09 3b
       0.028458113 -0.107765965 0.019608773 0.0020947985
0001b0 5b 3a da bc 03 8f 8e bd a2 b1 e6 b7 44 88 00 bd
       -0.026639154 -0.06960871 -2.7500853e-05 -0.031379953
0001c0 0f 33 df 3c dd 83 de 3b f0 07 36 3a 15 59 7c 3d
       0.027246026 0.0067906217 0.0006943932 0.061608393
0001d0 97 81 fb bc 1f 1a fa bb ff 25 11 3d ca 6e 97 bc
       -0.030701442 -0.0076325084 0.035436627 -0.018485446
0001e0 59 db 12 3d e8 71 01 bd 33 05 fa 3c d9 12 83 3c
       0.035853717 -0.03160277 0.030520057 0.016000198
0001f0 1d 45 17 bc d0 66 b2 ba 07 b1 38 3d 5a 64 3f 3c
       -0.0092327865 -0.0013610963 0.0450907 0.0116816405
000200 86 45 9e 3b fc d9 ea 3c 5c b3 10 3c c0 42 56 3d
       0.004830065 0.028668396 0.008831825 0.05230975
000210 91 ae 1b bd da 10 7a 3d 07 b0 81 bc 1c 4e 42 bc
       -0.038008276 0.061051227 -0.015831007 -0.011859443
000220 09 ea ae bc eb b0 1d bd 8d 6e 29 3d 0e a0 36 bc
       -0.021351831 -0.0384988 0.041365195 -0.011146558
000230 d4 07 4a bd 3a 70 e1 bc c2 b4 8f 3c 42 1f f2 bd
       -0.04932387 -0.027519334 0.017542247 -0.11822368
000240 b2 89 47 3d 6c f4 7b 3d 52 e5 22 3c cd 84 61 bd
       0.0487153 0.061512396 0.00994237 -0.05505829
000250 6e cd bd bc 76 15 11 bd 26 3c 59 bd bd cf 2d 3d
       -0.023169246 -0.035420857 -0.053035878 0.042434443
000260 4a 79 c6 3c 51 a8 0f 3d 99 d7 9c bc bd 4c c9 3c
       0.024227757 0.03507263 -0.019145774 0.024572724
000270 bd f4 40 3d 49 1c 77 3d 96 59 46 bb 03 d0 21 3d
       0.0471084 0.06032971 -0.00302658 0.039505016
000280 31 95 72 bb ac a1 6d 3d 89 a8 6c 3d d0 65 1b bd
       -0.0037015195 0.05801551 0.057777915 -0.037938893
000290 50 1c 70 3b 0f 7c 32 bc 78 0d ce 3c 9e b7 17 3d
       0.003663797 -0.010893836 0.025152907 0.037040345
0002a0 1f 72 4d 3d 0e 5f 0d be 89 d5 76 bd 74 21 13 bd
       0.050157662 -0.13805792 -0.060262237 -0.035920575
0002b0 d5 cc 91 3c 1f c0 28 3d 6d af 7c 3c 45 20 c1 bd
       0.017797867 0.041198846 0.015422684 -0.09429983
0002c0 e8 7f 13 bd d0 59 bc bc f5 70 2c bd 41 23 94 3d
       -0.036010653 -0.022992045 -0.04209991 0.07233287
0002d0 e5 cf e2 3a a8 b5 01 3c 07 69 18 be 4e 7e 47 3b
       0.0017304389 0.007916845 -0.14883815 0.0030440274
0002e0 70 4d 19 3c 24 b6 80 3d 6d dd bb 3a 86 0b 01 bc
       0.009356841 0.062847406 0.0014332958 -0.007876283
0002f0 33 b7 71 bd a6 12 64 3c cd 95 15 3d 4b a0 cc bb
       -0.059012603 0.013920462 0.036519814 -0.0062446943
000300 99 3f 42 3b 36 cc f8 3c 1b f0 3d bc c4 ca 26 bd
       0.0029639958 0.030370813 -0.01159289 -0.040720716
000310 b3 f2 b0 39 69 14 62 3d b8 a1 00 be 82 c0 32 3b
       0.0003375016 0.055195246 -0.12561691 0.0027275388
000320 93 f4 ce bc 06 fe 09 bc 8c ed 4b bd 20 3e 38 bd
       -0.025263106 -0.00842238 -0.04978709 -0.044981122
000330 5c bd fb 3c 62 36 f4 3b 21 2c 29 bc 39 92 83 bd
       0.030729942 0.007452772 -0.010325463 -0.06424374
000340 3b 70 8d bc 33 47 2b 3c e8 46 2d 3c e8 59 16 3c
       -0.01726543 0.010453987 0.010575987 0.009176709
000350 f7 96 01 bd 3f b1 bc bd 23 cd 72 3c 23 e4 2d 3d
       -0.031638112 -0.092134945 0.014819416 0.042453896
000360 88 25 a2 3c 0e 1d 7b 3b f4 da a1 3b 06 f8 bd 3c
       0.019793287 0.0038316878 0.0049394313 0.023189556
000370 42 b3 27 3d 34 9d eb bd c8 3d 0f be 32 df 99 3c
       0.040942438 -0.115045935 -0.13988411 0.018783186
000380 b3 07 cd bd 82 f8 7a bd de 9a 05 bd 0e 34 15 bd
       -0.10011234 -0.06127215 -0.032618396 -0.036426596
000390 30 bc 47 3d 1b 58 2d 3c 3e e9 27 3d 10 33 97 bd
       0.048763454 0.010580088 0.04099392 -0.07382786
0003a0 2b e6 6d 3c c3 f5 23 bc aa 8f 4e 3d 07 ad 35 3d
       0.014520208 -0.010007325 0.050429977 0.044354465
0003b0 af 6d 6a bc 5d 5e 2b bd 29 e6 4c 3d db 98 b4 3c
       -0.014308377 -0.04183804 0.050024185 0.022045543
0003c0 9c b6 6f 3d 3e c0 49 bd e1 42 85 bb cf 2e f3 3b
       0.05852376 -0.049255602 -0.0040668105 0.0074213515
0003d0 6c 27 02 bd 72 03 60 bd 9b e0 1e 3d f0 cb 4f 3d
       -0.031775877 -0.054690786 0.03878842 0.0507316
0003e0 7a 2b f0 3c cb 27 84 bd c0 a2 54 3d b3 ba 15 bd
       0.029317606 -0.064529024 0.051913023 -0.036555003
0003f0 c4 fb 34 3d 35 36 23 3c 1d 6e 72 bd 3d 44 19 bd
       0.044185415 0.009961654 -0.059187043 -0.037418593

fc4.bias f4 [2]
000000 c2 c4 eb bc 62 e1 9a bc
       -0.028780345 -0.018906299
