snn_nondistorted.pth (torch, 577930 bytes, 8 tensors)

fc1.weight f4 [256, 40]
000000 fd 78 d0 3d f6 f1 7f ba 3c b5 1a bd b8 0d 8f bd
       0.10179327 -0.0009763533 -0.037770495 -0.069850385
000010 fb c1 37 bd 06 c6 ef bd 67 f9 96 bd 62 61 f4 3d
       -0.04486273 -0.11707692 -0.073717885 0.11932637
000020 d7 af f5 3c 26 50 3b 3b 8b 3a e5 bd f8 85 9e 3d
       0.029991074 0.0028581708 -0.11192807 0.07740396
000030 1d 61 16 3e fa 52 0c 3e 53 7c 33 3e 02 c4 05 3d
       0.14685483 0.13703528 0.17527895 0.03265763
000040 a7 09 d4 bd fb 98 03 bc 75 4c 05 3b 1d e7 f8 3c
       -0.103534035 -0.008032079 0.0020339761 0.03038364
000050 e4 57 c9 bd 0a 1d 26 bd 3f 42 93 bd 64 03 c0 3d
       -0.09831217 -0.040555038 -0.0719037 0.09375647
000060 50 0c d2 3c 64 a3 66 bd e8 4c 37 3d ff 7c a3 3c
       0.025640637 -0.056308165 0.044751078 0.019957064
000070 a5 ba 8b bd fa d1 bc bc b6 0c 21 bd 5e f5 24 be
       -0.06822709 -0.023049343 -0.039318763 -0.16109225
000080 45 c5 9b 3c 9b 4e cb bd c6 b2 76 be 20 df a9 bd
       0.019014964 -0.09927102 -0.24091634 -0.08294511
000090 ee 9f 2a be 7b 28 1e bd bb ed 00 3e 52 83 9c bd
       -0.16662571 -0.038612824 0.12590687 -0.07642235
0000a0 db e6 de bd 06 3c d0 bb 6d 5a 5d 3d 9f c7 c4 bd
       -0.10883876 -0.0063548116 0.054041315 -0.09608387
0000b0 59 57 26 3d fa 28 d7 bd 2b be 01 be dd d3 a2 3d
       0.040610645 -0.105058625 -0.126702 0.07950566
0000c0 84 4c ef bc 12 99 60 3d 09 b4 a8 3d 01 06 9c bd
       -0.02921129 0.05483348 0.08237464 -0.07618333
0000d0 ee 80 e3 3d 40 7c 24 3e 6b f7 92 3d bd 7b 89 bd
       0.11108576 0.16063023 0.071760975 -0.06713054
0000e0 47 fc b5 3c 35 98 39 3e cb c0 89 3d 31 4a 03 3e
       0.022215022 0.18124469 0.067262255 0.1282127
0000f0 71 2b 08 be c4 15 b1 bc ca 42 b8 3d 8e 5e 14 3e
       -0.13297822 -0.021616824 0.08997114 0.14489195
000100 9e 4f a5 3c e2 d5 57 bd 85 2d 19 3c 41 d2 06 3d
       0.020179566 -0.05269421 0.009349232 0.032915358
000110 8b 80 8f bd e0 47 94 3d 4e 9f f9 bd 1d 0d 37 bd
       -0.070069395 0.072402716 -0.12188588 -0.04469024
000120 84 60 27 3e 4c d3 f6 3d d8 c7 37 bd 38 30 ef 3d
       0.16345412 0.120520204 -0.04486832 0.11679119
000130 10 bd f8 bc f1 72 2b 3d 2b d7 2d 3d d1 b1 92 bc
       -0.03036359 0.041857664 0.04244153 -0.017907055
000140 3c 8e f1 3d 06 4c 4a 3d b4 03 ed bd fd 81 ab 3d
       0.11794707 0.049388908 -0.11572972 0.08374403
000150 ff 6d 06 be 56 c0 af bc 4c 66 cd bd b7 d4 1d bc
       -0.13127898 -0.021454018 -0.10029277 -0.009633235
000160 4b d0 78 3c b3 6f 5c 3d 3a 7f 8d bd 74 8b 9a bc
       0.01518638 0.053817462 -0.06909032 -0.018865325
000170 11 0c 8b bd 31 67 45 3c 00 8f 31 3d de 05 e6 3c
       -0.06789411 0.0120485285 0.043349266 0.02807897
000180 63 93 11 3e 0c 76 d2 bb a8 bb 1a be 54 95 73 3d
       0.1421638 -0.0064227637 -0.15110648 0.059468582
000190 09 11 02 be 9e 53 91 3d 9e cb 9c bd 77 60 ff bd
       -0.12701811 0.07096027 -0.076560244 -0.12469571
0001a0 0e b6 ac bc 14 77 11 be 91 ad 16 bb c7 60 60 bd
       -0.021082904 -0.14205581 -0.0022991637 -0.054779794
0001b0 ad f3 a3 bd 6e 50 78 bb a4 01 dc 3d 95 8d 05 3c
       -0.08005462 -0.0037889737 0.107425004 0.008151432
0001c0 7f bc 11 3e 8e bd a7 bd b2 82 ce bb 8c cd 91 bd
       0.14232062 -0.081904516 -0.006302201 -0.07119283
0001d0 6f 00 a5 3d b9 f3 0d be a6 33 d5 3d d6 46 1b be
       0.08056723 -0.13862504 0.10410242 -0.1516374
0001e0 78 30 94 3d c9 53 82 3d d6 5e 28 3d 5c 1f df bc
       0.07235807 0.06363637 0.041106068 -0.027236633
0001f0 4a 4c 01 3e 6f c8 1f 3e f1 21 37 3e 4e 28 17 3d
       0.12626758 0.15603803 0.17884041 0.036903672
000200 72 04 14 3e f7 f8 0d 3e 64 2d b6 3c 6c 24 76 3d
       0.14454821 0.13864504 0.02223844 0.06009333
000210 22 9e 42 3c cd d9 58 bd 78 30 04 3e ee 15 cc 3d
       0.011878522 -0.052942086 0.12909114 0.0996512
000220 9b a1 e2 bd 99 f5 ad bd d6 d3 00 3b 68 90 25 3e
       -0.1106598 -0.0849411 0.0019657514 0.16168368
000230 88 60 2d 3e a3 b5 25 be 3d 8d 82 bd 01 e2 66 3d
       0.16931355 -0.1618257 -0.06374595 0.056367878
000240 c0 52 2c be d7 58 80 bd 84 dd c2 3d 26 ef 28 bd
       -0.16828442 -0.06266945 0.09514907 -0.041243695
000250 dc a8 2b be c9 79 0c be 00 c2 cd 3c de 77 e8 3d
       -0.16763633 -0.13718332 0.02511692 0.11350988
000260 77 aa b3 bc e9 2d f8 3d e6 25 55 bd cb f5 eb bd
       -0.02193187 0.12118132 -0.052038096 -0.11521491
000270 2a 3e 5a bd fc 6f 3b bd 60 d3 fc bd 32 11 ca 3d
       -0.05328194 -0.045761093 -0.12345004 0.09866561
000280 cc 0e ec 3d bc cd ce bd 79 8e 00 be 5f 5a b5 bd
       0.1152626 -0.100978345 -0.12554349 -0.088551275
000290 67 7b aa 3d 5b fe 0b be c2 51 0b 3e bd 31 20 be
       0.083243184 -0.13671248 0.13605407 -0.15643974
0002a0 54 35 d7 3d bc 26 61 3d 99 9c 5b bd 68 06 3c be
       0.105082184 0.05496858 -0.05361614 -0.18361819
0002b0 c4 3c c7 bd 55 a6 18 bc 9c 2e cd bd c3 fb f3 bd
       -0.09728387 -0.009317 -0.10018656 -0.11913254
0002c0 98 6e 67 bd 9e 72 bd 3b 6c 37 c0 3d d6 9f 80 3d
       -0.056501955 0.0057814857 0.09385571 0.06280486
0002d0 51 3d fd 3d 6f 92 21 3e 3b 6b 45 3e 6a ca 99 3c
       0.12365211 0.15778516 0.19279186 0.018773276
0002e0 2a ee 2f 3e 92 48 04 3e 7d 29 dc 3d 4e 3a f0 3c
       0.17180696 0.12918308 0.10750101 0.029324677
0002f0 8c c6 23 3e c2 e7 59 bc 78 df a7 3d 11 54 1e be
       0.15993708 -0.013299884 0.0819692 -0.15461756
000300 2b 88 6b 3c f3 b1 02 3e 3a 02 16 3e e7 28 80 3c
       0.014375727 0.12763195 0.14649287 0.015644504
000310 2a 6c 36 3e 90 b9 6d bd f6 60 59 3d 88 f3 0d be
       0.17814699 -0.058038294 0.053070985 -0.13862431
000320 a7 b4 18 3d f8 0e 3a 3d bd e5 04 be ec ce ac bd
       0.03728166 0.04542443 -0.12978263 -0.08437905
000330 6e e7 20 3e ba 17 2c 3e 70 c3 4c bd 2c ab 7d bd
       0.15713283 0.16805926 -0.04999107 -0.06193082
000340 fb 90 b1 bd 1d 4a 1d 3c 75 46 21 bd d3 f8 94 bc
       -0.08670231 0.0096001895 -0.039373834 -0.018185055
000350 49 c6 0c be 84 2b 00 bd e6 46 ae bc f5 20 10 3c
       -0.13747515 -0.0312915 -0.021274041 0.00879692
000360 6b 17 4e 3e bd fd 2b 3e b3 34 91 3d b2 fe f9 3b
       0.20126121 0.16796012 0.0709013 0.007629239
000370 c3 a0 6b 3d 11 d5 4a bd c9 b7 14 bd ff 12 ec 3d
       0.05752636 -0.049519602 -0.036308084 0.11527061
000380 d0 f4 01 3e c8 93 d6 bd 77 7b 6b 3d 27 23 c9 bd
       0.12691045 -0.10477406 0.057490792 -0.09821158
000390 58 57 56 3e 57 bb 79 3d ff 1b 5f 3d 9b dc 6a bd
       0.20931756 0.060969677 0.05447006 -0.057339292
0003a0 a1 76 01 3e 36 29 48 3e 12 43 1f 3e ba 82 20 3b
       0.1264291 0.1954697 0.15552929 0.0024491982
0003b0 f9 1c 63 bd c1 f9 ca bb d2 48 0d bd 0c bd 53 3d
       -0.055447552 -0.0061943238 -0.034493275 0.05169396
0003c0 a5 0a 97 bd 78 d7 6a bc 3e c3 86 3d a4 9e 8e 3d
       -0.07375077 -0.014333598 0.06580208 0.06963852
0003d0 e3 1d 95 3b f5 4f 9e 3d 01 32 ef bd 93 48 01 be
       0.004550682 0.07730094 -0.11679459 -0.12625341
0003e0 43 37 0d bc 08 62 d8 3d 06 e1 20 3d 42 9c c9 bd
       -0.008619132 0.10565573 0.0392771 -0.09844257
0003f0 78 0d 1c 3e ab 90 e7 bd e9 e2 4d bd 42 ec 11 be
       0.15239513 -0.1130689 -0.050265227 -0.14250281

fc1.bias f4 [256]
000000 17 8c 32 3e e5 71 6f bb f6 eb ff 3d 1e aa 24 3e
       0.17436253 -0.0036536392 0.12496178 0.1608052
000010 32 3a dc 3d 47 15 b4 bc 4e 21 26 3e 6a 71 01 be
       0.107532874 -0.021982802 0.16223642 -0.1264092
000020 c2 dc ef 3d cb 41 98 3c 3a 76 e2 bd 17 ef 3d 3d
       0.11712028 0.01858606 -0.11057706 0.046370592
000030 0b 8a 05 3e 81 71 c5 3c 9d 3f f6 3d 81 f4 1c 3d
       0.1304094 0.024101974 0.12023852 0.038319115
000040 c2 ce 0e 3e a0 f8 41 bd 48 db 63 bc 2e 3b 5e bd
       0.1394606 -0.047356248 -0.013907261 -0.054255657
000050 1b 19 db 3d df 25 96 3d 17 90 4c 3d 09 92 4a bc
       0.10698148 0.07331442 0.049942102 -0.012363919
000060 74 42 d2 bd 54 61 1b 3d 42 fd 8d 3c cb 1a 0a be
       -0.10266581 0.037934616 0.017332677 -0.13486783
000070 24 4d ac bd 72 7c d9 ba e3 3a 08 bd 0d 8f 35 3c
       -0.08413151 -0.0016592874 -0.033259284 0.011081469
000080 69 87 df bd 74 e3 5d bd 98 8d 0c 3e b0 02 e9 3c
       -0.10914499 -0.054171994 0.13725889 0.028443664
000090 6f c4 00 be 54 87 b1 3d a5 93 f1 3d 3f c9 00 be
       -0.12574933 0.0866839 0.11795739 -0.1257677
0000a0 4b cf ce bd f0 5e a2 3d 76 ad dd bb f4 4d f0 3d
       -0.10098132 0.07928264 -0.006765063 0.117336184
0000b0 d5 bb 46 bc 3c dd 1f 3e a8 23 f5 bd e9 b7 66 bd
       -0.012129744 0.15611738 -0.119696915 -0.056327734
0000c0 01 90 06 be f9 ee 16 3e 94 12 ca 3d 5d db a0 bc
       -0.1314087 0.14739598 0.09866825 -0.01963585
0000d0 03 9b 9e 3d 01 8f c9 3d d4 e1 cb bd d8 7f b7 bc
       0.0774441 0.09841729 -0.09955183 -0.022399828
0000e0 e6 3f 1a 3e 10 93 fa bd 23 e1 7e 3d 85 0b fa 3d
       0.15063438 -0.12235081 0.062226426 0.122092284
0000f0 b4 2d 27 3e df c6 b3 bc c9 60 43 3c ee cd e7 3c
       0.16326028 -0.021945415 0.011924931 0.028296437
000100 11 af e9 3d e4 e1 f3 3d 4e 26 d5 3d 03 e3 ef 3d
       0.114103444 0.119083196 0.10407697 0.11713221
000110 73 7c d5 bd e2 27 b8 3d f0 80 1f be 2d d4 e7 3d
       -0.104241274 0.08991982 -0.1557653 0.11319766
000120 fa 98 cf bc 94 6d 30 bc 7b f7 74 bd 9a 5b b5 3d
       -0.0253415 -0.010768313 -0.05980633 0.08855362
000130 a9 cf 08 3c 22 81 b2 3d a9 ec 0e 3e c3 1f 02 be
       0.008350291 0.087160364 0.13957466 -0.12707429
000140 56 06 f6 3d 02 d7 20 3e c2 2c 26 be 69 d1 b5 bd
       0.12012927 0.15707019 -0.16228011 -0.088778324
000150 70 34 2b bc ee d0 67 3d 15 bd e6 3c bb 3d 1a 3e
       -0.010449514 0.056595735 0.028166333 0.15062611
000160 7f 6e 48 3e 48 3f 04 3e 2d af d8 3a e6 aa 09 be
       0.19573401 0.12914765 0.0016531699 -0.13444099
000170 b5 6c 41 bd 3f b8 87 bd 25 c6 fd 3d 1e c0 e8 3c
       -0.04722281 -0.06626939 0.12391309 0.028411921
000180 89 8c ca 3d 5a 58 93 3d f7 92 30 bd 9e 84 b7 3c
       0.09890086 0.07194586 -0.043108907 0.022402104
000190 3b 3c b7 bd 13 04 5b bc 4c 8c fd bd ca f5 4b bd
       -0.08947035 -0.013367671 -0.12380275 -0.04979495
0001a0 db cf 9f 3d 1b fc e0 3d 58 78 62 bd b3 c4 c7 3b
       0.07803317 0.10985585 -0.05529055 0.0060964464
0001b0 a7 bc 47 bb 96 8d 60 3b 6f 30 22 3c 8c fa b7 bd
       -0.0030477436 0.003426408 0.009899243 -0.08983335
0001c0 f6 da 42 bb f2 ef f0 bd 95 af 54 bc 63 4a 76 bd
       -0.0029732562 -0.11764516 -0.012981315 -0.060129534
0001d0 6e 25 51 bc 3d 16 65 3c b5 d0 a0 3d 79 6b 77 bd
       -0.012765272 0.013982353 0.07852308 -0.06040523
0001e0 31 a0 de 3c a1 ba 20 3d dd 55 95 3c e7 39 80 3c
       0.027175995 0.039240483 0.01822942 0.01565261
0001f0 bc 6d 9d 3d ad 2b b0 3d b0 4a f1 3d 1d 11 08 3e
       0.07686946 0.086020805 0.11781824 0.13287778
000200 43 3b 16 3d 42 5a ea bd 4e b6 b6 bc 0b c8 71 3d
       0.03667761 -0.114429966 -0.022303727 0.059028666
000210 2c 14 28 3e ac 13 0c 3e 12 8e b6 bc bb f8 0f 3e
       0.16413945 0.13679379 -0.022284541 0.14059727
000220 c3 e5 98 bc bb cd 56 3c ab 34 00 3e 33 1b eb 3d
       -0.018664246 0.013110573 0.12520091 0.11479797
000230 fc 9c 3c 3e a5 1d fe 3d 39 1f c6 bd 44 fd 27 bd
       0.1841926 0.12407998 -0.09673924 -0.041013017
000240 64 c7 24 be 82 a9 48 bd 4c 42 0d be 8c aa fd bb
       -0.16091686 -0.04898978 -0.13794822 -0.007741278
000250 21 5b 82 3c ea 77 90 bd 17 14 7a 3d 7d ee d6 bd
       0.015912594 -0.07054122 0.061054315 -0.10494707
000260 fc 29 d7 bc f1 77 7c 3d 13 fc 15 be 3a 8a 25 be
       -0.026265137 0.061637823 -0.1464694 -0.1616601
000270 dc 61 01 be 4e 92 18 3e b8 ee 26 be aa c9 0d bd
       -0.12634987 0.14899561 -0.16302001 -0.03461615
000280 16 12 eb 3c b2 d0 46 3d 65 39 5d 3b 2b 79 e6 bb
       0.028695147 0.04853887 0.0033756134 -0.0070334873
000290 c9 f4 88 bd dd 18 0a bd 76 fe cb 3d 1f d3 48 3d
       -0.06687314 -0.033715118 0.09960644 0.049029466
0002a0 ba 3b 6b bd 87 bd 99 39 01 13 bf bb 46 c3 cf bd
       -0.057430007 0.00029323643 -0.005831123 -0.10144667
0002b0 da 60 f4 3d 0e eb 39 3d 0f df f9 bd 87 c0 5c bd
       0.119325355 0.04539018 -0.12200748 -0.053894546
0002c0 6f 88 56 bc a6 9e b2 3d 9f 78 c4 3d be 47 16 3e
       -0.013094052 0.08721666 0.09593319 0.14675805
0002d0 b5 93 42 bd 81 f9 b6 3d ec ff 16 3e 3c f4 07 3d
       -0.047504146 0.08934308 0.14746064 0.033191904
0002e0 82 93 26 bd 3e d7 c2 3d a3 72 27 3e c6 da f0 3d
       -0.04066802 0.095137104 0.16352324 0.11760478
0002f0 47 e4 ad 3d 2a 31 d6 bd 8b 66 cb bd 05 f7 4f 3c
       0.08490806 -0.10458596 -0.09931668 0.012693171
000300 a5 2a 05 be 40 80 d1 bd cd 7c e6 3d 03 8c 65 3d
       -0.13004549 -0.1022954 0.112542726 0.05604173
000310 a7 96 e4 3d a2 50 a1 bd 5f 53 dc 3d 1f c1 8e 3d
       0.11161547 -0.078767076 0.10758089 0.06970429
000320 55 7e 08 3e e7 1e 1a 3e 92 c0 9f 3d dc a8 e5 bd
       0.13329442 0.15050851 0.07800402 -0.11213848
000330 f8 24 8e bd be 11 ed 3d b4 8f 4c bd 5b e9 a0 3d
       -0.06940645 0.1157565 -0.049941733 0.07857009
000340 e5 b5 09 3e bf bc e8 bd bd 98 e8 bd 22 2a ff 3d
       0.13448294 -0.113641255 -0.113572575 0.12459208
000350 66 3a 03 3e 71 a2 21 bd f4 05 4a 3d f2 a9 39 be
       0.12815246 -0.039461557 0.049322084 -0.18131235
000360 9f 9d 27 3e c1 ba 55 3a 46 13 1a be d7 80 95 bd
       0.16368721 0.00081531337 -0.15046415 -0.07299965
000370 ab 24 23 ba b0 3b bf 3c a0 16 03 3d c1 3d d9 3d
       -0.00062234205 0.02334389 0.032004 0.10607482
000380 82 d5 df 3d fa bf 1f 3e a3 75 11 3e e0 21 24 bc
       0.10929395 0.15600577 0.14205031 -0.010017842
000390 53 bf d5 3d a1 ee 99 3c 1d ff 89 3d 99 4b 13 be
       0.10436883 0.018790545 0.06738112 -0.14384307
0003a0 66 20 f3 bc fb 5b 06 3d e7 f2 d4 3d f7 43 1d be
       -0.029678535 0.032802563 0.103978924 -0.15357958
0003b0 c4 93 dc 3d 45 e8 2b 3e ff 5f 47 bd db 69 af 3d
       0.107703716 0.16787823 -0.048675533 0.08565112
0003c0 71 46 01 3e 7c 30 2e 3e fd 9b 1f bd 4a 6e 12 3e
       0.12624528 0.17010683 -0.03896712 0.14299884
0003d0 17 4f 20 be 9b 32 43 3d 34 4f c7 3d ea 37 db bd
       -0.1565517 0.047655683 0.09731904 -0.10704024
0003e0 89 23 d2 ba c2 58 1b 3e 50 9f 3e bd dc cd 2d be
       -0.0016032319 0.15170577 -0.04653865 -0.1697306
0003f0 37 f8 bd 3c 36 4c fb bd 2e 7a 01 bd 0d d7 96 3a
       0.023189647 -0.122703955 -0.03161066 0.0011508182

fc2.weight f4 [256, 256]
000000 f5 73 89 3d 77 01 86 3d 73 f3 25 bd 07 54 4f 3d
       0.0671157 0.06543248 -0.040515374 0.050617244
000010 1a d9 33 3d 48 db 96 3d e7 61 a3 3d 56 8e 27 bc
       0.043908216 0.07366043 0.07977658 -0.010226807
000020 d8 2e 7d 3d 5f 33 0c bc 40 ee 0a 3d 57 a7 c6 3d
       0.06181225 -0.00855717 0.03391862 0.09699886
000030 4a 8c 25 bc 6c 6c 8d 3d 01 8d 19 bd ba b1 a5 3c
       -0.010104248 0.069054455 -0.037487987 0.020226348
000040 59 76 9d 3d 70 b0 a8 3d 67 de 54 bb ec 15 88 3c
       0.07688589 0.08236778 -0.0032481195 0.016612016
000050 d8 82 77 3d 10 0b 40 bc 89 66 74 3d d1 1c 2e 3d
       0.060427517 -0.0117213875 0.059668098 0.04250795
000060 f0 87 c2 3c 47 47 bb 3c e6 ec 15 be 55 2c be 3c
       0.02374646 0.022861136 -0.14641151 0.023214499
000070 58 75 9e 3d d3 19 0f be fd 4f af 3c 69 d5 9a 3c
       0.07737225 -0.13974695 0.021400446 0.01890059
000080 80 d6 ec bc 5b a2 b8 bb 62 31 2d 3d d7 40 f8 3c
       -0.028910875 -0.0056345887 0.042283423 0.030304356
000090 30 48 f4 3c ca 49 77 bb 41 12 3d bd 32 c0 5a bc
       0.029819578 -0.003773319 -0.046159986 -0.013351487
0000a0 85 0f 45 3d b9 6a 6f 3d e9 88 c4 3c 85 cf 5a 3d
       0.048110504 0.058451388 0.023991065 0.053420562
0000b0 cf e9 57 3d eb 65 aa 3d 38 2d a5 bc 4c 6c af bc
       0.05271321 0.083202206 -0.020163164 -0.021413945
0000c0 e4 09 ce bd 18 eb 34 3c 50 64 2f 3d de eb 52 3d
       -0.1006048 0.011042379 0.042820275 0.05149447
0000d0 aa 4d 86 bc 4f 7b c5 3b af 23 40 bd b1 b6 35 3d
       -0.016394455 0.0060266624 -0.04690903 0.04436368
0000e0 bb 98 dc 3c 6b 8c 8f bd af 95 92 3d e4 53 62 3d
       0.026928296 -0.070092045 0.07157456 0.055255786
0000f0 8f 0f 76 3c 71 4f c6 3d 4d 89 ce 3d dd 9e 12 bc
       0.015018358 0.09683121 0.10084782 -0.008949009
000100 79 ff 96 3b 83 57 8f 3b af 7a b0 3d 8f 76 1e 3d
       0.0046080914 0.004374446 0.0861715 0.038687285
000110 d4 c4 30 3d 85 3c 88 3d 3f 6b 7a bd a4 45 43 bc
       0.04315646 0.06652168 -0.061137434 -0.011918459
000120 68 f1 a9 bc 1d 68 eb bd d6 c8 e0 bd d8 ab 48 3d
       -0.020744994 -0.114944674 -0.109758064 0.048992008
000130 8d b2 94 bd 7c 67 9b bc 20 60 05 bd 4a e2 05 be
       -0.07260618 -0.018970244 -0.032562375 -0.13074604
000140 8b 3b 34 3d 66 4b 9b bb 5c 48 47 bd 96 26 57 bc
       0.044002097 -0.004739213 -0.04865299 -0.013131758
000150 c4 73 2d 3e 23 07 bd 3d 90 6c 3a be bc c3 83 bb
       0.16938692 0.09229877 -0.18205476 -0.004021136
000160 bc b5 52 3d 6e 60 6f bd 48 d5 13 be fb 2b 8d bd
       0.051442847 -0.058441572 -0.14436829 -0.06893154
000170 8a 60 14 be 3f bd 61 bd 9c df 9e 3d 6f 62 a3 bd
       -0.14489952 -0.05511212 0.07757494 -0.07977759
000180 14 75 3d 3d b2 89 4e bd d4 75 36 bd 05 bb 1e bd
       0.046254233 -0.050424285 -0.044545963 -0.038752574
000190 f8 1e 68 bc 19 4a 4a 3d b7 80 25 bd 54 25 a4 bd
       -0.01416754 0.04938707 -0.040405955 -0.08014932
0001a0 64 d8 32 3d b5 d8 cc bc e0 34 4f be e7 49 f3 bb
       0.043663397 -0.025005678 -0.20235014 -0.0074245813
0001b0 dd fa 3e 3d 8a 07 da bc 97 5e 9a 3d 69 a6 8b bc
       0.04662596 -0.026614923 0.07537573 -0.017047124
0001c0 61 63 d3 3d d1 88 fe 3c 88 b3 1d be 18 26 18 bd
       0.103216894 0.031071099 -0.15400517 -0.037145704
0001d0 1e ea 47 3d 0e b7 02 bd c9 ac fe b9 40 10 2b 3d
       0.048807256 -0.031912856 -0.0004857539 0.041763544
0001e0 cf 2a 2c be 62 5d d0 bd 28 81 06 be 7e e0 80 bd
       -0.16813205 -0.10174061 -0.13135207 -0.062928185
0001f0 da 41 ff bc b3 ef 9d bc a3 8a 26 bc 61 12 29 bd
       -0.03115933 -0.019279337 -0.0101648895 -0.041277293
000200 a9 7c 5f 3c 51 78 39 bd 5d 05 0d be 90 48 71 3b
       0.013640561 -0.04528076 -0.13771577 0.0036816932
000210 c2 c5 97 3d 5c 6b f0 3a d9 76 11 bc ff a1 0a bd
       0.07410766 0.0018342542 -0.008878433 -0.033845898
000220 c1 f5 41 3d 5e b2 d2 bd 1e 7b 13 bd eb b3 1c 3d
       0.04735351 -0.10287927 -0.036006086 0.03825752
000230 c1 60 2f bd bf ff 5d b9 6c 8e 21 bd a6 6d 0b 3d
       -0.04281688 -0.00021171475 -0.039442465 0.034040116
000240 2a 66 99 bc 43 5e d5 3d 90 88 3f bc 9b 7c 98 3d
       -0.018725473 0.104183696 -0.011690274 0.074456416
000250 ac 7b 03 be cd 60 61 3b 34 c6 80 3d f5 4d 6c bd
       -0.12840146 0.0034389973 0.06287804 -0.057691533
000260 8f 82 1d be 44 a1 f8 3d 5a 3d 9c bd 8d 7e 79 3d
       -0.15381835 0.12140134 -0.076288894 0.060911704
000270 63 e8 40 bc 8f 5e 76 3d af a2 5a bd 07 26 42 bd
       -0.011774155 0.06014877 -0.053377803 -0.047399547
000280 ce 47 42 bd 25 d6 5c 3d c5 31 ae 3c de 3b ee bd
       -0.04743176 0.05391516 0.021263966 -0.116325125
000290 44 b8 f2 3d be 2d fe 3c 7a fe 69 3d 15 05 b0 bb
       0.11851552 0.031027671 0.057127453 -0.0053716996
0002a0 0c 49 ce bd c8 4b c9 3d ed 1f f1 bc dd bd 6f 3d
       -0.10072526 0.09828907 -0.029434169 0.058530677
0002b0 cc f9 ae bc b6 77 95 bb e1 af 40 3d 39 9d 8b bd
       -0.021359347 -0.00456139 0.04704273 -0.06817097
0002c0 5c 8b 08 be 8c 62 95 bd 53 51 1f bd e8 0c 27 3d
       -0.13334411 -0.07294187 -0.038895916 0.040783793
0002d0 80 df 3b bd 41 3c a4 3d 0b 33 ff bc 8d d9 49 bc
       -0.045867443 0.08019305 -0.031152269 -0.012319935
0002e0 6d 29 88 3c 9e 94 47 bb 10 e9 0b bb af 65 b0 3d
       0.016621316 -0.0030453573 -0.0021348633 0.086131446
0002f0 2f 34 98 bc 34 8c ec 3c 90 4b f7 bc b8 41 19 bb
       -0.01857957 0.028875448 -0.030187398 -0.0023385119
000300 d2 82 5e 3c c9 b5 2c 3d 3b e4 e9 3c af b6 29 bd
       0.013580995 0.04216555 0.028551212 -0.041433986
000310 46 c8 2b 3d b8 7a e9 bc 0d f8 4a 3d b4 af 33 bc
       0.041939043 -0.0285009 0.049552966 -0.010967184
000320 3e 89 e0 bc 07 b0 88 3d 01 7a a7 3c f4 53 e0 bc
       -0.027409192 0.066741996 0.020443918 -0.027383782
000330 f9 62 59 bd 8b da 0d bd 70 f8 25 3d a8 a5 83 3d
       -0.053072903 -0.034632247 0.04052013 0.06428081
000340 19 d0 40 bb f8 52 83 3d 76 8d 02 3d b3 84 54 3d
       -0.002942091 0.064123094 0.03187319 0.051884364
000350 b3 74 6e bd 99 ee f2 b9 6a 12 f0 bc 1c 19 19 bd
       -0.05821676 -0.00046335606 -0.029305656 -0.03737746
000360 73 e6 01 3d d7 8a 28 3d b0 f1 28 3d 47 23 d1 bc
       0.031713914 0.041148033 0.041246116 -0.025529517
000370 6e c6 e5 bd 72 b8 e9 3c 77 c4 fa 3c 39 62 8a bd
       -0.11219488 0.028530333 0.03061126 -0.06757016
000380 37 ab 91 3b 41 3b 25 3c e4 2a b8 3d 37 0d 05 3d
       0.004445459 0.010084928 0.08992556 0.032483306
000390 9b a0 ee 3c 36 c6 20 bd 70 18 74 bb 64 73 1c bd
       0.029129317 -0.03925153 -0.0037246011 -0.038195983
0003a0 83 6a 03 3e 15 7a c3 bc 30 53 15 3d 6a 8c 35 bd
       0.128336 -0.023861924 0.036456287 -0.044323362
0003b0 dc 0f 56 3d e0 ff 33 bd 6c e0 3c 3d 1f 43 b3 3d
       0.05226122 -0.043945193 0.046112463 0.08753037
0003c0 e1 1c 82 3d 15 47 38 bd 2f 1e d3 3c 3c 67 c8 3d
       0.063531645 -0.044989664 0.025771229 0.097853154
0003d0 00 8c 40 3c 12 37 56 3e dd 7c c6 bc c7 e7 24 3b
       0.011752129 0.20919445 -0.024229461 0.0025162564
0003e0 34 1a bf bc fa a1 f0 3b 36 94 0b bd 00 f4 b2 b8
       -0.023327924 0.007343528 -0.03407689 -8.53315e-05
0003f0 d7 f4 bb bc 78 c5 a0 bd c5 f2 25 bc 2d 0a e9 3c
       -0.022943897 -0.07850164 -0.010128682 0.028447235

fc2.bias f4 [256]
000000 b6 17 a4 3b 33 fc b4 3c bb 0c 18 3c b9 1f 52 bd
       0.0050077094 0.022092914 0.009280379 -0.051299784
000010 27 73 3c 3d a7 d8 45 bd 74 0a 18 3c f8 14 6a bd
       0.046008255 -0.04830232 0.009279836 -0.057148904
000020 db 8a 9e 3d 74 c2 68 3d a6 1e 7e bc 80 14 5b ba
       0.07741328 0.05682607 -0.015510237 -0.0008357242
000030 4a 43 6e 3d 1a 59 5c 3c 1f 17 85 3d ca 36 28 3d
       0.05816964 0.013448978 0.064985506 0.041067876
000040 ca a9 26 3d 9d 4c 26 bd 32 d0 5e bc 84 2c 3c bd
       0.040689267 -0.040600408 -0.013599442 -0.04594089
000050 d5 f8 08 3d c0 e9 18 3d a4 6c f0 3c 3d 24 5c 3b
       0.03344043 0.037332296 0.029348679 0.0033590936
000060 69 36 df 3c 6f c2 ed 3c 71 e1 72 3d 2a a0 ab bc
       0.027247624 0.029023377 0.05929703 -0.020950396
000070 16 a1 43 3d ff ce cd 3c a6 8a 37 bd d3 fa 3a 3d
       0.047761045 0.025123117 -0.04480996 0.04564936
000080 78 40 66 bd ac 82 80 bc e9 1d dd 3b 64 cf 4b 3d
       -0.056213826 -0.01568731 0.0067479503 0.04975833
000090 c3 3f 9c 3d cd f1 72 3d 54 c3 26 3d 02 f0 7d 3d
       0.07629349 0.05931263 0.040713623 0.061996467
0000a0 d5 58 85 3d e4 52 f3 3c 78 da d3 3c 47 ba 91 bd
       0.06511084 0.029702611 0.02586101 -0.07115608
0000b0 91 c5 2b bd ac bd 14 3d ff a7 9d bc 6f af 95 bc
       -0.04193646 0.036313698 -0.019245146 -0.01827213
0000c0 cd 90 c2 3c 20 21 fa 3b c8 19 1c 3d f1 4e 8e 3c
       0.023750687 0.0076333433 0.038110524 0.017371627
0000d0 4c 2f aa bc 3f e5 4f bd 46 6c 10 3d 65 96 ea 3b
       -0.020774506 -0.050755735 0.035259508 0.0071590417
0000e0 61 2b 88 bd 0a 17 b5 b9 fc 19 69 3d 2f 48 11 bd
       -0.06648899 -0.00034540176 0.056909546 -0.03546923
0000f0 e9 43 80 3d 69 df cd 3c 12 1c 01 bd 5e ae c2 3b
       0.06262953 0.025130944 -0.03152091 0.0059411963
000100 52 07 7a 3d 5f 14 0e 3c 2d 82 63 bd b8 23 28 bc
       0.061042137 0.008671849 -0.055544067 -0.010262422
000110 22 cb 2e 3b 33 65 8b 3d a4 73 f6 bc 09 71 c6 3c
       0.002667137 0.068064116 -0.030084439 0.024223821
000120 f6 17 e8 3c f2 67 6e 3c 66 73 b6 bc 28 b3 9f 3b
       0.028331738 0.01455115 -0.022271823 0.004873652
000130 9f 5d b6 bc 71 f9 0e bd 40 ca 39 3d ff c4 50 3b
       -0.022261439 -0.034905855 0.045358896 0.00318557
000140 20 5a 87 3d 33 9b 9b 3d 64 86 09 3d 0c 2a 52 3d
       0.06608987 0.07597961 0.03357543 0.05130963
000150 c2 ca 6c 3d 57 41 57 3d a2 76 ce 3c f9 c0 9a bc
       0.057810552 0.052552547 0.025203053 -0.018890845
000160 3f 21 6e 3d 22 51 7e bd a7 85 aa bc c8 eb 66 bd
       0.058137175 -0.062089093 -0.020815684 -0.056377202
000170 ba fe a8 3b 67 d9 9b bd 64 1f b8 bc 3d c8 df bc
       0.005157319 -0.076098256 -0.022475906 -0.02731716
000180 44 d0 6d 3c a7 6a 6c 3d de 8b c0 bb 19 66 f6 bb
       0.014514986 0.0577189 -0.0058760485 -0.007519495
000190 68 00 d8 bc 85 bf 1a 3b 4f d8 2a bd a0 d8 7c 3d
       -0.026367381 0.002361269 -0.041710194 0.061730027
0001a0 f6 f2 fd 3b 91 be 8e 3d 8f 1f 8a bb 23 14 58 3d
       0.0077499105 0.069699414 -0.004215188 0.05275358
0001b0 7e 79 76 3d da ee 4a 3d 2f 47 a2 bd 38 3c 75 bc
       0.060174458 0.049544193 -0.079237334 -0.014967971
0001c0 c6 90 92 bc 37 3e 62 bd a8 82 74 3d 21 64 12 3c
       -0.017891299 -0.055235114 0.059694916 0.008935005
0001d0 9f 89 01 bd 63 31 5c 3d b7 2a fc 3c 14 9f 6b bd
       -0.031625386 0.053758036 0.030782087 -0.057524756
0001e0 97 a9 92 3c de 94 6b bd 3c ac 0c bd 6b b0 17 bd
       0.017903132 -0.057515018 -0.034343943 -0.03703348
0001f0 42 25 84 3d de 6e 29 3d 89 31 3a bc 0b 4a 8d bc
       0.06452419 0.041365497 -0.011364349 -0.01724722
000200 4b 94 3a bd e3 da 8a bb 0f 37 95 bc 92 0e 4b 3c
       -0.04555158 -0.004237519 -0.01821473 0.012393611
000210 e2 ff af 39 4a 15 19 3d 79 c1 e0 3c 5e a6 7a 3c
       0.0003356925 0.03737382 0.027436005 0.015298454
000220 fb a1 93 3c c7 f4 82 3d 71 6a 97 3d 44 49 61 3d
       0.018021574 0.06394344 0.07393349 0.055001512
000230 eb 73 8b bd 96 dc 4b bd 8b a1 7e 3d 5d d0 19 bd
       -0.06809219 -0.049770914 0.062165778 -0.037552226
000240 50 4c 04 bd e5 70 5c 3d 01 fc 9e 3c 93 f3 c4 38
       -0.03229934 0.053818602 0.019407274 9.3913775e-05
000250 d9 0a 4d bd bc 50 e8 3c 09 4f ac bb 94 40 70 3d
       -0.050059173 0.02835881 -0.005258445 0.058655336
000260 93 c9 09 bd c0 2d 53 bb 58 64 81 3c 3d 30 20 3c
       -0.0336395 -0.0032223314 0.015794918 0.009777126
000270 eb 8e 99 ba db 6f 7e 3d f6 bb 73 3d 5c 95 84 3d
       -0.0011715567 0.062118392 0.059505425 0.064738005
000280 ca 52 81 3d 06 9f b8 3a 00 87 02 bd 86 6a 43 3d
       0.06314619 0.0014085479 -0.031867027 0.04770901
000290 95 c6 81 3d 8c 38 34 3d 58 cf fb bc 25 ea 1d 3c
       0.06336705 0.04399924 -0.030738518 0.009638344
0002a0 e4 1e 5c 3c e6 bc 8d bd 5f 17 28 3d f7 8e 00 bd
       0.013435099 -0.06920795 0.041037913 -0.031386342
0002b0 de 42 89 3d 00 69 53 3d 52 fe d4 3c 82 0e 4c bd
       0.06702207 0.051613808 0.026000176 -0.049818523
0002c0 22 6b 71 3d 82 17 cb ba f5 48 8d 3c a2 42 59 bd
       0.05894006 -0.0015494677 0.017246703 -0.05304206
0002d0 bf d1 3a 3d af 83 93 3c c2 e5 f1 3c b7 a2 9b bd
       0.045610186 0.018007128 0.029528502 -0.07599395
0002e0 87 8e 28 3d 82 c7 4a bd 8c e4 14 bd 8b 1e 01 3d
       0.04115155 -0.04950667 -0.03635077 0.03152327
0002f0 0e ae 33 bc 87 3a 1a bd a4 39 98 bd 97 48 7a 3d
       -0.010966791 -0.037653472 -0.07432869 0.061104383
000300 c6 bd 89 3d b0 ea d2 3c 50 16 8e 3b 9e 62 90 3c
       0.067256495 0.025746673 0.004336156 0.01762515
000310 44 4b 81 3d d3 e8 77 3d f0 46 01 3c 83 21 d7 3b
       0.06313184 0.060524773 0.007890448 0.006565274
000320 5e 43 67 3b 5e f0 19 3d dd 2e 04 3d f2 9e a9 bc
       0.0035287957 0.037582748 0.032271255 -0.020705674
000330 2e c6 32 bd 49 5e 3b bd da ba d1 bc 63 9a 3b 3d
       -0.04364603 -0.045744214 -0.025601793 0.04580153
000340 d4 39 2b bc 7a c0 7f 3d c3 ce dc bc 56 57 91 3d
       -0.010450799 0.06243942 -0.02695406 0.07096736
000350 df bf 5b bd c7 7c 61 bd 11 26 82 3d df c0 87 3d
       -0.05364978 -0.055050638 0.06354917 0.06628584
000360 90 83 4e bd f5 68 c5 3c c7 0e ef 3c 97 ca 15 3d
       -0.050418437 0.024097899 0.029181851 0.036570158
000370 3b 73 41 3c 8b 2f 8a 3d 15 2f 96 3d 9b 2d 03 3d
       0.011807258 0.06747349 0.07333199 0.032025915
000380 b9 43 83 bc fe bb 1e bc f1 38 31 3c f8 4b 54 3d
       -0.016023504 -0.0096883755 0.010816799 0.051830262
000390 5f 8c e6 bc fc f0 5d 3c e9 bb c4 ba 39 b3 bf bc
       -0.028143106 0.013546225 -0.0015009615 -0.02340089
0003a0 41 d8 90 bc 53 ca 13 3d 53 67 31 3d ae 06 1e bd
       -0.017681243 0.036081623 0.04331143 -0.03858059
0003b0 99 6f cc 3c d9 01 57 bd ae 03 ff 3c 25 78 90 3c
       0.024955558 -0.052491996 0.031129684 0.017635414
0003c0 50 e9 1b 3d d6 34 93 3d b7 c7 84 3d 78 c2 05 bd
       0.0380643 0.07187812 0.06483405 -0.032656163
0003d0 f6 4c 86 bd 47 7f 16 3d 7d 81 86 3d a2 08 7d 3c
       -0.06557648 0.036742475 0.06567667 0.015443953
0003e0 70 ac 0d bd 90 ea 46 3d 80 c9 a0 bb ba 31 af 3c
       -0.034588277 0.04856354 -0.004906833 0.021386016
0003f0 13 4b ac bc 0c 97 24 bd 0a ee 0f bd 79 33 a4 bc
       -0.021031892 -0.040183112 -0.03513912 -0.020044075

fc3.weight f4 [256, 256]
000000 8b 96 e0 3c 7e 3a 24 bc 1e 95 80 3b 61 b7 2d 3c
       0.027415534 -0.010023711 0.003924026 0.010602803
000010 47 6b 97 3d 08 66 ae 3d e7 09 c1 3c ba 05 04 3d
       0.073935084 0.08515555 0.023564292 0.032232024
000020 c3 32 59 bd a6 31 a6 bc 6f 8f 96 3d aa 38 a7 3b
       -0.053026926 -0.020287346 0.073515765 0.0051031904
000030 29 92 cc 3a bc f4 cf bc 51 88 02 3d d4 78 cf 3c
       0.0015607524 -0.025385253 0.031868283 0.02532617
000040 99 14 8c 3d 60 58 d7 bc fb 2e 2c 3d da 3f 0b bc
       0.06839866 -0.026287258 0.04203699 -0.00849911
000050 6e 3c 56 bb 63 da 5e bd b9 66 03 bc df f9 68 bd
       -0.0032689827 -0.05440749 -0.008020096 -0.05687892
000060 49 fb 3c bd 4e f6 41 bc 21 76 c6 3c 6e 64 26 3d
       -0.04613808 -0.011838509 0.02422625 0.04062312
000070 c6 54 06 3d 30 70 b1 3b 52 eb 6f bc e3 f1 ff bc
       0.03279569 0.005414985 -0.014643507 -0.03124327
000080 b1 18 6b bd 1c 5c 59 3b bc 7f 87 bc b4 47 85 bb
       -0.057396594 0.0033166474 -0.0165404 -0.0040673856
000090 00 e5 51 bd 15 51 9f 3c 6a cb 71 bd 5d 15 26 3d
       -0.051243782 0.019447843 -0.05903188 0.040547717
0000a0 dd 69 a7 bc 00 df cf bb 1b 07 34 3d 10 0a e1 3c
       -0.020436222 -0.0063437223 0.04395209 0.027470618
0000b0 e2 fe 86 3d ac 73 dd 3c 07 a9 4b bc 87 31 7c 3d
       0.06591584 0.027032696 -0.012430436 0.06157067
0000c0 1c a2 87 bc d8 9a 1f 3d d9 46 4b 3d 00 71 a8 3d
       -0.016556792 0.03896603 0.049628112 0.08224678
0000d0 ee d0 bb 3b 14 9d 79 bd 1b 39 80 3d d5 51 67 3d
       0.0057316935 -0.060940817 0.06260892 0.056474525
0000e0 d8 f9 39 bd ad 9c 36 3c be a7 dd bc 57 8f 3d bc
       -0.045404285 0.011145753 -0.027057525 -0.011569819
0000f0 2f d4 71 3c e1 b7 d8 3b d5 6f 2a 3b 82 13 ea 3c
       0.014760061 0.006613717 0.0026006598 0.028573755
000100 78 76 21 3d 1d 88 3e 3d 83 e5 2c 3b 54 b5 d2 bd
       0.03941962 0.046516526 0.0026381917 -0.10288492
000110 06 6f ac 3c f3 c6 f9 3c c6 66 12 bb b5 c7 24 bd
       0.021049034 0.030490374 -0.002233909 -0.040229518
000120 5b 6f 60 bc 27 ca f3 3b 66 e4 86 3d 0e 3a 66 bd
       -0.013698424 0.00743987 0.06586532 -0.05620771
000130 5c b9 6a bb 76 4d 81 bd 6a 87 2d 3c 10 04 4f 3d
       -0.003581605 -0.063136026 0.010591367 0.050540984
000140 44 90 27 3c 07 30 5f 3c ae d0 05 bd 52 56 6e 3c
       0.010227267 0.01362229 -0.032669716 0.014546948
000150 45 4c 30 bd 1f 47 29 3d a2 bd 91 bd 85 fc be 3d
       -0.043041486 0.041327592 -0.07116248 0.09325508
000160 36 f5 37 3c 47 e2 51 3d 31 7e 38 bd be 16 3d 3d
       0.011227896 0.051241186 -0.04504222 0.046164267
000170 aa 6f 3d 3d 83 ba 08 bd 29 5f ac 3c b4 4d 6e 3d
       0.04624907 -0.033380996 0.02104147 0.058179572
000180 49 10 ad bc 13 d5 44 3b c8 e7 71 bd 95 5e 8d bd
       -0.02112593 0.0030034229 -0.059058934 -0.06902806
000190 a9 38 1d 3d 4c 7e 6e 3d d9 ff bb 39 4d c8 49 3d
       0.038384113 0.058225915 0.0003585804 0.049263287
0001a0 f7 d6 1d bb 92 45 92 3c 81 df 07 3d a3 7c 10 3c
       -0.0024084428 0.01785544 0.033172134 0.008818778
0001b0 ad a5 ad bc 72 d6 63 b7 8d df 2a bc ff 1a 1d 3d
       -0.021197164 -1.3580184e-05 -0.010429275 0.038355824
0001c0 9f 82 c2 3d b2 ff 07 3d 02 e6 5a 3d b3 16 bb 3c
       0.0949757 0.033202834 0.05344201 0.022837972
0001d0 2d f3 b8 bc 55 96 f3 bc f9 ed ed bc 65 dd 82 bd
       -0.022576893 -0.02973477 -0.029044138 -0.06389884
0001e0 8b de 14 3d 36 83 7e bc 9a 81 ff 39 7e 22 12 bd
       0.036345046 -0.015534213 0.0004873395 -0.035677426
0001f0 52 aa 9c 3c e6 a6 da 3c a4 f5 79 3d 9e 63 5f 3d
       0.019124184 0.026690912 0.061025277 0.05453836
000200 c9 7b 27 bd bd 93 b4 3d cd e6 c8 3d c7 7f 19 bd
       -0.040889535 0.08817241 0.09809647 -0.037475374
000210 79 80 2f 3c 2c f0 87 3c 23 7d e2 3b 40 9f fb 3c
       0.010711783 0.016594015 0.00691189 0.030715585
000220 f0 bd 97 3d 43 db eb 3c cd e2 92 bd 8a dc fa bb
       0.074092746 0.028791076 -0.07172165 -0.007655685
000230 7d e0 36 3d c8 a6 99 3c 75 4c 68 3d f3 6a 19 3d
       0.044647682 0.018756285 0.05671354 0.03745551
000240 f9 93 79 3d 20 10 5a bb 98 2c a4 bc 51 46 22 bd
       0.060932133 -0.0033273771 -0.020040795 -0.03961784
000250 de 81 94 3c 56 c7 04 3d 92 44 3d bd 2e 15 3e bd
       0.018128332 0.032416664 -0.046207972 -0.046406917
000260 d6 15 a6 bd 64 5b 26 37 e8 5a ca bc f8 34 e0 bc
       -0.081096336 9.91565e-06 -0.02470155 -0.027369007
000270 37 94 24 3c 1d 59 36 bd b4 04 0d 3d b5 5e 93 ba
       0.010045103 -0.04451858 0.034428313 -0.0011243435
000280 ed 3b 6c bd c0 7e 02 bc 85 db 0e bd 6a 8e 2f bd
       -0.057674337 -0.00796479 -0.03487732 -0.042860426
000290 df fd 10 3d 71 47 a7 3c a4 99 e8 bc 7b 7f 55 3d
       0.03539836 0.020419808 -0.028393574 0.052123528
0002a0 70 28 b9 3d fa a5 41 bd 1e ee 1a bb 35 20 86 3c
       0.09040916 -0.04727743 -0.0023640464 0.01637278
0002b0 f9 db 85 3c a9 f7 3b bd 8d 5d 07 3d 5c b5 61 bd
       0.016340243 -0.045890484 0.0330482 -0.0551046
0002c0 5d ce cf bc 2f e7 88 bd 2b c7 5c 3d 60 3a c1 bc
       -0.025366956 -0.0668472 0.05390088 -0.023587406
0002d0 67 d6 73 3d 90 a5 75 bd 9d d7 49 3d 3b 63 f8 bb
       0.059530642 -0.059972346 0.04927789 -0.0075801886
0002e0 20 6e 8a 3d b4 32 0a 3d c4 46 6f bd 03 e0 f3 3c
       0.06759286 0.03373976 -0.058417097 0.029769903
0002f0 d0 29 39 3c 17 4b a1 3b 31 f3 90 3c a3 a7 c6 bc
       0.011301473 0.0049222815 0.017694088 -0.024249857
000300 52 fb fd 3c d5 ac 75 3d ce f9 58 bd 4a 49 29 3d
       0.031003628 0.05997928 -0.052972607 0.04132966
000310 8c 50 1e bd 2c 58 73 3d a9 01 72 bc 50 08 32 bd
       -0.038651034 0.05941026 -0.014770904 -0.04346496
000320 77 7c a8 3c e3 c8 6b 3c 7c 78 b0 3c 2c f6 da 3c
       0.020567162 0.014391157 0.021541826 0.026728712
000330 66 f2 30 3d 74 2d db bd ad 1c 1d 3d a0 a4 63 3d
       0.04319992 -0.10702029 0.038357425 0.05557692
000340 e4 fb 0d 3d ad 57 90 3d 41 41 7d 3c cb 24 9a bd
       0.03466405 0.07047973 0.015457452 -0.07526549
000350 26 f0 8d bb 3b 73 1e bd df 59 84 3c 19 c2 d8 ba
       -0.0043316064 -0.03868411 0.016156135 -0.0016537338
000360 89 4d 1c 3c 08 fe 44 3d 9b aa f6 bc 52 7a 4d 3d
       0.00953997 0.048093826 -0.030110648 0.050165482
000370 f0 f0 8d bd 5b 5f 1a 3d 8d 1e 05 bc 88 fe e8 bc
       -0.06930721 0.037688594 -0.00812496 -0.028441682
000380 5f 14 d6 bb 27 b8 62 3d dc 93 ad bd 3e a8 0f bc
       -0.00653319 0.055351403 -0.084754676 -0.008768139
000390 d8 b2 8c 3d 4e 9b b8 bd e2 5b 44 3d ab 6a 31 3d
       0.06870049 -0.09013997 0.04793919 0.043314617
0003a0 a1 cc fd bc 16 b4 b9 bd f4 04 91 3d 43 18 40 bd
       -0.030981364 -0.09067552 0.07081023 -0.046898138
0003b0 55 cc 2f bd c0 41 40 3d bc b7 0d bd b5 b9 4c 3d
       -0.042919476 0.046937704 -0.03459905 0.04998179
0003c0 57 ca d2 3b a8 4c d7 3c ed c8 30 3d c7 fd 3d bd
       0.006432812 0.02628167 0.043160368 -0.0463846
0003d0 8f b1 4c 3d a6 13 15 3c e9 3e ac 3b 8c 0c 44 3d
       0.04997402 0.009098923 0.005256523 0.047863528
0003e0 91 19 84 bc a8 c0 b1 3c 26 23 98 3c 10 ac 22 3d
       -0.016125472 0.021698311 0.018571448 0.039714873
0003f0 de a4 2d 3d a9 61 6d bb ab 6e 04 3d eb 52 f5 3c
       0.042393558 -0.003622154 0.032332104 0.029946765

fc3.bias f4 [256]
000000 2c ce 26 bb 7c 2a a9 3c c8 ce 3a 3d 99 46 1d bb
       -0.0025452478 0.020650141 0.04560736 -0.0023998378
000010 e6 5b 1b bd f5 46 81 3d 29 5b 55 3d 80 2d b9 3c
       -0.037929438 0.06312362 0.05208889 0.022604704
000020 60 e5 f9 3c b0 a9 44 3d ea a8 2e 3c a4 a0 39 bc
       0.030504882 0.04801339 0.010660389 -0.011329804
000030 6e fc 7a 3c 52 1c 82 3d cd e2 01 bc 54 e3 5b 3c
       0.015318973 0.06353058 -0.007927609 0.0134208985
000040 60 a9 5e bd 61 3b 5d 3c 41 6d 10 bd bf 03 88 bd
       -0.054360747 0.013502927 -0.035260443 -0.066413395
000050 29 af 16 3c ac 08 78 3d 7c 7c 2f 3d 35 8a 1d bb
       0.009197035 0.060555145 0.042843327 -0.0024038677
000060 92 2b df bc 88 9f 13 3d 7d 7b 5a bb ad 3f 20 bd
       -0.027242456 0.036040813 -0.0033337765 -0.039123226
000070 d0 c1 53 3d 13 a8 f6 bc f6 75 5e 3d 39 36 35 bd
       0.051698506 -0.03010944 0.054311715 -0.044241164
000080 7e 3b 86 3d ce 54 4c 3d e2 63 cc 3c 4a c0 2a 3c
       0.06554316 0.049885564 0.024949972 0.010421822
000090 eb fb 9b 3c f9 83 b7 3c fb d1 92 3d 5b e9 e0 3b
       0.019041022 0.022401797 0.07168957 0.0068637556
0000a0 56 28 f6 bb 55 7a 3f bd cd c9 7f 3d cb 78 13 bd
       -0.0075121326 -0.046747524 0.06244831 -0.03600387
0000b0 0d 0d 3a bd 44 22 43 3d b5 7f 82 bd 56 7a d1 bc
       -0.045422602 0.0476401 -0.063720144 -0.02557103
0000c0 57 92 3e bd 55 05 fa 3b 0a 7c 70 bc 21 e6 fc bc
       -0.04652628 0.00763003 -0.014678011 -0.030871453
0000d0 9c 18 53 bd da d4 9e 3b ec 1e 3c 3d bf 91 74 bd
       -0.05153714 0.004847151 0.045927927 -0.059709307
0000e0 8b 36 32 bc 01 b3 91 3d 9e 85 cd 3c de f8 85 bd
       -0.010877262 0.071142204 0.025088128 -0.06541608
0000f0 7b cd b8 bc fb fc 2c 3d 1b a0 8f bd 28 36 8a bb
       -0.022558918 0.04223345 -0.070129596 -0.0042178817
000100 d1 19 2e bd 1d 33 cb 3c 45 d7 23 3d ff 5c ca ba
       -0.04250509 0.024804646 0.04000022 -0.0015439092
000110 df e0 15 bd 29 b0 29 3b a0 c7 c2 bc 6a bf 27 bd
       -0.036591407 0.0025892353 -0.02377683 -0.04095403
000120 18 b0 bc 3c 66 85 8e 3c 86 62 41 3d d7 8e 02 bc
       0.023033187 0.017397594 0.0472131 -0.007968626
000130 59 9a 59 39 80 c7 09 3d a4 d6 97 bc de 51 14 bd
       0.00020752232 0.033637524 -0.018534966 -0.036210887
000140 5e 5d 89 3d 53 a3 59 3d 5c ef 90 3d 90 f8 4f bc
       0.067072615 0.053134274 0.07076904 -0.012693539
000150 b0 7b ce bb f7 1c 1a bd 59 37 9c bb c6 56 38 bd
       -0.006301366 -0.03762528 -0.00476734 -0.04500463
000160 8e f5 de bc e2 ca 3f bd 5c 95 f1 3b cd 45 96 3c
       -0.027216699 -0.046824344 0.0073725414 0.01834383
000170 01 f3 8c bd 4c ba 82 bc fa b3 b7 3c 11 92 66 bd
       -0.06882287 -0.015957974 0.022424687 -0.056291644
000180 ec 65 0c 3d 2e ca df bc 42 55 58 bd bf 47 2f bd
       0.034276888 -0.027318086 -0.052815683 -0.04279303
000190 9c 9f 5b bd 6f 7c 87 bc 52 ce a8 bc c1 11 0c 3d
       -0.053619012 -0.016538827 -0.020606194 0.03419662
0001a0 54 f7 cf bc 10 6b a9 3c 78 9a b5 bc fc 39 e4 3b
       -0.02538649 0.020680934 -0.022168383 0.00696492
0001b0 74 c8 c8 bc af 20 0e bd fc 32 63 bc 09 03 55 3d
       -0.024509646 -0.03469914 -0.013867136 0.052004848
0001c0 63 49 cd bb 93 9d 26 3d 85 c1 1e 3c 0e 84 10 bc
       -0.006264852 0.04067762 0.009689693 -0.008820547
0001d0 8f e1 7e 3d 12 db a4 bc 0f 49 03 bd 12 f0 3f 3c
       0.06222683 -0.020123992 -0.032052096 0.011714952
0001e0 c7 e8 5f bd 55 38 27 bd 4a 5a 47 bd 25 60 44 bd
       -0.054665353 -0.040825207 -0.04867009 -0.047943253
0001f0 34 fb 76 bd c8 b7 4a bb 51 cc ed bc 42 da cf 3c
       -0.06029816 -0.0030932296 -0.02902809 0.025372628
000200 0e af 41 bc ba 64 ac 3b 80 c4 7c bd b4 0a 82 bd
       -0.011821521 0.005261031 -0.061710835 -0.06349698
000210 42 ba 10 bd ad b4 56 3d 3d 2d c6 3b c1 8b 84 bd
       -0.03533388 0.0524184 0.0060478733 -0.064719684
000220 1e 40 23 3d dd 9c 21 bc 29 6a 1d bd 5a c5 6a 3c
       0.03985607 -0.009864059 -0.03843132 0.014329279
000230 49 7d 2f bd 26 bd 1e bc 61 dd f8 bc f2 44 10 3d
       -0.04284409 -0.009688651 -0.030379 0.035222
000240 7e 56 98 bd 1d da 77 bc 48 fd a1 3d 9b 19 62 bd
       -0.07438372 -0.015127686 0.07909638 -0.0552002
000250 2a 0d 33 3d f2 63 68 bd 72 62 de bc dd 95 ec 3c
       0.043713726 -0.05673594 -0.027146552 0.028880054
000260 24 46 76 3d 6c 9f 56 3b ee 56 d4 3b 6a 44 54 bc
       0.060125485 0.0032748831 0.0064800894 -0.012955764
000270 04 f1 db 3c 1f bd 4b 3d fe 8f eb 3c 2d 4f c0 3b
       0.026848324 0.049740907 0.028755184 0.0058688135
000280 92 99 f4 3c 49 04 03 bd f5 69 44 bd e2 bb 37 3c
       0.029858384 -0.03198651 -0.04795261 0.011214228
000290 a3 f7 9a bc bf 3a af 3c 5d 08 48 3d 34 fb 4d bd
       -0.01891691 0.021390317 0.0488361 -0.050288394
0002a0 cf 87 ef bb a0 fa 33 3d 9d d4 a0 bc ce bf 49 bd
       -0.007309891 0.043940187 -0.019632632 -0.049255185
0002b0 9a 1b 01 bd e9 ce 36 bd dc 85 a0 bd 82 e8 23 3d
       -0.031520464 -0.04463092 -0.07838032 0.04001666
0002c0 b8 10 6f 3d 83 11 12 3d ef b0 70 3d 38 f2 58 bd
       0.058365554 0.03566123 0.058762487 -0.052965373
0002d0 cd a2 9e bd 14 89 23 bd ce 92 e6 3c b3 ab 04 3d
       -0.077458955 -0.03992565 0.028146174 0.032390308
0002e0 6a 54 91 bc 99 4a 2b 3d 56 5a c0 bc 1a 40 cc 3c
       -0.017740447 0.04181919 -0.023480576 0.02493291
0002f0 3c 5e 49 3d 5d 0e c7 3c de c9 6f bd f4 f2 a7 3d
       0.049162135 0.024298841 -0.058542125 0.082006365
000300 d7 d6 1d bd 31 ae 08 3b d0 56 80 3d 27 3a 6e bd
       -0.038534965 0.002085578 0.06266558 -0.058160927
000310 5e 64 52 bd 89 51 5a bd d9 f4 27 bd d6 6b e5 bc
       -0.05136525 -0.053300414 -0.04100499 -0.028005522
000320 99 59 1d bd 24 58 94 bb f0 ab 7d 3d 3f 46 56 bd
       -0.038415525 -0.0045271087 0.06193155 -0.052313086
000330 52 65 73 3d ed 3e 32 bd 09 81 58 3d 3c ab fc bb
       0.0594228 -0.043517042 0.052857433 -0.0077108424
000340 42 8d 9e 3c 9c 0c 41 3c ed 85 54 3d c8 42 32 3d
       0.019354466 0.011782791 0.051885534 0.04352072
000350 b1 0c c9 3c 09 9f 04 3d 58 57 d6 ba 72 8c 65 bd
       0.024542185 0.03237823 -0.0016352935 -0.056042142
000360 18 0f 62 bd 97 8d 47 3b ac f6 1a 3d e4 6a 0c bc
       -0.055190176 0.0030449384 0.0378329 -0.008570407
000370 a3 1a 8c bc 21 3a 7d bd b0 1b 3d bd d4 7e 24 3d
       -0.017102545 -0.061823014 -0.046168983 0.040160015
000380 7c 25 95 bd 06 71 40 bc fd d3 5d 3d 5d 29 34 bd
       -0.0728254 -0.011745697 0.054157246 -0.04398476
000390 76 84 0d bd c5 26 4b 3d 64 78 5f 3c 67 ca 75 3d
       -0.034550153 0.04959752 0.013639543 0.06000748
0003a0 ce 41 46 3d 56 30 8a 3c 9b 83 e8 ba 78 7e fa 3c
       0.0484026 0.016868751 -0.0017739417 0.030577883
0003b0 34 6f 0f 3d 07 19 53 bd 95 a6 bd 3c c2 2c 0b bd
       0.03501816 -0.05153754 0.023150722 -0.03397823
0003c0 06 f6 d5 bc 90 b3 f3 3c 76 0e 72 bb 26 51 60 bd
       -0.02611829 0.029748708 -0.003693489 -0.05476489
0003d0 3f d1 c5 bc 59 93 69 3c b6 80 1a 3d 4b f1 25 3b
       -0.024147628 0.014256322 0.037720405 0.0025320824
0003e0 07 06 12 3d 2a eb a6 bc 07 b0 29 bd ad 34 2b bd
       0.03565028 -0.020375807 -0.04142764 -0.041798282
0003f0 b3 78 d9 bc 4e ed 08 3d ba 29 54 bd bf d6 dd bc
       -0.026546812 0.033429436 -0.051797606 -0.027079938

fc4.weight f4 [2, 256]
000000 20 e5 05 bc ba 83 92 bd f5 94 3a 3d f6 53 13 be
       -0.008172303 -0.07154031 0.045552213 -0.14387497
000010 60 c9 2d 3c e5 72 35 bc dc 3c 93 3b 62 db 11 bd
       0.010607094 -0.011074756 0.004493339 -0.03560961
000020 3e b6 33 bb 6e 67 19 bc 3f 30 2c 3d 0e 95 07 3c
       -0.0027421857 -0.009363038 0.0420382 0.0082752835
000030 0d 10 0a 3d 64 cf f7 3c 15 e8 37 3c de 91 21 3d
       0.033706713 0.030250259 0.011224766 0.03944575
000040 b4 62 d3 3c f9 23 48 3b d3 89 09 3d b2 43 08 3d
       0.025803901 0.003053902 0.033578705 0.033267684
000050 f0 f5 bf bb 6a aa 9e bc 3c 79 07 bd 3f d6 9f 3c
       -0.0058581755 -0.01936837 -0.033074602 0.01951134
000060 79 b4 8d bd 89 9b e6 3b 4f 2e 4f 3d 48 3d a0 3c
       -0.06919188 0.007037584 0.050581273 0.019560471
000070 d6 a1 84 bb 87 11 16 3d e8 a6 a3 bd d6 84 5a 3c
       -0.0040476127 0.03663781 -0.07990819 0.013337335
000080 1a 9a b2 bc 5d 21 32 bd fb e8 77 3c 22 92 6c bd
       -0.021801997 -0.04348885 0.0151312305 -0.05775655
000090 42 14 04 bc 49 09 19 3c 3e 67 29 bc 70 50 86 bd
       -0.00806147 0.009340593 -0.010339556 -0.06558311
0000a0 07 e9 16 bd 42 5b 2a bd 37 44 0f be 98 43 62 3d
       -0.036843326 -0.041590936 -0.13990866 0.055240244
0000b0 61 42 b8 bc 63 75 22 3d f7 8e 45 3c 7c df 8a 3c
       -0.02249259 0.03966273 0.012058011 0.016952269
0000c0 a1 0c 6a bc 5b 85 5d bd cf 78 ea bd 72 2e 93 bd
       -0.0142852375 -0.054082256 -0.11448824 -0.07186593
0000d0 88 0a e0 3c 12 45 6f bd a2 47 73 3d a7 17 44 3b
       0.027348772 -0.05841548 0.059394486 0.0029921324
0000e0 14 62 a6 bd 3b 63 2a bd be 90 a6 bc 86 9f 48 3d
       -0.08124176 -0.04159854 -0.02033269 0.04898026
0000f0 f3 f8 f4 bc 89 2c 47 bc f5 54 1b 3d 98 6c 4f 3c
       -0.029903864 -0.012156614 0.03792282 0.012660168
000100 94 8c ab ba 4d 1b 98 3c 75 2f b1 bd ce 3a e4 bc
       -0.001308816 0.018567706 -0.0865163 -0.027860072
000110 e1 71 68 bd 29 2a d4 ba 8c 5c d7 3c a6 84 f5 bc
       -0.05674923 -0.0016186881 0.026289247 -0.029970478
000120 91 ec ad 3c 83 40 91 3d 81 fa ad 3b 2b 83 b4 bc
       0.021230968 0.07092383 0.0053094034 -0.022035202
000130 e5 1a 01 3d ad ea 1a 3c aa 75 40 3d 4c e3 86 3c
       0.03151979 0.009455365 0.046987213 0.016465805
000140 ba 1b 23 bd bc b8 f6 3c a3 d1 97 bd 5a ef 0e bd
       -0.039821364 0.030117385 -0.07413032 -0.034896232
000150 2b 6b 93 3a 50 97 81 3d ce ac eb bc 3b e0 07 bd
       0.0011247149 0.06327689 -0.028768923 -0.033172827
000160 5c e4 b3 bc 11 7f 75 bd 69 47 44 3c 07 63 6e bc
       -0.021959476 -0.059935633 0.011979916 -0.014549977
000170 c6 68 28 3d 38 eb 3d bc 80 2d 96 3c 8d f4 ed bc
       0.041115545 -0.011591725 0.018332243 -0.029047275
000180 76 a6 e1 3c 84 85 96 3c 64 28 49 3c ab 79 cf 3c
       0.027545195 0.018374212 0.012277696 0.02532657
000190 78 5c bb bc 38 5d e5 3c a4 54 f2 3b 4b 43 29 bd
       -0.022871241 0.027998552 0.007395344 -0.04132394
0001a0 b0 50 02 3d 57 9f 03 bd 6c ff 2a be 40 19 31 3b
       0.03181523 -0.03213438 -0.16698998 0.0027023107
0001b0 96 ca 43 bd 52 ab 1c bc e6 83 c5 bd 43 46 46 3d
       -0.047800623 -0.00956233 -0.09644298 0.04840685
0001c0 ca 3e 37 3d b7 f3 b9 bd 08 60 01 3d 1e 16 6b bd
       0.044737615 -0.09079688 0.031585723 -0.05739414
0001d0 62 f3 40 3c 22 46 2a 3d 53 15 40 3b 20 04 20 3c
       0.011776777 0.04157079 0.0029309585 0.0097666085
0001e0 26 c5 e1 3c 07 9d 56 bc 66 55 59 3d 78 25 f1 3c
       0.027559828 -0.013098962 0.053059958 0.029436812
0001f0 09 03 86 bc 0c 8e 2e 3d 73 2e 50 bd 58 36 ac bc
       -0.01635887 0.042615935 -0.050825547 -0.021022007
000200 2d 13 cf 3b a2 2b 73 bb e0 d2 84 3c 45 1d 36 3d
       0.0063194246 -0.0037104865 0.016213834 0.044461507
000210 cf 18 aa 3b a1 c1 3a 3d 72 4d 52 bd d4 24 0c 3d
       0.0051909457 0.045594815 -0.05134339 0.03421481
000220 c4 2d 2c 3d b2 dc 07 3d 28 8c 5e 3d 4d 72 2f 3d
       0.042035833 0.033169456 0.054332882 0.042833615
000230 91 e0 0e 3d 4d cd a7 3c 73 13 0e bd 31 0b 7e bd
       0.034882132 0.020483637 -0.034686517 -0.06202239
000240 cf 6d 8e bc 11 fa 6d bc ce 39 4a bd 98 0f 79 bb
       -0.017386345 -0.0145249525 -0.049371533 -0.003800368
000250 0c 30 9e bc 00 fa a0 bd f0 bf 64 3d 02 99 b5 bd
       -0.01931002 -0.07860184 0.05584711 -0.088670745
000260 b3 9f 97 bd d2 65 f5 3c c8 0b e7 bc 3d d4 75 bd
       -0.07403507 0.029955778 -0.02820386 -0.06001686
000270 4c 83 68 3b 44 2b 48 bd 3e 72 71 bc af 00 ca 3c
       0.003547865 -0.048869386 -0.01473671 0.02465853
000280 26 17 25 3d 22 92 12 bd 29 c9 5b 3c da 20 8b 3b
       0.04030528 -0.035783894 0.01341466 0.0042458596
000290 7b fc 8b 39 31 48 11 3d 06 c3 f2 3b b9 58 e9 3b
       0.0002670026 0.035469238 0.0074085025 0.0071211723
0002a0 68 58 16 3d 6f 7b 87 bc ad 5a 83 3c 9b 46 48 3d
       0.036705405 -0.01653835 0.016034449 0.04889546
0002b0 29 3b 03 bb f3 6a 0c 3d 54 d1 af 3c 5a a5 a2 3c
       -0.0020024276 0.034281682 0.02146212 0.019854236
0002c0 5a 06 af bb 18 3a 87 3c cb 64 a9 bd 4e 1c 06 3d
       -0.0053413333 0.016507193 -0.08271178 0.032741837
0002d0 f6 9e 35 3d f6 4d b3 3c 76 03 b8 3c 42 00 ca 3c
       0.04434105 0.02188776 0.022462588 0.024658326
0002e0 cf a8 bb bc e3 63 ef bc 58 9d a2 3c 27 a3 88 3c
       -0.022907643 -0.029222434 0.019850418 0.01667936
0002f0 83 0a 2e 3d b3 15 dd 3c 27 44 0b bd a4 fd 61 bd
       0.042490494 0.026987886 -0.034000542 -0.05517353
000300 16 1b d0 3c c1 51 9c bd 6a 71 0c be 43 d4 94 3c
       0.02540354 -0.07632781 -0.13715139 0.01816762
000310 85 c7 30 bd fa 36 12 3b 0a 54 20 bd 04 cf 51 3d
       -0.043159027 0.00223106 -0.039142646 0.051222816
000320 63 d6 d7 bd c0 76 de bc 59 48 be 3a c9 da be bb
       -0.10538938 -0.027156234 0.0014517411 -0.005824421
000330 58 19 d5 bc 07 3e 3a 3d c8 c7 31 bd ca 15 49 be
       -0.026013061 0.04546931 -0.043403417 -0.19637218
000340 64 88 70 bc 20 48 0f bd c5 74 0f 3b 66 a2 15 3a
       -0.014680956 -0.034980893 0.0021889668 0.0005708098
000350 20 51 d2 bd 3d 7f bd bd d3 85 f9 3b c1 40 f2 3c
       -0.102693796 -0.092527844 0.00761483 0.029571893
000360 a5 af 3e 3a 1c 31 54 bb 28 68 29 bd ba 27 48 3c
       0.0007274098 -0.0032377904 -0.041359097 0.012216503
000370 0c 37 a4 3c 31 03 60 bb 97 6b 41 3d 7b a9 48 3d
       0.02004578 -0.003418159 0.047221746 0.048989754
000380 6d 6f 0a 3d 35 b3 2c be 09 a3 c0 3c 18 9a 3b bb
       0.03379767 -0.16865237 0.023515241 -0.0028625783
000390 92 05 80 bb 4a 2d 2a 3c bd bf 95 bd 6a 24 48 bd
       -0.003906914 0.010386774 -0.07311962 -0.048862852
0003a0 7e 7d 4c bb f5 63 ef bb 75 10 fd 3a 57 e2 c1 bd
       -0.003120273 -0.007305617 0.0019307273 -0.09466999
0003b0 28 0d 60 bd db 45 63 3b af 92 d8 3c d0 cc 4f 3c
       -0.054700047 0.0034679088 0.026437132 0.012683108
0003c0 96 a1 fd 3a c9 2d 86 be 15 20 17 bd 91 06 c6 bc
       0.0019350525 -0.26206806 -0.03689583 -0.024173053
0003d0 3b 28 5c 3c a1 6c e3 bc 0a dd c0 3c 90 94 85 3c
       0.013437326 -0.02776176 0.0235429 0.016306192
0003e0 48 94 2d 3d e6 a8 0d 3c 29 c2 3a bd 94 ed eb 3c
       0.04237774 0.008646226 -0.04559532 0.02879981
0003f0 9b f9 2b 3d d8 b9 d4 bd 4f 56 97 bc e7 52 38 3d
       0.04198609 -0.103870094 -0.018473772 0.045000937

fc4.bias f4 [2]
000000 bf c3 42 bd a3 79 c5 3b
       -0.04754996 0.006026463
