wn_snn.pth (torch, 577202 bytes, 8 tensors)

fc1.weight f4 [256, 40]
000000 83 df 44 3e af 6c bf bb cf ad 25 3e 0d 53 35 bb
       0.19225888 -0.0058418135 0.16179584 -0.002766791
000010 e6 35 22 3c b0 7b 11 3e 02 28 b8 3d 2b fd 3f 3b
       0.009900546 0.1420734 0.08992006 0.0029295187
000020 4a 2b f5 3c e0 65 39 3e 33 88 fb bc 25 35 10 3d
       0.029927868 0.18105268 -0.030704593 0.035206933
000030 ba 04 4e 3e 83 f5 80 bd 86 19 d7 bc 56 6f 17 3e
       0.2011899 -0.06296828 -0.026257288 0.14788565
000040 bd 2e 9c bd 34 c1 42 bd b9 b3 ba 3d 9f 1e 4c bd
       -0.07626102 -0.047547534 0.091163106 -0.04983389
000050 37 65 89 bd f9 d3 0e 3e 22 e6 07 be 5d 15 f0 3b
       -0.06708758 0.13948049 -0.13271382 0.0073267655
000060 13 e2 99 3d e8 3a 09 3e c8 36 13 3e e4 0e db 3d
       0.07513823 0.13401377 0.14376366 0.106961995
000070 43 f6 39 3e 8f 6e b2 3d b7 f6 5f bd f4 6d 17 be
       0.18160348 0.08712494 -0.054678645 -0.14788038
000080 30 ef 49 3d bf c9 84 3d ef fa b3 bc 6e c3 1c be
       0.049300373 0.064837925 -0.02197024 -0.15308926
000090 3d 12 71 3d 68 5e 33 3d 21 36 8a bd f1 35 c0 bd
       0.058855284 0.043791205 -0.067486055 -0.093852885
0000a0 bf 4c af 3d be 7b 03 be fd c4 a0 3d eb 0a 75 3d
       0.0855956 -0.12840173 0.078500725 0.059824865
0000b0 fe ac 0f 3e 5c 5b a1 3d b4 fc 4f bd 09 46 08 3b
       0.14030835 0.078787535 -0.050778106 0.0020793697
0000c0 4b 36 8a bd d9 0a 02 be 45 aa 67 3d 0d 17 02 be
       -0.06748637 -0.1269945 0.056558866 -0.12704106
0000d0 d1 f5 e4 3d 30 87 10 be 9b 18 93 bd ea e1 b0 3c
       0.11179698 -0.1411407 -0.071824275 0.0215921
0000e0 b7 09 ab bd 53 6e 2d 3e d3 40 26 3c ba d9 9e bd
       -0.08351462 0.16936617 0.010147291 -0.07756372
0000f0 2c bb d9 3d 97 a9 5c 3e de a4 3f bd be 4c b8 3c
       0.10631403 0.21549068 -0.04678809 0.022497531
000100 09 87 57 3d a1 2a 8b bd 14 67 0f 3c d6 e9 d6 3d
       0.052619014 -0.0679524 0.008752603 0.104938194
000110 ee 31 7c bd 12 52 ad bd 68 8c 40 be d2 2a 8a 3d
       -0.061571054 -0.08462919 -0.1880356 0.067464486
000120 3a cd 18 3e 4b c3 00 3e cb c6 a1 3d 4e e6 a6 bd
       0.14922038 0.12574498 0.07899245 -0.08149396
000130 9a b7 e4 bd 84 97 d5 3d e0 5d 2b 3e 57 17 8d bd
       -0.11167832 0.1042929 0.16735029 -0.06889217
000140 0b 90 e3 bd c9 8b f0 bd 3e 0d 3e be 47 ac 78 bd
       -0.111114584 -0.11745412 -0.18559739 -0.06071117
000150 f4 a9 4a bd 94 46 06 3e 41 00 6f 3d 6c 7d 89 bd
       -0.049478486 0.13112861 0.05834985 -0.067133754
000160 e8 ed 84 3d 63 48 2b bc f3 f8 c9 bd a3 21 0d 3d
       0.064906895 -0.01045427 -0.098619364 0.034455907
000170 9d 5b f7 bd 5f 7f 94 bd 7f 57 e8 3d 9e 6d 26 3e
       -0.12078021 -0.072508566 0.113448136 0.16252753
000180 44 67 6b bc a0 23 79 3c c2 4e 9f bc 26 e2 67 be
       -0.014367882 0.015206248 -0.019446734 -0.22644863
000190 1e 64 53 3c 0e 6d bc bc 6e f6 09 be ac 72 25 3e
       0.012902288 -0.02300122 -0.13472912 0.16157025
0001a0 24 f1 e7 3d 2e 05 f1 bd 73 01 9e bb dd 59 1b 3d
       0.11325291 -0.11768566 -0.00482195 0.037927497
0001b0 ad 85 20 3d 8f ef 16 bd 00 d3 22 3d 38 0f 8d bc
       0.039189983 -0.036849555 0.039752007 -0.01721917
0001c0 d5 2f 25 3e 9e 25 aa bd 25 d5 d4 bd 0a d2 3f 3c
       0.16131528 -0.08307956 -0.103922166 0.011707792
0001d0 1a f3 d1 bc ef ff 11 be bf 61 02 be e8 2a e5 bd
       -0.025628615 -0.14257787 -0.127326 -0.11189824
0001e0 79 40 fb 3d 36 c0 d0 3d 6d 46 41 3e db 03 e1 3d
       0.122681566 0.10192911 0.18874522 0.109870635
0001f0 9f cf 8f 3b 44 28 a7 3d 1e 4c 0c bd 7d 7c d0 bd
       0.004388764 0.08161977 -0.03425228 -0.10179994
000200 3a ec 83 bd c5 87 e2 3d ac af 4f 3d c3 b3 8b 3c
       -0.06441541 0.11061052 0.050704643 0.01705349
000210 f3 ff 40 bd 02 0c 1d be d1 50 85 bd e1 9e a1 bd
       -0.047119092 -0.15336612 -0.06509555 -0.07891632
000220 ff a0 fe bd b8 1a 0a bd 64 46 dc bd fb 94 c0 bd
       -0.12433051 -0.033716887 -0.107556134 -0.09403416
000230 dc 3a c2 bc 26 59 81 bd 8f b3 cb bd a3 7c 41 3d
       -0.023709707 -0.06315832 -0.099463575 0.047238003
000240 b0 30 5d 3c b2 ef 21 3d bf 48 86 bc d9 99 15 bd
       0.013500378 0.039535232 -0.01639211 -0.036523674
000250 d4 b6 1a bd 03 c7 d1 3d d1 da 12 3e ed 39 d1 bd
       -0.037772015 0.102430366 0.14341284 -0.102161266
000260 07 04 23 bc 72 ff 2c 3e bc 7e 81 bd 3d c0 8d bc
       -0.009949691 0.1689432 -0.06323001 -0.01730358
000270 ce 6a 46 bd ad 1f 28 3d ed a9 4c bd 40 b7 b6 3d
       -0.0484417 0.041045833 -0.04996674 0.08921671
000280 14 ba ff bc f4 62 10 3e be 5a 9b 3d 6b 16 0b bd
       -0.031216659 0.14100248 0.07585667 -0.033956926
000290 c3 0d 2f bd 78 fb 10 3e 46 0d 80 bd ba dd 82 bd
       -0.042737734 0.14158428 -0.06252532 -0.06389947
0002a0 4a 2c 46 bd 71 c1 b4 bb 5d 56 19 3e 1d be 27 bd
       -0.04838208 -0.005516224 0.14974351 -0.04095279
0002b0 14 f3 4c 3e 03 94 6f 3d 93 9b 0b bd 00 d6 00 3e
       0.20014602 0.058490764 -0.034083914 0.12581635
0002c0 53 38 30 3e 7a 7e ca 3d d7 84 cc 3c ba fe ed 3d
       0.17208986 0.09887405 0.024965687 0.11620851
0002d0 33 07 57 3d fc 7c d7 bd b4 1c 56 bd f7 d1 e2 3d
       0.0524971 -0.10521886 -0.052273467 0.11075204
0002e0 02 11 92 bd b7 80 49 bc f5 71 a9 3d 7e a6 42 bd
       -0.0713215 -0.012298754 0.08273689 -0.04752206
0002f0 b4 f5 ea bd d4 1c 15 3e 9e 1b dc bd 0d 2c 25 bc
       -0.114726454 0.14561778 -0.10747455 -0.010081303
000300 c1 c2 1e be d5 f9 df bd f8 5c cc bd 16 99 94 3d
       -0.1550398 -0.109363236 -0.0997867 0.07255761
000310 3a e6 a8 bd 01 e2 5d 3d 37 eb 83 bd f0 6c e9 bc
       -0.08247037 0.054170612 -0.06441348 -0.028494328
000320 67 a7 2e 3e da 84 9e 3d 7d ba 47 3d 1b 77 ca 3d
       0.17056046 0.07740183 0.048761833 0.09885999
000330 05 81 a5 bc c2 40 05 3e c6 0f b0 3c 48 8d 37 3e
       -0.020203123 0.13012984 0.021491896 0.17924988
000340 1f ee 7a bd b9 eb 33 bd ec e9 e8 3d 9c 9b 08 bd
       -0.061262246 -0.043925975 0.11372742 -0.033351526
000350 2c 03 c9 3d e7 05 2e 3e 03 7f a0 3d 4a 83 1e bd
       0.09815058 0.16994439 0.078367256 -0.038699426
000360 e3 cd 49 bd 21 80 b4 3d 62 b1 e8 3c f3 3a e0 bd
       -0.049268615 0.08813501 0.028404895 -0.10948744
000370 bd fb 99 bd e6 2b 45 bc 11 8c 41 be 4c a6 b3 bd
       -0.075187184 -0.012034392 -0.18901087 -0.08771953
000380 24 95 b9 be 8c ab 46 bd f1 d6 5f 3b c7 5c a8 3d
       -0.36246598 -0.048503444 0.0034155215 0.08220821
000390 b5 2c 76 be fe 7d 61 be 0e 80 e7 bc 3f 76 69 be
       -0.24040492 -0.22020718 -0.028259303 -0.22799014
0003a0 22 c0 c7 bd 1e 0c 2d bd 09 5e 37 be 6a 16 10 be
       -0.09753443 -0.042247884 -0.17906965 -0.1407105
0003b0 3e 7b d5 bd 2c 6c 62 bd 74 c6 0b be e9 dd b0 be
       -0.10423897 -0.055278942 -0.13649923 -0.34544304
0003c0 00 c9 45 bc a1 07 11 be bf d3 5c 3d 76 79 20 be
       -0.012071848 -0.14163066 0.053912874 -0.15671334
0003d0 73 e3 5c bd 18 b5 e1 3d 36 3c 3f bd 85 71 fd 3d
       -0.05392785 0.11020869 -0.04668828 0.12375168
0003e0 00 e0 b5 3d 8d 3d ed bd 65 64 cf 3a 15 88 ee 3d
       0.08880615 -0.115840055 0.0015822767 0.11647049
0003f0 53 90 6c 3d 11 f3 79 bd 98 8a cb 3d 2a d1 d1 3d
       0.057754826 -0.06102282 0.09938544 0.10244973

fc1.bias f4 [256]
000000 93 8c 04 be bf cd ef bb 20 3e fb 3d 72 99 37 bd
       -0.1294425 -0.007318228 0.12267709 -0.04482407
000010 c5 df 05 3e ac 4e 8c bd b6 dd 24 bd 73 7c c3 bb
       0.13073643 -0.06850943 -0.040250503 -0.0059657632
000020 23 15 61 bc b5 e6 4a 3d c7 90 cf 3d cf 89 07 bd
       -0.01373795 0.049536426 0.10135036 -0.03309041
000030 1b 55 86 3d f5 8c d3 3c 92 63 e6 3d 0a a7 9e bd
       0.06559201 0.02582405 0.1124946 -0.07746704
000040 47 dd 0e 3e 8c 9d b0 3b f8 86 10 3e ca 91 94 3d
       0.13951598 0.005389875 0.14113986 0.072543696
000050 0b 32 8b bd 6b 72 2f 3e f3 ce 16 be e4 fa b5 bd
       -0.06796654 0.1713349 -0.14727382 -0.08885744
000060 d8 38 a6 3c 25 18 d2 3d 12 d8 76 bb 71 05 1f 3e
       0.020290777 0.102585115 -0.003766541 0.1552942
000070 c9 19 1d be 68 a5 cc bd d8 0f 48 3c b6 49 c9 3d
       -0.15341868 -0.09992486 0.012210809 0.09828512
000080 4e 96 8c bd aa 43 0e 3d 57 23 2d 3d d0 d6 94 3c
       -0.06864606 0.0347325 0.04227003 0.018168837
000090 10 96 eb 3d 0a c1 14 3e e7 95 e0 bd 2a a1 85 3c
       0.115032315 0.14526764 -0.109660916 0.0163122
0000a0 42 85 ca bd b1 f2 72 3d f1 01 c9 3c de ec a0 3d
       -0.09888698 0.05931348 0.024537059 0.07857679
0000b0 42 c4 19 3d 07 1a 3e bd fe 87 17 3e f6 33 08 be
       0.03754068 -0.04641154 0.1479797 -0.13301072
0000c0 69 04 0b 3e 49 93 26 be 00 3a a8 bc ce b4 00 3e
       0.13575901 -0.16267122 -0.020535469 0.12568972
0000d0 00 e9 24 be ef 57 26 3d c0 97 2d 3e 1a 4d 40 3e
       -0.16104507 0.040611204 0.1695242 0.18779412
0000e0 04 eb da 3c 64 86 c4 bc be 3c bb 3d 90 d3 b7 3d
       0.026723392 -0.023989864 0.09142445 0.08975899
0000f0 87 69 83 bc a9 df 11 3e 72 6e fd bd f0 8b 55 bd
       -0.01604153 0.14245476 -0.123745814 -0.052135408
000100 b9 2f c4 bb 0f 7a 98 bd 29 eb 5b bd 2d db 18 3e
       -0.0059871343 -0.07445156 -0.053691063 0.14927359
000110 e0 96 93 bd 57 2f c0 3d 2a f8 eb 3d 60 ba a3 3d
       -0.072065115 0.09384029 0.11521943 0.079945326
000120 04 2b a6 bd 2d 2d ce bd cd 71 b3 bc 71 7d f0 3c
       -0.08113673 -0.1006721 -0.02190485 0.02935669
000130 05 5d 4b bc 8d 2d cd 3d 9c 5d bc 3c a6 46 fb bd
       -0.012412314 0.10018454 0.022993855 -0.122693345
000140 8c 87 54 3d 64 7e 01 be 30 5e ce 3d ce 99 9b bd
       0.05188708 -0.1264587 0.100765586 -0.07597695
000150 db 9c 0c 3d 7c c4 9f 3d d6 65 22 be ed df c2 3c
       0.034329277 0.07801148 -0.1585916 0.023788417
000160 05 92 fe bd d3 04 13 3e 59 26 76 bc 7e b6 fc bd
       -0.12430195 0.14357309 -0.015023791 -0.12339495
000170 2c 2c 8f 3b da 67 57 bd fb bb 9a 3c 2f 99 dc bd
       0.0043692794 -0.052589275 0.018888464 -0.10771405
000180 69 3a 19 3e 41 ad 3a 3e c9 e0 f4 3c 5a 23 6d 3d
       0.14963688 0.18230154 0.029892342 0.057895042
000190 34 a8 03 be 54 90 67 3d 54 c5 df bd 4e 60 22 3e
       -0.12857133 0.056534126 -0.10926309 0.1585705
0001a0 fd 94 5a 3d 9a 59 71 3d 70 a5 c1 3d 34 98 d6 3c
       0.053364743 0.05892334 0.09455383 0.026195623
0001b0 7e 68 99 3a aa f7 92 3d a0 da b9 bd 9b 90 80 3d
       0.0011704115 0.071761444 -0.090749025 0.06277581
0001c0 48 49 6d bd 86 d9 8a bd 2e 42 03 be 5f c8 08 3e
       -0.057931215 -0.067797706 -0.12818214 0.13357686
0001d0 d7 d9 08 3e 0f 7f 3b 3e 73 35 40 bc 7e f7 de 3d
       0.1336435 0.18310188 -0.011731493 0.10887049
0001e0 56 39 d8 3c 11 66 3f bd 65 2f 17 be 19 51 a1 3d
       0.026394527 -0.046728197 -0.14764173 0.07876796
0001f0 df 4f 93 3b 6f 14 52 3d f3 4c 94 bd e7 f9 be bc
       0.0044956054 0.05128902 -0.072412394 -0.023312522
000200 c9 7d b1 bd 8a e0 2c 3e 9a 83 08 3d fb 1f d3 3c
       -0.0866657 0.1688253 0.03332863 0.025772085
000210 da 29 55 3d a5 9f d2 bd f7 22 d5 bd 73 e4 e8 3d
       0.052041866 -0.10284356 -0.1040706 0.11371698
000220 b0 81 10 be 6b da 10 be 78 f3 f9 3d 2f b1 02 3e
       -0.14111972 -0.1414582 0.12204641 0.12762903
000230 e2 6f 2b be 74 00 b6 3b cd a2 09 3e 6f a6 b0 3d
       -0.16741899 0.0055542532 0.1344101 0.08625495
000240 7e 9a 37 3c d9 15 96 3d 49 a5 fa bd 4c 5e b3 3d
       0.011206267 0.07328386 -0.12238557 0.0875822
000250 5c 8b 69 3d c2 6a 5b bd a5 7e 87 bd cf af c2 bd
       0.05701767 -0.05356861 -0.066159524 -0.09506189
000260 bb a0 fa 3c 86 a4 05 3d ec ad a3 bd 67 e7 2e 3d
       0.03059422 0.032627605 -0.07992157 0.04270115
000270 d6 c4 99 bd 22 32 36 bc fd da e5 3b df 58 94 3d
       -0.075082466 -0.011120351 0.007014631 0.07243513
000280 6f c1 e6 bd 05 e6 16 be 27 41 7e bd cd dc 78 bd
       -0.11267363 -0.14736183 -0.062073853 -0.060757447
000290 c3 db 01 be 4e 6e 44 bd f4 96 9b 3d 70 b7 1e 3e
       -0.12681489 -0.047956757 0.075971514 0.15499663
0002a0 b4 e1 16 3a 07 e9 11 3e 46 22 06 be 26 45 04 be
       0.0005755678 0.14249049 -0.13099012 -0.12917003
0002b0 71 ac ad 3d f8 c9 86 3d a1 52 02 be 7d a5 d3 3d
       0.08480156 0.06581491 -0.12726833 0.10334299
0002c0 17 68 f4 bc 75 36 d5 3d 43 69 27 3e b1 e0 d3 3d
       -0.02983479 0.104107775 0.16348748 0.10345591
0002d0 0a 35 b1 3d 32 62 dd bc 44 c3 36 3d af 48 b7 3d
       0.086526945 -0.027024362 0.044619814 0.0894941
0002e0 06 03 b2 bd 92 d1 6e 3d 05 ec 26 3d eb 52 99 bd
       -0.08691983 0.05830533 0.04075243 -0.074865185
0002f0 d0 d5 07 3e 7d c0 26 3d ca 15 8d 3d 92 c6 4d 3d
       0.13265157 0.040710915 0.068889216 0.0502382
000300 f7 75 f8 3d 0a f9 ab 3c fc 4a 5f bd 84 d9 db 3d
       0.12131875 0.020992775 -0.05451487 0.10734847
000310 14 1f be 3d a1 16 7b 3d 14 11 f5 3d 5b c0 b9 3d
       0.092832714 0.061300877 0.11966148 0.09069892
000320 de 34 b6 3d 85 76 ce bb a4 0a 4c 3d fb bf 0b 3e
       0.08896802 -0.0063007497 0.049814835 0.13647453
000330 da 9e 23 3e 71 cd 07 3e 47 7c cd 3d 3a 4b 21 3e
       0.15978566 0.13261963 0.1003347 0.15751353
000340 e0 b6 13 3e fd 89 3c bd 4b 5c ef 3d d3 d8 09 3e
       0.1442523 -0.046030033 0.11687525 0.13461618
000350 f2 20 21 be cd 98 58 bd 2a 59 06 be 3c 59 dc 3d
       -0.15735224 -0.052880097 -0.13119951 0.107592076
000360 7a 1c a3 3d 8f 08 a2 bd cf 3e ff 3d 86 37 ca 3d
       0.07964416 -0.07911789 0.12463152 0.098738715
000370 96 64 eb bd 2c 22 c2 3d 21 f5 c6 bd f4 c1 2e bd
       -0.114937946 0.09479174 -0.097147234 -0.042665437
000380 8c a2 0a 3e 56 5d 29 3d 6d 12 35 3d 52 bb 81 3c
       0.13538569 0.041348778 0.044207025 0.015836392
000390 5b 32 cd 3d 8d 22 bd bd ff 26 76 3d 8c 56 8d bd
       0.1001937 -0.09235106 0.060095783 -0.06901273
0003a0 da 1e d5 bd 96 ac 92 3d 5c 3d af bd 87 d1 0c 3e
       -0.10406275 0.071618244 -0.08556625 0.13751803
0003b0 ce ce 98 3d f8 21 c0 3d 0a 91 c2 3d 7e 1e ca bd
       0.0746132 0.09381479 0.0950032 -0.09869097
0003c0 2b 44 a3 3d 9b 15 a4 3c 4d 4b 4a 3d 29 83 f7 3d
       0.079719864 0.020029834 0.04938822 0.12085564
0003d0 b1 e7 90 3d 6d dc 26 be 1b 94 e7 bd d0 6c 19 3e
       0.07075442 -0.16295023 -0.11307546 0.14982915
0003e0 e1 0c 26 be 67 db 77 3d 2e 6b 96 bd e3 e1 8a 3d
       -0.1621585 0.060511973 -0.07344662 0.06781366
0003f0 ed 29 95 3d a2 9a 22 3e 5a a3 0a 3d 9a 74 c5 3c
       0.07283387 0.158793 0.03384719 0.024103452

fc2.weight f4 [256, 256]
000000 fe b3 1c 3d dc 23 0b 3e 47 94 ff bd 2c c4 01 3e
       0.03825759 0.13587898 -0.124794535 0.1267249
000010 10 b8 58 bd 28 f6 31 3d bf f2 6f 3d e0 56 6e 3d
       -0.05290991 0.043447644 0.05858111 0.05818832
000020 35 85 ce 3d 24 bc 2b bd ad 5d e1 bc f5 76 0a 3d
       0.10084001 -0.04192747 -0.027510488 0.033804853
000030 e6 d8 8e bc c0 b0 58 bc 02 8d 1a 3d ae f4 cc 3c
       -0.01743741 -0.013225734 0.03773213 0.025019016
000040 98 fb 2f 3d 33 1f 83 3d 85 e7 ac bc a2 88 bc 3c
       0.042964548 0.06402435 -0.02110649 0.02301437
000050 fb 9c 1f 3d 6b 55 e3 3c 26 1d e6 3a 8e fe a7 3d
       0.038968068 0.027750691 0.0017556294 0.08202849
000060 af 83 ca 3d 88 b8 cb 3c d9 b8 6f 3d 10 4c dd 3b
       0.09888398 0.024868265 0.058525894 0.006753452
000070 6d 9c 19 3d 50 a9 6c bd 91 56 64 bd cb e4 54 3c
       0.037502695 -0.057778656 -0.05574662 0.012994002
000080 80 f6 a0 bc f3 ee 15 3d e9 ba e8 3b da 2d 9a 3d
       -0.01964879 0.036604833 0.0071023596 0.07528277
000090 82 d4 85 3b 8d 55 91 bc 32 15 1e 3b 0f 28 14 bd
       0.004084171 -0.01774099 0.002412152 -0.036171015
0000a0 05 59 09 bc a1 fd 59 bd ed f0 85 bd 33 74 1c 3d
       -0.00838304 -0.053220395 -0.065400936 0.038196754
0000b0 44 44 04 bd e0 01 cb bc 11 bf d9 bc cd 00 0c 3e
       -0.032291666 -0.024781168 -0.026580365 0.1367218
0000c0 cb 49 78 bc 8c d4 ef 3c 3e a1 90 3c 4d ef 40 3c
       -0.015154312 0.029276155 0.017655011 0.011775804
0000d0 9e fa 8d 3c 6f 4c aa 3b 8f 45 5e 3d 43 67 6a 3c
       0.017331418 0.0051971 0.054265555 0.014306846
0000e0 86 0c 1d 3e 6a f5 2c 3c f7 ec 31 bd cd 15 fa bc
       0.15336809 0.010556558 -0.043438878 -0.030527974
0000f0 d9 38 48 bc 52 d4 9b bc 26 f1 70 3d d9 89 c0 bb
       -0.012220585 -0.01902214 0.058823727 -0.0058758077
000100 5a 8b 0a bd 1b 3e 08 bd 80 87 ac 3b 4e 92 87 bc
       -0.033824302 -0.033262353 0.0052651763 -0.016549256
000110 24 5a 81 bb 27 e4 62 3d 44 24 87 3c 33 8e 0c 3d
       -0.003947513 0.055393364 0.016496785 0.0343153
000120 7e dc 94 bd 56 f0 20 bc 5e 9c 2c bd 3a 92 30 bd
       -0.07268618 -0.009822926 -0.04214131 -0.043108203
000130 1c b4 42 bd a5 48 0c 3e f9 52 05 3e 63 8c 20 3e
       -0.047535047 0.13699587 0.13019933 0.15678553
000140 b3 10 27 3b 9e b0 41 bd 6c a2 77 3b bd 8b fd 3b
       0.0025492131 -0.047287576 0.003778602 0.0077376054
000150 e0 14 06 3e b1 c3 59 bd 8c 82 f1 bc c9 14 27 3d
       0.130939 -0.05316514 -0.029481195 0.040791307
000160 c7 45 ef bb c9 31 57 3b 49 c6 a8 3d 50 85 cf 3d
       -0.0073020193 0.003283607 0.08240945 0.10132849
000170 05 8b da bc 75 4c 10 3d 0b 76 4f 3c 96 a0 3d 3d
       -0.026677618 0.035229165 0.012662421 0.046295725
000180 60 39 10 3d 4f d9 2b 3d fb 1f 05 3e 78 19 71 bd
       0.035210967 0.04195529 0.13000481 -0.05886218
000190 ed c2 6b bb d8 7a 02 bc 01 c7 86 3d 90 75 86 3d
       -0.003597434 -0.007963859 0.06580926 0.06565392
0001a0 24 4f 1f 3c 63 c6 85 bc 91 8e 7c 3d 0d b0 c5 bc
       0.009723458 -0.01632995 0.0616594 -0.0241318
0001b0 0e c8 80 bd f8 89 3a 3d 7f 08 9e 3d c4 4c 38 3d
       -0.062881574 0.045541734 0.07716464 0.044995084
0001c0 0f 24 6b 3d a4 ed 8f 3d af 20 3d 3c 94 03 4c 3d
       0.057407435 0.07027748 0.011543437 0.0498081
0001d0 d4 28 8b 3c f9 4e 5a b7 44 97 2f bc 32 3f c9 3b
       0.016987242 -1.30122e-05 -0.010717217 0.0061415667
0001e0 41 a5 50 3d cd 45 aa bd bb 4b 69 3d 8a 71 bc 3c
       0.05093885 -0.08314095 0.056956988 0.023003358
0001f0 6b 5a bf bc 4b bc c7 3d 6b ca 84 bd 00 31 e5 bd
       -0.023358544 0.09752711 -0.06483921 -0.11190987
000200 3f 21 4a bd a6 78 e4 3a 58 f3 31 be 5c 8a 00 3d
       -0.049348112 0.0017430976 -0.17377985 0.03138195
000210 29 9e 93 3c d4 fc 92 3d 18 df 24 3d b5 40 13 3c
       0.018019753 0.071771294 0.04025182 0.008987595
000220 01 dd c2 3c a6 43 82 bd 7a 5a ac 3d 16 e7 7e bd
       0.023787023 -0.06360559 0.084156945 -0.0622321
000230 e7 7a 29 bc 03 00 92 bc d2 d9 8a bd 54 fe a3 bd
       -0.010344244 -0.017822271 -0.06779827 -0.080074936
000240 84 ab ee bc ee 48 2f bd fb c9 e7 3d e3 72 04 bd
       -0.02913452 -0.04279416 0.113178216 -0.032336127
000250 45 67 b5 bb ac 0a 01 3e f6 90 50 bd 2d be 5f 3d
       -0.0055359923 0.12601727 -0.050919496 0.054624725
000260 38 7c ec bd 70 a2 b4 bd 93 2a 3a 3e 54 6a 24 bd
       -0.1154713 -0.08820045 0.18180303 -0.040140465
000270 e9 9d 80 3c 41 c5 30 be 4f 48 97 bc c9 3b 17 3d
       0.015700297 -0.17262746 -0.018467097 0.03692225
000280 08 dd 58 3d a4 2a 05 3d 31 f5 80 bd c3 4b 21 3d
       0.052945167 0.03251137 -0.062967665 0.039378893
000290 a9 5b 02 3e b1 37 30 bd 7a e6 b3 bd 89 78 69 3d
       0.12730278 -0.04302186 -0.08784194 0.056999717
0002a0 2e aa 6c 3e 7f 2b 19 bd d0 4f 0f 3d 78 c6 b2 bc
       0.23111793 -0.037394997 0.034988225 -0.021823153
0002b0 db a2 2a bc f4 20 9e bd 1f 81 ec 3d 5a 5f 88 bb
       -0.010414804 -0.07721129 0.115480654 -0.0041617574
0002c0 a0 07 8b bd 31 44 86 3d ae 69 07 bd 75 6b ff 3c
       -0.06788564 0.06555975 -0.03305977 0.03117917
0002d0 e3 fe 97 3c 2c c2 85 3c ba 99 16 3d 64 28 40 3c
       0.018554157 0.01632794 0.0367677 0.01172838
0002e0 41 bb 61 bc 86 84 47 bc 0b 79 86 bc 91 a0 cd ba
       -0.013777555 -0.012177592 -0.01641514 -0.0015688111
0002f0 42 5b 57 3d 19 2e 1c 3e a3 78 50 bd 58 d2 d4 3c
       0.052577265 0.1525196 -0.0508963 0.025979206
000300 71 7a d6 3b 7f aa 99 bd cc 25 42 3c 4e b4 c0 3c
       0.006545358 -0.07503223 0.011849832 0.023523476
000310 42 77 a5 bd 9f 23 a1 3c 4c 4e cd bc ef 0a b6 3c
       -0.08079387 0.019670306 -0.025061749 0.02222201
000320 34 91 b0 bd 4e 48 22 bd 8e fd 65 bd 41 57 70 3b
       -0.08621445 -0.039619736 -0.05615001 0.00366731
000330 26 5d 46 bd 39 43 bc bd b9 0e 1a 3c 06 16 9b bc
       -0.048428677 -0.09192509 0.009402924 -0.0189314
000340 b1 32 48 3d 7e 5a aa bb 64 c8 ec bb 8e d9 9b 3a
       0.048876468 -0.005198776 -0.007226037 0.0011890398
000350 14 57 0e bc 5a 9a 15 3c 9d 86 9c 3b 95 f8 2c bb
       -0.008687753 0.009131039 0.0047767893 -0.0026393284
000360 5c 65 de 3c 27 e7 ac 3d 88 f0 e1 3c 76 b9 63 bc
       0.027147941 0.08442526 0.027580515 -0.013899198
000370 0d 6e 28 bd 0e d1 4d 3d d3 7d 9d 3d 60 84 84 bd
       -0.041120578 0.0502482 0.07690015 -0.06470561
000380 3a 41 8a bb f1 4d b4 3c 1a 92 c0 3b 06 c8 28 3e
       -0.0042192014 0.022009822 0.0058767917 0.16482553
000390 7b 50 aa 3c 33 7f 59 3d db 3e 52 bc 2f db be 3d
       0.02079033 0.053099822 -0.012832369 0.0931915
0003a0 c4 4f 2b bd be e4 81 3d 10 e4 44 3d 6e e4 19 bd
       -0.041824117 0.06342457 0.04806906 -0.037571363
0003b0 06 f7 2a 3d b8 10 bf bb db 2b 1b bd 35 17 97 bb
       0.041739486 -0.0058308505 -0.03788362 -0.004610921
0003c0 8c 8b c8 3c 3e fa 83 3d 26 7b ac bc 96 8a 86 3d
       0.024480604 0.06444214 -0.021054816 0.06569402
0003d0 8a 19 e5 bc ba f0 05 bd c3 02 25 3d c6 b9 6f bd
       -0.02796628 -0.032700278 0.040285837 -0.058526777
0003e0 52 56 52 3d 1d d1 da bd e4 ff 14 3d 5f 08 90 3d
       0.051351853 -0.106844164 0.03637685 0.07032847
0003f0 92 a8 04 3d 4c bf 3f 3d 65 ac d8 3c f7 00 07 bd
       0.032387324 0.046813294 0.026449392 -0.032959905

fc2.bias f4 [256]
000000 75 7e 99 3d d9 f3 9e 3d fb 10 80 3d f1 30 73 3d
       0.07494823 0.07761354 0.06253239 0.059372846
000010 6f 43 0c 3d 15 54 62 3a 57 94 80 bc 89 f3 a8 bc
       0.034243997 0.0008633745 -0.015695734 -0.02062394
000020 08 0e d1 3c 3d 6d 55 bc d5 5c 10 3d 40 1c 22 3d
       0.025519386 -0.013026533 0.03524478 0.039577723
000030 59 a6 8e 3d d6 1f 2a bd 3d d6 78 3d 53 9f 02 bd
       0.06965322 -0.041534267 0.06075119 -0.031890225
000040 03 68 4c 3d 3f 37 95 3b c3 b3 83 bb b9 69 03 bc
       0.04990388 0.004553705 -0.004019232 -0.008020812
000050 7e 1d a8 bc 88 f7 7f 3d bc 68 5c 3c 47 9c 0f 3d
       -0.020521875 0.062491924 0.013452705 0.035061147
000060 8b 9f 63 3c 0e 2a f5 3c 03 97 3b 3d 80 94 96 3c
       0.0138930185 0.02992728 0.045798313 0.018381357
000070 f3 48 41 3d 52 71 a1 ba 29 22 2a bd 42 f0 16 bd
       0.04718871 -0.0012317097 -0.041536484 -0.03685022
000080 aa e2 a7 bc 3c a3 98 3c 8b fc 2c 3c 5e bf fb 3c
       -0.020493824 0.018632524 0.010558258 0.0307309
000090 f7 6f 97 3b a9 aa b9 3c 28 4c 5e bd 98 64 07 3c
       0.0046215015 0.022664385 -0.054271847 0.0082637295
0000a0 2d 8d 7b bc b3 db 8b bc 34 3d 68 3d ef e8 b0 3d
       -0.015353483 -0.017072534 0.056698993 0.086381786
0000b0 04 03 86 3c 35 e5 35 3c 63 0a 55 3d 3f 76 7a 3d
       0.01635886 0.0111020105 0.05201186 0.061147925
0000c0 a1 82 25 3d 18 42 9c 3c e4 a4 51 bd b2 17 4d 3c
       0.04040778 0.019074485 -0.051182643 0.012517856
0000d0 37 b6 09 3d f8 89 57 3c b8 da 54 3d cb 9e 57 3d
       0.03362104 0.013155453 0.0519664 0.05264167
0000e0 54 90 73 bc 32 9f 10 3d d8 a7 c3 bc f6 90 b7 3c
       -0.0148659535 0.03530807 -0.023883745 0.02240799
0000f0 37 55 88 3b 9a 0a 90 3d fd 08 8e bc cd 84 53 bc
       0.004160549 0.07033272 -0.01733827 -0.01291008
000100 51 34 a8 3c f0 97 0e bd cc 5b e7 bc 76 f4 fe bb
       0.020532759 -0.034812868 -0.028242014 -0.007780607
000110 f4 84 94 bc 17 85 6f 3d 1a ab 0b 3d 0d da 03 3d
       -0.018129803 0.058476534 0.034098722 0.03219037
000120 b4 6b 7e 3d 87 7b 2e bd 94 91 65 3d 3d b3 56 bc
       0.062114432 -0.042598274 0.056047037 -0.013104257
000130 12 25 23 3c f6 62 90 bd 85 8c 4d bd d4 04 8f 3d
       0.009957569 -0.07050125 -0.050182838 0.06983343
000140 af 3b 92 3c 6e f5 08 3d 99 65 0c 3d 7b a9 10 bd
       0.017850725 0.033437185 0.03427658 -0.03531788
000150 19 41 9a 3d 9b c9 89 bc 47 00 41 bc eb f0 d3 3c
       0.07531948 -0.016819766 -0.011779851 0.025871715
000160 ae 30 27 bd 21 2b a4 bc 9e 82 72 bc 6f 11 16 ba
       -0.04081791 -0.020040097 -0.014801649 -0.00057246437
000170 ce 31 d7 bc 73 49 68 bc 50 df 83 bc 8d 40 de bc
       -0.026268866 -0.014177668 -0.016097695 -0.02713039
000180 ec e5 e8 3a e8 f0 c5 3c e0 21 08 bd 40 b4 3a 3c
       0.0017768717 0.024162725 -0.03323543 0.011395514
000190 7c 93 02 3c 6a 03 1f bd a6 ed 8c 3c ec 93 82 bc
       0.007969733 -0.038821615 0.017203163 -0.015939675
0001a0 c3 b5 70 bd 93 fb 6b 3d f4 93 5a 3d d3 92 02 bd
       -0.05876709 0.057612967 0.053363755 -0.031878304
0001b0 0e b1 65 bc 9c 90 09 3d 57 8d c3 bb 1b 92 f4 bb
       -0.014019264 0.033585176 -0.0059677768 -0.007463706
0001c0 67 bd e7 3b 9d 06 03 3d 06 72 ad bb 83 de 45 3d
       0.007072139 0.03198873 -0.0052931337 0.048307907
0001d0 d6 95 c6 bb 61 17 a7 3d 95 09 80 bb 74 83 0a 3c
       -0.0060603423 0.08158756 -0.0039073923 0.008454192
0001e0 83 88 4a bd d5 e6 1c bc e1 25 9a bc a7 13 3e 3d
       -0.049446594 -0.009576519 -0.01881689 0.04640546
0001f0 92 c8 fc 3c 06 75 ca bc 4e 94 94 bd 2f 0d 06 3d
       0.030857358 -0.024714004 -0.072548494 0.032727417
000200 56 88 21 bd df aa 3c bc c7 6f 0b 3d 10 1e 84 3c
       -0.03943666 -0.011515348 0.034042146 0.016127616
000210 20 38 82 bb 75 b6 84 bb fd 32 85 3d 6e dd 44 bd
       -0.003973976 -0.004050071 0.06503866 -0.048062734
000220 50 af 26 3d a4 c4 97 3c 0b 6c 76 3d dd f7 7e 3c
       0.040694535 0.018526383 0.06016163 0.015562025
000230 a1 7d c3 3b fb e7 89 bd 57 61 f7 bc 91 75 a7 bd
       0.005965904 -0.067337 -0.030197782 -0.08176721
000240 36 08 85 3d bd b2 0f ba 26 dd 4f bd 56 9b 60 3d
       0.06495707 -0.0005481651 -0.050748013 0.05483564
000250 d8 e4 27 bd 90 03 12 3d 3c b9 51 3d 3e e4 2d bd
       -0.040989727 0.03564793 0.051202044 -0.042453997
000260 73 ee 37 3d d6 33 b5 bc 13 f8 9f bc 2c 1c ab 3c
       0.044905137 -0.022119444 -0.01952747 0.020887457
000270 25 51 8c 3d 21 30 93 3c 47 7e 3e 3d 4a a4 75 bd
       0.068514146 0.017967286 0.046507146 -0.05997113
000280 fd 87 0b 3d b0 82 e0 bc 66 bc 45 bb db 24 84 3d
       0.034065235 -0.027406067 -0.0030172109 0.06452342
000290 2e b3 36 3c 29 8d 47 3d 1a 5a c2 bc 07 1d 80 3d
       0.011151118 0.048718605 -0.023724604 0.062555365
0002a0 46 0d 27 3c f9 b2 e7 3b f3 cf 53 3d db 48 2d 3b
       0.010196036 0.0070708958 0.051711988 0.002644113
0002b0 65 0b 75 bc b8 6b be 3d 19 7f 93 ba de 4e 9d bc
       -0.01495633 0.092978895 -0.0011253088 -0.019202646
0002c0 48 90 04 bc 41 ee 44 bd ee f3 38 3c fd c2 35 3d
       -0.00809104 -0.04807878 0.011288626 0.04437541
0002d0 2e 5c 8a bc 93 55 5b 3d 6f 81 49 3c f5 93 e8 3c
       -0.016889658 0.053548407 0.012298926 0.028390864
0002e0 17 37 74 bd 5b b4 9c bd 58 fa 22 3d e7 37 49 3d
       -0.05962285 -0.076515876 0.039789528 0.04912558
0002f0 cf d8 80 3d 37 48 90 3d dd 13 45 bb f0 1c c1 3c
       0.06291353 0.07045024 -0.0030071654 0.023573369
000300 4e 93 38 bc 38 51 39 bc 71 e1 da bb 2b fb 23 3d
       -0.011265589 -0.011310868 -0.0066797067 0.040034454
000310 38 22 43 3d 52 c7 f6 b9 aa 5d 89 3d 10 57 87 3d
       0.047640055 -0.00047069282 0.06707318 0.06608403
000320 43 03 5e bd ae 5b 75 bc 52 56 13 bd 5e cb 94 3d
       -0.05420233 -0.014975471 -0.035970993 0.07265352
000330 a1 2f 41 bd 9d 5d 6d 3d fb 09 71 3d fc fd d2 bc
       -0.047164563 0.057950605 0.05884741 -0.025755875
000340 c6 a1 95 bc 8d 91 fe 39 7f 4f ba bb 34 2c b5 3c
       -0.018265616 0.000485551 -0.005685746 0.022115804
000350 25 2c 7c bb 58 ae 41 3c c5 e4 94 3c 0d 94 21 3d
       -0.003847846 0.011821352 0.018175492 0.039447833
000360 74 2c 24 bd 4e 2a 95 3d 9f ec 86 3b aa d0 18 bd
       -0.040081456 0.072834596 0.004117563 -0.037308373
000370 54 66 da 3b 44 22 d2 3c e3 b8 0a bd bc 2f e8 3c
       0.0066650305 0.025651105 -0.033867728 0.028343074
000380 87 b2 0b 3d 74 fb 91 3c 3f 9b ab 3b 7b 28 2f 3d
       0.034105804 0.017820098 0.0052370126 0.042763215
000390 95 18 54 3d 93 a8 cd bc 06 3a 00 3d f0 a7 29 3c
       0.051781256 -0.025104797 0.031305335 0.010354981
0003a0 da 3a ed bb 42 28 60 3c c8 3e 7d bb 18 5c c2 3b
       -0.0072396817 0.013681473 -0.0038642157 0.0059313886
0003b0 73 ef 44 3d 8f 97 77 bb be 3d 0f bd 34 6f 30 bd
       0.04807992 -0.0037779545 -0.03497099 -0.0430748
0003c0 41 ab 8b 3d e8 6b 97 bd e2 2d 38 3d 12 9a 03 3c
       0.068197735 -0.07393628 0.044965632 0.008032339
0003d0 e3 0c 86 3c a4 84 ec bc 74 5f 98 bc 23 f6 0c 3d
       0.016363567 -0.028871842 -0.018600203 0.03441442
0003e0 18 6c 11 3d e0 ba 1d bd cb 46 91 bd 39 45 1b bc
       0.035503477 -0.038508296 -0.07093581 -0.009476953
0003f0 89 65 6d 3d c0 ab 46 bc 8a ba 76 bd 29 a3 06 3d
       0.05795816 -0.012125909 -0.06023649 0.032870445

fc3.weight f4 [256, 256]
000000 94 d2 96 3b f7 eb 82 3c 08 9c b8 bc 12 83 ac bd
       0.0046027396 0.015981657 -0.022535339 -0.08423437
000010 58 96 89 bd 28 3c 45 3c 52 96 da 3b 43 92 3e 3c
       -0.06718129 0.012038268 0.0066707516 0.011631551
000020 fd b5 60 3b 22 aa 9f 3e 5e c9 c6 bc 6d 46 1f bd
       0.003428816 0.3118449 -0.024265941 -0.038885523
000030 15 87 df bc 94 6f 1d bc 17 1b a0 bd 9b 19 22 3d
       -0.027286092 -0.009609122 -0.07817667 0.0395752
000040 e1 59 4a bc d5 63 8f bd 66 fa 64 bd 09 b3 f2 3d
       -0.01235053 -0.07001463 -0.05590286 0.118505545
000050 71 ea e8 bc 00 ab e5 bd 30 00 50 bd 7a 20 ef bd
       -0.028432103 -0.11214256 -0.05078143 -0.11676116
000060 9d 5c a0 bd 0d 82 c3 bc d2 8c ec bb ef b3 d2 bc
       -0.078301646 -0.023865724 -0.0072189355 -0.025720565
000070 63 91 40 be 33 30 0d 3d f7 dc ea bc 27 f2 55 3c
       -0.1880546 0.034469794 -0.028669817 0.013058222
000080 ba f9 a2 3c 87 55 bc bd 66 15 6b 3d 96 8f 8e bd
       0.01989447 -0.091960005 0.057393454 -0.069609806
000090 42 2f 94 3e 49 8b 34 3d b0 e4 35 3c 55 2c 5e 3d
       0.28942305 0.044078145 0.011101887 0.054241497
0000a0 5b ce 92 bc 1c 11 02 bc 0b 69 15 3b bb 94 bb 3d
       -0.017920664 -0.0079386495 0.0022798206 0.091592275
0000b0 69 6a d6 bb bc 42 19 3d f9 8b b9 bb e8 5f 41 bd
       -0.006543447 0.03741716 -0.005662438 -0.047210604
0000c0 f4 6c e4 bc ba aa 4a bd 88 87 f8 3c 55 e3 7f 3d
       -0.027883984 -0.049479224 0.030338064 0.06247266
0000d0 ef 63 07 bd 29 d5 50 3d 7d 7f df bd 2c 17 3c 3e
       -0.03305429 0.050984535 -0.10912988 0.18368214
0000e0 1d 12 d4 3c f3 15 74 3d 12 a9 74 bd 24 f9 8c 3c
       0.025887543 0.059591245 -0.05973155 0.017208643
0000f0 bd ce ba 3d 53 b7 1a be 0d 02 a8 bd 30 82 dd 3b
       0.091214634 -0.15108995 -0.08203516 0.0067599043
000100 a2 13 9c bc fe 25 32 3d e4 22 4e bd 40 5f 3d bb
       -0.01905233 0.043493263 -0.050326243 -0.0028895885
000110 19 a9 65 3c c9 f7 ce bc a6 68 b0 bd 7c 08 88 3b
       0.014017367 -0.025264638 -0.0861371 0.004151402
000120 b4 fd f5 bd d2 b5 a8 3b 4e f9 5e bd f3 66 0e 3d
       -0.12011281 0.005148628 -0.054436974 0.03476615
000130 54 9b b3 bc 82 a0 95 bc ce 5b 10 bc 3c f7 67 3d
       -0.021924652 -0.018265013 -0.00881095 0.056632265
000140 51 e5 32 3c da 89 76 3e 46 fb 14 3d 8f dd aa bc
       0.010918931 0.24076024 0.036372446 -0.0208576
000150 62 09 4e 3d 04 6f 94 bc 74 28 6d bd 53 a4 ab 3b
       0.050301917 -0.018119343 -0.057899907 0.005238095
000160 8d f6 b4 3b ba cf 81 bc 20 b9 04 3d f7 7f 5e 3d
       0.005522555 -0.015846122 0.03240311 0.054321256
000170 9b 3e 3c 3d 8d e1 42 3d 5e c1 cc 3d ec f3 04 3e
       0.045958143 0.047578383 0.09997819 0.12983674
000180 25 73 f9 3d 6c cc da 3a 5c 33 c4 3c c0 17 f7 bb
       0.12180165 0.0016693003 0.023950271 -0.007540673
000190 56 98 d0 3c 8b c1 2f bd db ea 34 bd a1 24 a2 3d
       0.025463264 -0.042909186 -0.044169288 0.07917143
0001a0 84 63 56 bc db ba d8 bd bf bb b6 bd 67 0d 25 3e
       -0.01308525 -0.10582515 -0.089225285 0.16118394
0001b0 b1 61 77 bd e7 7d 73 3e 4d 01 73 bd 33 55 2b 3c
       -0.0603959 0.23778497 -0.059327412 0.010457325
0001c0 91 0d a3 bc c4 49 86 bd 9a 79 5d 3d 66 ef b6 bd
       -0.01990393 -0.065570384 0.054071046 -0.089323804
0001d0 3b c5 78 3d 45 e7 20 3c 4a 9c 7e bc 69 13 1e 3b
       0.06073497 0.009820764 -0.015540192 0.0024120456
0001e0 87 9b dd 3c da 99 3d 3d 94 cb eb 3c aa 46 07 be
       0.0270517 0.046289302 0.028783597 -0.1321055
0001f0 4d 1e 36 be ed 7a 94 3b c4 7f 97 bc 36 cd a2 bd
       -0.17784996 0.0045312555 -0.01849354 -0.07949297
000200 10 5b 0b 3c bd 28 bf bc 38 8e b3 3c 0c 4a 9a bd
       0.008505598 -0.023334855 0.021918401 -0.075336546
000210 e5 a5 8c bd c0 3e 89 3d 82 d1 ca bd 0c dc be bb
       -0.06867579 0.06701422 -0.09903242 -0.0058245715
000220 b4 dc 56 bc b2 61 76 bd df 02 f1 ba 71 56 9a bc
       -0.013114143 -0.060151763 -0.0018387696 -0.018840047
000230 7e ba 44 3d 33 8c aa 3c b7 8c b0 bd 63 0f f6 3c
       0.048029415 0.020818805 -0.08620589 0.030036634
000240 74 46 31 bd 59 ca c4 bc d6 cb 01 bd 4c b8 d3 bc
       -0.04328008 -0.024022268 -0.031688534 -0.025844716
000250 0e b5 39 3d e4 82 54 bd d3 59 b0 3d 0a b9 53 bc
       0.045338683 -0.05188264 0.086108826 -0.012922535
000260 5c 71 8a bc 3c de 94 bd d6 f8 dc 3c a3 9e 99 bc
       -0.016899757 -0.0726895 0.026974123 -0.018752402
000270 df a8 a9 bc 74 03 07 be f2 be 21 3d 84 84 f2 3b
       -0.020710407 -0.13184911 0.03948874 0.007401051
000280 91 c0 f7 ba ce 03 98 3d a2 f6 06 bd 29 2e 07 bd
       -0.0018901994 0.07422601 -0.03295005 -0.033003006
000290 a0 5b 61 3d e3 3e 92 bd f7 92 57 3d 41 5b 56 3b
       0.05501902 -0.07140901 0.05263039 0.00327082
0002a0 31 d2 ee bc a0 a8 44 3b db 73 56 3d b7 0d 76 bd
       -0.029152961 0.0030007735 0.052356582 -0.060071673
0002b0 c9 7d 85 bd d4 9e 67 3d ea fd 60 bb c3 e4 74 3d
       -0.06518132 0.056547955 -0.0034331032 0.059788477
0002c0 c8 67 5e 3d 7c 25 63 3d a4 f9 db 3b f0 1c 09 bb
       0.054298192 0.05545567 0.006713109 -0.002092179
0002d0 81 37 06 bb 73 51 bb bb 0d 1e 6f bc cb d1 10 3d
       -0.002047986 -0.0057164966 -0.014594567 0.035356324
0002e0 56 c5 6c 3c b0 b0 42 bd 42 c8 57 3d 2a 81 f4 bd
       0.014451345 -0.047531784 0.052681215 -0.119386986
0002f0 bc 8b 31 be bd a0 20 bd 60 f9 71 3d 82 2e 80 bd
       -0.1733846 -0.039215792 0.059075713 -0.06258871
000300 eb 87 b2 3d 26 cb af bc 3f b7 87 bc 8c 0b 24 3d
       0.087173305 -0.021459173 -0.01656687 0.040050074
000310 82 98 bf bc c6 f8 5c 3e ab a1 af bd 4a fb 35 3d
       -0.023388151 0.21579275 -0.085757576 0.0444291
000320 0e 9b 3e 3d d7 63 f1 3c 37 20 7d 3c 33 9e 4a bd
       0.04653459 0.029466553 0.015449575 -0.049467277
000330 79 06 af bd 4e 25 99 bd c3 a5 3d bd 72 0d f0 3c
       -0.085461564 -0.074778184 -0.04630066 0.029303286
000340 e2 0e 6d 3d 40 6a 6e 3d 6b 98 97 bc ea cf 3c bd
       0.05787552 0.058206797 -0.018505296 -0.04609672
000350 ca 4b 56 bd d3 2b 80 bc 91 29 95 3d e7 94 66 bd
       -0.05231837 -0.015645897 0.07283319 -0.056294348
000360 53 a6 62 bd ef 9b 05 be 8a 95 b7 bb 28 06 be 3d
       -0.0553344 -0.13047765 -0.0056025432 0.09278518
000370 b1 48 6a 3d b3 41 d5 bd 50 d2 0e 3d c2 42 58 bd
       0.05719823 -0.10412922 0.03486854 -0.05279804
000380 5b 0c de b9 d6 09 a1 bd 11 ba 13 3c 69 14 d0 3c
       -0.00042352345 -0.07863204 0.00901653 0.025400357
000390 93 fe a4 bd d5 c9 2d 3c 38 98 ef bd df 7f a0 3c
       -0.08056369 0.010607203 -0.11698955 0.019592224
0003a0 e9 64 b0 bc 32 fe c3 bc ad 0c e7 bb 50 08 29 bd
       -0.021532493 -0.02392492 -0.0070510716 -0.041267693
0003b0 14 17 77 bd ad b3 e7 bd 06 3f 87 3e a4 ca 2d bc
       -0.060324743 -0.11313567 0.2641527 -0.010607395
0003c0 40 04 f1 bc 69 0e 39 3c 80 79 00 be 50 49 46 3d
       -0.029420972 0.01129494 -0.12546349 0.04840976
0003d0 12 7a 7b bb 6a eb 2b 3d 10 b9 f3 3c 83 5a 00 3e
       -0.003837232 0.041972555 0.02975133 0.12534527
0003e0 fc ef d2 3a f4 ef 4a bd be 24 93 bd a3 87 1b bd
       0.001609325 -0.049545243 -0.071847424 -0.03797115
0003f0 54 f4 27 3d 58 cb 05 3e 05 bf 23 3d 99 ce 2b 3d
       0.041004494 0.1306585 0.039977092 0.041945074

fc3.bias f4 [256]
000000 a5 b8 19 bd 60 d1 46 3d 35 9e 8f 3b 36 3d a2 3b
       -0.037529606 0.04853952 0.0043828734 0.0049511446
000010 d2 bd 23 bd a0 ef 10 bd ce c4 e7 bc 5b d4 3d bd
       -0.03997595 -0.035384774 -0.028292086 -0.046345096
000020 13 8c c1 3b 87 a3 f2 3c 1f a8 00 bd a0 a0 35 bd
       0.0059065907 0.029618992 -0.031410333 -0.044342637
000030 2d df 35 3d 3b 88 dc bb 00 2d a4 bd ff 8b 9d 3c
       0.04440229 -0.006730107 -0.080163956 0.019231794
000040 da 25 3a 3c 32 e0 76 bd b9 77 cc bc cb f6 2e 3d
       0.011361564 -0.060272403 -0.024959432 0.04271583
000050 80 92 f9 3c ac 3d e4 3c 94 7f 8b 3d 60 ae 8a 3c
       0.030465364 0.027861439 0.06811443 0.016928852
000060 5f 4e 37 3d 43 80 b7 3c fa 54 ef 3b d7 b0 4e 3c
       0.044752475 0.022400027 0.007303831 0.012615404
000070 82 51 0b 3d ba 9b 07 bc af 29 1c 3d b7 89 ce 3c
       0.03401328 -0.008276874 0.03812569 0.025212152
000080 f9 de 84 bd 5e 9d 40 bd 3b 31 44 bd 9d bf 5e bd
       -0.06487841 -0.047025077 -0.047898512 -0.054381955
000090 15 1d 38 3d 38 dd 10 bd db ba 32 3d bb 11 8f bd
       0.04494961 -0.03536722 0.04363523 -0.06985804
0000a0 37 7f 44 3d 2d 22 8a bd 51 a6 8d 3c 6d 65 55 3d
       0.047972884 -0.067448 0.01729122 0.05209868
0000b0 85 62 3a bb 88 71 b6 3c 12 c6 df bc 85 5b a3 bd
       -0.002844007 0.022270933 -0.027316127 -0.0797644
0000c0 57 b3 31 3d 2c 21 bc bc b6 57 60 bd 8c 9f 35 3d
       0.043383922 -0.022965036 -0.054771148 0.04434161
0000d0 97 9b cb 3a 13 45 8e 3b 24 f4 35 bc 25 66 3e 3c
       0.001553404 0.0043417304 -0.011105571 0.011621033
0000e0 46 b3 f8 ba ed 0d 18 bd 46 34 f2 b8 d5 7a 9c 3c
       -0.0018974326 -0.037122656 -0.00011549196 0.01910154
0000f0 8e d8 19 bd c9 e2 44 3d be 0d 7b 3d 4f 5d 20 3d
       -0.03756004 0.04806784 0.061292402 0.039151486
000100 3c 54 9e bd 78 c4 4c bd 5f 5f 0f 3d 28 d4 c2 3c
       -0.0773091 -0.049992055 0.035003062 0.023782805
000110 af 69 ce 3b 27 88 85 3c 52 52 bf bc cc 33 9d 3c
       0.0062992196 0.016300274 -0.023354683 0.019189738
000120 ae 89 8d 3c 78 56 39 3c df 6c f4 3c 71 b3 f5 3c
       0.017277565 0.01131212 0.02983707 0.02999279
000130 33 de db 3c 0a b4 82 3c 20 b2 2b bd 5b d4 13 bd
       0.026839351 0.01595499 -0.04191792 -0.03609119
000140 0a 7e b0 bd 98 a0 9e 3c 82 40 8b 3d 0c 5f a1 bd
       -0.0861779 0.019363686 0.06799413 -0.07879457
000150 e9 6a 2a bd a4 23 31 3c eb 44 4b bc 25 4a a0 bc
       -0.041605864 0.01081172 -0.012406568 -0.019566605
000160 c2 99 ab bc 92 27 6c bd 5f c8 95 3c 3b 8f 72 3c
       -0.02094734 -0.057654925 0.018284021 0.014804657
000170 aa 3c 77 3d 4e 6a 54 bc d7 60 ee 3c 10 cd 62 bd
       0.060360588 -0.012964798 0.029098911 -0.055371344
000180 c6 41 1d 3d bb 8b 33 3c 33 c1 27 bb 32 67 11 3d
       0.038392805 0.010958607 -0.0025597333 0.035498805
000190 45 e0 7d 3d 29 9e 29 bb fb f3 6b bd 95 7f c2 bc
       0.06198146 -0.0025881624 -0.057605725 -0.023742476
0001a0 e1 19 9b bc d3 cd 43 3d 3d e8 10 3d 9c 3f 1a bb
       -0.018933238 0.04780371 0.03537773 -0.002353645
0001b0 85 05 b4 3c 6b 98 4a bc af 87 fe bc 3f 68 91 bd
       0.021975288 -0.012365441 -0.031070558 -0.070999615
0001c0 eb a9 7d bc 3d e2 56 3d 5e 39 53 bd ca 32 a3 bb
       -0.015482406 0.05246185 -0.05156838 -0.0049804198
0001d0 d7 ed bc bc 01 e6 1f 3d 78 fe 21 3c 37 57 ff 3c
       -0.02306263 0.03903771 0.00988733 0.031169517
0001e0 73 92 9e 3d d2 dc df bb 0a fd 9d bc d2 76 1b bd
       0.07742777 -0.0068317438 -0.019285697 -0.037955113
0001f0 f6 82 88 bc 51 ec ba 3b 09 3e 9d bc 77 7d 0d 3c
       -0.01666401 0.0057044406 -0.01919462 0.00863587
000200 82 02 11 3d 51 ce 92 3c 47 9e 36 bc 0a 32 5a bd
       0.035402782 0.017920645 -0.011146135 -0.053270377
000210 10 0f 57 3d 45 e1 84 3d 56 1c 00 bd c5 c7 21 3d
       0.0525046 0.06488279 -0.031277023 0.039497156
000220 a7 b7 3d 3c 0d 0c a3 bc fb 4a 55 bd 52 e2 79 3d
       0.011579431 -0.019903207 -0.05207346 0.06100685
000230 eb b9 89 3c 59 c5 7e 3c df ac c6 bb 40 25 21 bd
       0.016812285 0.015549981 -0.0060630883 -0.039342165
000240 4f ac 4c 3d 27 e6 90 bc 19 05 46 3c ee 3f 27 bd
       0.049969014 -0.01768787 0.012086176 -0.040832452
000250 25 c3 02 bd 0b 5a 76 3d c6 58 38 bd 72 99 49 3d
       -0.031924386 0.060144465 -0.045006536 0.049218602
000260 e4 19 00 3c 98 68 3a 3d b3 0d 8d bc d3 57 f3 bc
       0.007818673 0.045509905 -0.017218446 -0.029704964
000270 86 4d a7 bc b4 e1 11 3d 40 aa 83 3d 59 d0 80 3d
       -0.020422708 0.035615638 0.06428957 0.06289739
000280 36 e7 d7 bc c9 d4 2b 3d e2 de 02 bd 92 af 64 bd
       -0.026355367 0.041950975 -0.03195084 -0.0558315
000290 38 b8 08 3d 82 79 05 3d 10 ca 58 bd fe 85 3e 3d
       0.03337881 0.032586582 -0.052927077 0.046514504
0002a0 49 f8 6f 3d 49 41 f3 3c 04 7d 2b 3d 60 21 af bc
       0.058586393 0.029694216 0.04186727 -0.02137822
0002b0 35 1d 79 bd 41 a8 31 3c f7 26 12 3d 26 c1 a9 bc
       -0.06081887 0.0108433375 0.03568169 -0.020721983
0002c0 1c ff b1 bd f9 52 04 3d cf c8 1f bd 01 2b 46 3a
       -0.086912364 0.03230569 -0.039009865 0.00075595087
0002d0 35 d6 94 3c ea 4f 34 bd 71 fb 61 bd dd 99 01 3d
       0.018168548 -0.044021524 -0.055171434 0.031640876
0002e0 8e c8 32 3d 86 0a 89 3a bd cf 16 3d 3e 55 09 bd
       0.043648295 0.0010455407 0.03681921 -0.03352856
0002f0 3c c1 6b bd 85 f7 4c bd c2 3e 13 3d 4e 65 85 3b
       -0.05755733 -0.05004074 0.035948522 0.0040709144
000300 80 69 8e 3d e8 21 94 bd 1d 93 92 bd 39 d7 18 3d
       0.06953716 -0.072330296 -0.07156966 0.037314627
000310 59 ce 68 3d 6a ae d1 3c c0 d3 91 3d 2c 38 05 bd
       0.056837413 0.025595862 0.07120466 -0.032524273
000320 c1 5e 34 3d c0 31 54 bd fa c2 4a 3c c8 42 26 3d
       0.044035677 -0.051805258 0.012375588 0.04059103
000330 9f bf 69 3d 6d bd a5 bc 6a ed ff 3c f8 21 c1 bd
       0.05706751 -0.020231927 0.031241138 -0.09430307
000340 01 f5 ef 3b ca d5 a1 3b 67 76 a6 bd d4 fc 71 bc
       0.007322908 0.0049388157 -0.08128052 -0.014769752
000350 c6 10 59 bd 12 b2 ae 3b 18 b7 84 3d db 8c c5 3c
       -0.052994512 0.005331286 0.06480235 0.024115017
000360 3a d9 65 bc 8a 3b 0d 3d 46 cb 3c 3d 98 a5 51 3d
       -0.014028842 0.03448061 0.046092294 0.051183313
000370 7b b3 d0 bc a3 03 6f bb 2e cc 43 3d 9f e1 2d 3c
       -0.025476208 -0.0036470674 0.047802143 0.010612874
000380 4b f7 14 3d bf 5f 58 3c 13 e4 9f 3b 4c e8 52 3d
       0.03636865 0.013206421 0.0048794835 0.051491067
000390 0d e4 89 bc 4a 4e 84 3d 5b f6 48 bd fa b8 99 bd
       -0.016832376 0.06460245 -0.049063068 -0.075059846
0003a0 be 92 b3 3c ae a5 5e bc f3 b0 b0 bd 9c 47 be bc
       0.021920558 -0.013589306 -0.086275004 -0.023227505
0003b0 8d 6d b4 bb c7 09 53 3d 66 bd 81 3d 44 c8 d2 3c
       -0.0055062235 0.051522996 0.06334953 0.02573026
0003c0 64 f3 3b 3d 3a 09 36 bd 28 18 29 bd f7 4c 5b bd
       0.045886412 -0.044442393 -0.041282803 -0.053540196
0003d0 c7 5f 1b 3d 13 07 8d bd ad 0a 31 bb 32 bc 97 bd
       0.037933137 -0.06886115 -0.002701442 -0.07408942
0003e0 3f 9d 43 3d 1e 14 23 bd 3c 69 07 3d 03 9b e8 ba
       0.047757383 -0.039814107 0.033059344 -0.0017746392
0003f0 c4 76 62 bb 7b 88 b9 3d 00 6d 68 bc e3 a0 8f bd
       -0.0034555653 0.09059235 -0.014186144 -0.070131086

fc4.weight f4 [2, 256]
000000 04 00 83 bd 3e 2e 9c bc 7f bf e6 3c 36 52 df bd
       -0.06396487 -0.019065019 0.028167484 -0.10904352
000010 b6 da 48 3d 6a 75 07 be bf e0 d5 3d 77 4d 92 3b
       0.049036704 -0.13228384 0.104432575 0.004464801
000020 05 2b d8 3c 14 47 8f bd 9f ba 33 bb 2b 5f 51 3a
       0.0263877 -0.06995979 -0.0027424467 0.00079868984
000030 2e 7d 6a 3d fd f1 c1 3c 39 9b e7 bc 5e 7b 82 be
       0.057248287 0.02367496 -0.028272258 -0.25484747
000040 b7 45 2e 3c 18 d6 71 3c 86 4a 52 bc 21 ab f3 bc
       0.0106367385 0.014760517 -0.012835151 -0.029744687
000050 b6 12 94 be 5c 52 6b bc 99 16 2b bc 84 4c 85 bc
       -0.28920525 -0.014362898 -0.010442399 -0.016271837
000060 11 24 ad 3c 5c 6a 2c 3d a3 65 6f bd 7a 4c ca 3b
       0.021135362 0.04209362 -0.058446538 0.0061736675
000070 e2 3c 8a be f9 5d 5b 3d b7 b9 48 3d bf 08 3b bd
       -0.26999575 0.053556416 0.049005236 -0.045662638
000080 91 18 c6 3c ab 7d e4 3d 97 48 4b 3b b0 a1 dd 3c
       0.024181636 0.11156782 0.0031018609 0.027054638
000090 14 cb 85 3d 3c 52 dd bc a5 e8 7c bd eb 66 c2 3c
       0.06532875 -0.027016751 -0.061745305 0.023730716
0000a0 31 88 98 be ef 20 71 bc be f4 14 3d 0c ed 27 be
       -0.29791406 -0.014717325 0.036366217 -0.1639902
0000b0 09 26 1b 3d 2e 87 b6 3d 55 46 18 bd 8d 0a 5c 3d
       0.03787807 0.08912502 -0.03717645 0.053721
0000c0 e9 ad 94 3c 35 c2 e0 bb fa cf 82 3d dd a7 23 be
       0.018149333 -0.006859089 0.06387325 -0.15982004
0000d0 92 c9 44 3d 13 68 11 be 48 b4 15 ba e5 32 b0 bd
       0.048043795 -0.14199857 -0.0005710763 -0.08603457
0000e0 2d 79 27 3d 8b a2 70 bd 50 32 78 3c 4a 75 0e 3d
       0.040887047 -0.058748763 0.015148714 0.034779824
0000f0 ab 49 1b 3d 19 1f a3 bc e4 26 69 bd 1d 84 44 3d
       0.037912052 -0.01991229 -0.056921855 0.047977556
000100 bf 81 94 bc f1 11 d6 3c 44 6a 64 be 97 01 0d 3d
       -0.018128274 0.026131602 -0.22306162 0.034425344
000110 fd f5 2c 3d 80 53 19 be a6 0d 22 3d 78 39 6a be
       0.04222678 -0.14973259 0.039563797 -0.22873485
000120 a8 e9 a8 3c 3d 08 a3 3b f7 da d1 bb 61 34 0a 3d
       0.020619228 0.0049753473 -0.0064042765 0.03374136
000130 9a c1 74 3d 73 54 18 bd df 10 39 bd db 01 c4 3c
       0.059754945 -0.037189912 -0.045182105 0.023926666
000140 f4 67 5f 3d 53 31 41 3d cd ff 81 bd 6f a6 c0 3d
       0.054542497 0.04716618 -0.06347618 0.09406745
000150 7f c1 82 be 4b 4e 44 3b 9c 96 24 3b 10 5b f6 bd
       -0.2553825 0.0029953893 0.0025114184 -0.120290875
000160 3c 3c f4 3c ec 22 df bc 91 e6 3b 3c 4e de 06 3c
       0.029813878 -0.027238332 0.0114685455 0.0082317125
000170 8d 6f 65 bd aa 14 9b 3d 63 4c 65 3c f0 27 8b 3b
       -0.056014586 0.07572301 0.013995263 0.0042467043
000180 e3 2f 5d 3d 1a 52 da 3a 3a 33 a2 bc 04 b0 67 3b
       0.054000746 0.0016656548 -0.019799817 0.0035352716
000190 ed 7f 1e 3c cb 46 e4 3b 41 66 8b 3b f9 8f fd bb
       0.009674055 0.006966447 0.004254133 -0.00773811
0001a0 34 fc 0f 3d b2 18 3f be 46 1b f9 bd 9c ce bb bb
       0.03515263 -0.18661764 -0.12163405 -0.005731417
0001b0 3a e7 02 3d 25 55 61 bd ac 0f 1b 3c 9c 7d be 3c
       0.031958796 -0.05501284 0.009464186 0.023253255
0001c0 3e b8 cc bd 80 6c a9 bc 55 2e 5d bb c1 48 b0 bd
       -0.09996079 -0.02068162 -0.003374954 -0.08607627
0001d0 68 28 15 3d 93 5c 69 bd c6 3c 9c be b8 0a 28 be
       0.036415488 -0.05697305 -0.30515116 -0.16410339
0001e0 2e a5 38 bd 39 bd 68 3c 38 df 8c be 82 7a 5a be
       -0.045079403 0.01420527 -0.27514052 -0.21335796
0001f0 6d 55 c9 bd 44 bc 67 3d 0c 4e 6b 3d c3 9f 9e bd
       -0.09830747 0.05657603 0.05744748 -0.07745316
000200 ad 72 7c 3c 4e 1a ec 3c 9c 72 3e bc d7 57 36 bc
       0.0154082 0.028821137 -0.011624005 -0.011129341
000210 35 24 f3 bd 0d 22 5f bd 86 5f 57 3d 08 1c 65 3d
       -0.1187214 -0.054475833 0.052581333 0.055934936
000220 31 b9 71 3d fa 9c b6 bc 8c c3 a0 bd 57 a0 5b 3c
       0.059014503 -0.02229165 -0.078497976 0.013404927
000230 5d b4 5a 3d ab d6 52 3c 48 7a 19 3c e7 9e 85 bd
       0.053394664 0.012868564 0.009367533 -0.06524449
000240 ff 06 14 3d a1 ef 66 bd eb df 4f bc 0c ae 9f 3c
       0.036139484 -0.05638087 -0.012687664 0.019492172
000250 1b bc a7 bd ae 42 44 be 3a 1d 65 be 0e 4e d4 3b
       -0.08190175 -0.19166061 -0.2237443 0.0064790314
000260 53 ed 24 3d 32 63 b0 bc b3 05 34 3d 6d a6 80 3c
       0.040265393 -0.021531675 0.043950748 0.015704358
000270 c3 d0 14 be 02 a0 23 bd 7f 16 16 be ed 77 14 bd
       -0.14532761 -0.039947517 -0.14657019 -0.036247183
000280 c5 0e 2e bd fb 4d 67 3c 8c 61 0a bc 7c 0b 1c bd
       -0.042494554 0.014117713 -0.008446109 -0.03809689
000290 3e 3e 46 be 9d 4f b9 bd ac 03 c4 bd de fa 6c bd
       -0.19359681 -0.09048388 -0.09571013 -0.057856433
0002a0 0d 18 59 3c 20 e6 50 3d bf de 74 3d d6 1e 83 bd
       0.013250363 0.051000714 0.05978274 -0.06402366
0002b0 f3 04 a9 3c fd eb e1 3c 4c 26 93 bc c3 9b 0b 3d
       0.020632243 0.027578348 -0.017962597 0.034084093
0002c0 b5 42 15 3d 0e 47 9b bd fa 2f 9c bc 9d f5 1a 3d
       0.03644057 -0.07581912 -0.019065846 0.03783189
0002d0 87 d2 80 3d b5 a6 1c 3d f4 6f f8 3c 85 ca d1 3c
       0.06290155 0.03824492 0.03032682 0.025609264
0002e0 56 35 a3 bd 38 14 92 3b 38 b1 56 be 97 c1 6c 3d
       -0.079691574 0.0044579767 -0.20966041 0.05780181
0002f0 e4 59 55 3d d8 90 92 bd b1 31 bb bd 1e fe 09 bc
       0.05208768 -0.07156533 -0.09140337 -0.008422403
000300 8e 4c 52 bd 7e 42 07 3d 9a 03 0e 3d e1 10 c3 3c
       -0.05134254 0.033022396 0.034671403 0.02381176
000310 2b 4a c2 bb 00 0d 03 bb f4 c4 8f bc ab 9e 9e 3d
       -0.0059292517 -0.0019996762 -0.01754997 0.07745107
000320 10 38 5b bd 64 d3 52 3d 34 b5 97 3c 10 de 04 bd
       -0.053520262 0.05147113 0.018519022 -0.032438338
000330 28 44 81 3d 62 90 80 bd 65 ac 81 bd 23 7c b4 3c
       0.06311828 -0.06277539 -0.0633171 0.02203185
000340 d6 87 1b 3c fd 46 fb bd 4a 0b 09 3d 76 e8 1b 3d
       0.009492835 -0.12269399 0.03345803 0.03806349
000350 da cf da 3c 1c 07 1c 3d 78 a9 62 bd 1e bd 57 bd
       0.02671044 0.038092718 -0.0553374 -0.05267059
000360 07 11 9f be 2f db 1b 3d 20 b0 1a 3d 89 f1 62 3d
       -0.31067678 0.038050827 0.037765622 0.055406127
000370 dc c1 8e 3b ea 0c 15 3d 90 87 f2 bd 65 4b ad 3c
       0.004356606 0.03638927 -0.11842263 0.021154115
000380 0b 32 ab bd 97 2b a7 3c 72 45 b4 3c 1a a6 00 be
       -0.08359154 0.020406527 0.02200577 -0.12563363
000390 53 04 2b 3d 96 44 d2 bc b1 4d fe 3c cc 40 92 3c
       0.04175217 -0.02566747 0.031042906 0.017853163
0003a0 eb e3 3c 3c 79 4f 15 bb 31 32 0f 3d c2 20 86 3d
       0.011528949 -0.0022782965 0.034959976 0.06549217
0003b0 be bb 06 be 07 53 b4 3c 42 7a 7d be ba d8 02 be
       -0.13157555 0.022012247 -0.24753669 -0.12777987
0003c0 db e2 4c 3d 47 74 a6 3c da 13 fe bb f3 36 af 3d
       0.050021034 0.020319117 -0.0077538313 0.085554026
0003d0 4d ae 59 3d a1 e6 87 bd ee c6 1c bc 8a 89 dd 3c
       0.05314474 -0.06635786 -0.009568913 0.027043123
0003e0 85 41 41 3a da 4e 12 bd 1b 22 56 bc ee 4a 0d be
       0.0007372129 -0.03571973 -0.013069655 -0.13798115
0003f0 13 48 00 bd 15 29 a0 bd 68 69 9f b9 f3 f1 6c 3d
       -0.031318735 -0.07820336 -0.00030405377 0.05784793

fc4.bias f4 [2]
000000 2e cd 6c bd 86 d9 24 3d
       -0.057812862 0.04024651
