wn_snn.pth (torch, 578014 bytes, 8 tensors)

fc1.weight f4 [256, 40]
0.11826169 -0.018678185 -0.12471103 -0.096572466 0.06680557 0.110865235 0.14869165 -0.0055561513
0.11991576 0.007778493 -0.07478561 -0.0888657 -0.064435236 -0.020737465 0.119558156 -0.009247026
0.06540175 -0.14486293 0.1280179 -0.09786269 -0.11793864 0.079935916 -0.11900229 0.024743088
-0.124588 -0.15356518 -0.19333494 -0.0825605 0.012737456 -0.058842808 0.1506734 0.12881176
0.05719505 0.16763942 0.14303294 -0.10995913 -0.0057792994 0.0047809733 -0.06983143 -0.009963647
-0.11885833 -0.09645024 -0.040889677 0.0469704 0.052477404 0.054896392 0.18894374 0.049452823
0.10933824 0.02464901 -0.13340276 0.09021115 -0.08646185 -0.021292826 0.06094408 -0.10375187
0.044971094 -0.03592508 -0.06519958 -0.07072921 0.096008085 -0.11660368 0.045249227 -0.037820917
-0.15100524 0.1115953 0.0044303183 -0.08993246 -0.20725921 -0.028564671 0.028879717 -0.003775223
-0.024966693 0.11691533 0.18774554 -0.043973524 0.1309849 0.08501195 -0.09609848 -0.13806616
-0.053604566 -0.10550103 -0.20921116 0.07837464 -0.020741047 -0.16173175 -0.083164796 0.0060142963
-0.115337424 -0.0061242925 0.0107173715 -0.01676316 0.03514289 0.015307201 0.16036478 0.015585084
-0.0475736 0.03691793 -0.14320123 -0.11914675 -0.11240196 -0.14438184 -0.04685537 -0.20286372
0.10925902 -0.08223121 0.103281274 0.065451294 0.05532185 -0.027307928 0.17245314 0.17886384
0.15145461 0.02848712 -0.10596192 -0.07377888 0.151939 0.011880159 0.040611167 0.050133836
5.9871236e-06 -0.045229312 0.051853564 0.05847714 -0.10374194 -0.041097447 0.06308761 -0.0031989375
0.040057026 0.0747513 -0.09573496 0.08290069 -0.110534616 -0.0636626 0.007037762 0.003344088
0.15695733 -0.11649271 0.13742736 -0.031686444 0.16294281 -0.052819777 0.09661208 0.0959339
0.09968122 0.141787 -0.14680597 -0.11224545 -0.14660782 -0.016086197 -0.011044 0.041850798
0.12417989 0.11940095 0.13697349 -0.07267212 0.03221372 0.06133158 -0.022024157 -0.024752269
-0.046233516 0.16757457 0.15936658 -0.05099571 0.10033553 -0.0060956394 0.02992386 0.06078133
0.09425186 -0.115813516 -0.025602112 -0.021625025 0.19322336 0.085843965 -0.07701952 -0.014269725
-0.029895678 -0.054062065 -0.013502085 -0.041136164 0.054129776 -0.11889369 0.1151632 0.100328036
0.15268002 -0.01734823 0.10703681 -0.0065398603 0.10462954 -0.09675828 0.011774851 0.071715996
-0.12908757 -0.048993684 0.03956476 -0.14964077 -0.13031135 -0.028882233 0.13095585 0.035528366
0.03725428 0.057650145 -0.038154878 -0.092485234 0.11892317 0.054606225 -0.12002465 0.021519724
0.025926126 0.104004234 0.0018411838 0.1602333 0.008127763 0.12874876 0.14522256 -0.07204067
-0.02635135 -0.08858392 0.07902396 0.006116756 0.10661588 0.16486765 -0.030410537 0.13211069
-0.13831079 -0.043097794 -0.022789383 0.08700873 0.004510889 -0.1546524 -0.15986006 0.04689375
-0.010589538 0.10049265 -0.044200245 0.064184465 0.084136605 -0.083270915 -0.011228221 0.0023732218
-0.11215646 -0.15891829 -0.054079957 -0.1941158 -0.14360483 0.065942906 -0.0031465378 0.061528116
-0.030024923 -0.093598284 0.07932595 -0.116476394 0.10540157 0.119167484 0.09385085 -0.11359544
00000000: 2f33 f23d fe02 99bc 7f68 ffbd c9c7 c5bd
00000010: 5cd1 883d 500d e33d a042 183e 6010 b6bb
00000020: 6596 f53d bbe2 fe3b 3329 99bd 38ff b5bd
00000030: 9ff6 83bd 9ee1 a9bc e8da f43d d780 17bc
00000040: 5af1 853d f356 14be 2017 033e 3c6c c8bd
00000050: d089 f1bd 71b5 a33d 79b7 f3bd 04b2 ca3c
00000060: fe27 ffbd 3140 1dbe 98f9 45be 7b15 a9bd
00000070: c3b0 503c 2805 71bd 214a 1a3e 3be7 033e
00000080: 5b45 6a3d aba9 2b3e 3a77 123e 4132 e1bd
00000090: 4760 bdbb b6a9 9c3b c803 8fbd 913e 23bc
000000a0: ff6b f3bd b487 c5bd ef7b 27bd 0964 403d
000000b0: 8cf2 563d 0adb 603d 787a 413e 0b8f 4a3d
000000c0: baec df3d b8ec c93c bc9a 08be a0c0 b83d
000000d0: e912 b1bd 4b6e aebc 80a0 793d dc7b d4bd
000000e0: 9c33 383d 2d26 13bd 5b87 85bd 7ada 90bd
000000f0: e39f c43d e9cd eebd 4157 393d 1bea 1abd
00000100: 1ea1 1abe 148c e43d 342c 913b 822e b8bd
00000110: c23b 54be 7500 eabc 2895 ec3c bb69 77bb
00000120: f386 ccbc 4e71 ef3d 5e40 403e 951d 34bd
00000130: e820 063e bf1a ae3d 48cf c4bd 3761 0dbe
00000140: 7690 5bbd ed10 d8bd 733b 56be e282 a03d
00000150: 21e9 a9bc 029d 25be 4e52 aabd 9313 c53b
00000160: 0736 ecbd 4aae c8bb ea97 2f3c e552 89bc
00000170: fef1 0f3d 0ecb 7a3c aa36 243e 9558 7f3c
00000180: 89dc 42bd 4137 173d 58a3 12be 3603 f4bd
00000190: 0033 e6bd d5d8 13be 6beb 3fbd 82bb 4fbe
000001a0: 31c3 df3d d668 a8bd 2285 d33d 540b 863d
000001b0: 2a99 623d e0b4 dfbc 8e97 303e 1528 373e
000001c0: eb16 1b3e d25d e93c 9002 d9bd 6219 97bd
000001d0: e695 1b3e 00a5 423c e557 263d 2359 4d3d
000001e0: 00e5 c836 5f42 39bd 6764 543d ba85 6f3d
000001f0: a776 d4bd cc55 28bd 1434 813d 44a5 51bb
00000200: d612 243d 3617 993d b110 c4bd d6c7 a93d
00000210: f95f e2bd 8a61 82bd 079d e63b 7d28 5b3b
00000220: 6cb9 203e bb93 eebd c2b9 0c3e a5c9 01bd
00000230: 7bda 263e 8d59 58bd 8edc c53d fe78 c43d
00000240: ab25 cc3d 9c30 113e 4e54 16be f1e0 e5bd
00000250: 5c20 16be 33c7 83bc e5f1 34bc be6b 2b3d
00000260: 0752 fe3d 7c88 f43d c742 0c3e 1fd5 94bd
00000270: 89f2 033d d336 7b3d 016c b4bc 45c5 cabc
00000280: 5b5f 3dbd ab98 2b3e fe30 233e e1e0 50bd
00000290: b77c cd3d eebd c7bb e222 f53c d8f5 783d
000002a0: 1f07 c13d a32f edbd 85bb d1bc f726 b1bc
000002b0: 58dc 453e f6ce af3d 69bc 9dbd 91cb 69bc
000002c0: c8e7 f4bc 2f70 5dbd d937 5dbc 657e 28bd
000002d0: 2fb7 5d3d 897e f3bd afda eb3d c978 cd3d
000002e0: 2758 1c3e e01d 8ebc 1d36 db3d 534c d6bb
000002f0: 0348 d63d 3529 c6bd 4eeb 403c d6df 923d
00000300: 882f 04be 9aad 48bd a80e 223d 6e3b 19be
00000310: 5770 05be 6f9a ecbc 4a19 063e 3186 113d
00000320: f297 183d 8f22 6c3d 4a48 1cbd e668 bdbd
00000330: fe8d f33d c7aa 5f3d 7ccf f5bd 224a b03c
00000340: 0763 d43c 2c00 d53d e053 f13a 3314 243e
00000350: 4f2a 053c b7d6 033e 39b5 143e 0f8a 93bd
00000360: c9de d7bc 7c6b b5bd 50d7 a13d 116f c83b
00000370: 6d59 da3d 11d3 283e 851f f9bc 0648 073e
00000380: 58a1 0dbe 5087 30bd cdb0 babc a231 b23d
00000390: 14d0 933b 335d 1ebe 5bb2 23be a913 403d
000003a0: be7f 2dbc 17cf cd3d 510b 35bd 2573 833d
000003b0: d04f ac3d f189 aabd 92f6 37bc 0e88 1b3b
000003c0: 49b2 e5bd 7abb 22be f282 5dbd 4bc6 46be
000003d0: 250d 13be 130d 873d 2536 4ebb e804 7c3d
000003e0: d4f6 f5bc 75b0 bfbd a575 a23d 2d8b eebd
000003f0: c7dc d73d 150e f43d e034 c03d baa4 e8bd

fc1.bias f4 [256]
0.12347711 0.16545449 -0.045264672 0.06346769 0.118547484 -0.07721731 0.016342742 -0.058773603
-0.12178 -0.05271313 0.15890883 0.1091142 0.14061841 -0.05782717 -0.022325572 0.14145166
-0.051178984 0.107486226 0.1324923 -0.09492608 0.081782155 -0.02516636 -0.063252844 0.071065575
-0.053810805 0.08659761 -0.09329446 0.11845363 -0.039326575 -0.10973001 0.12672174 -0.12288502
-0.057263434 0.093135394 0.09724794 0.15226707 -0.035987213 0.0433009 -0.15399827 0.14575692
-0.03433246 0.15646239 -1.2158242e-05 0.045146935 0.14544076 0.08036923 -0.05196166 0.16715541
0.008432529 -0.054047793 -0.0032653175 -0.04387572 0.10959949 0.14614934 0.008470279 0.012926758
0.16065928 0.15153386 -0.058305647 0.13087814 0.15365413 -0.0711254 -0.05454317 0.14268698
0.17961587 -0.08100144 -0.045938093 -0.0068927538 -0.010614662 0.07845121 0.16933335 0.13543782
0.055994246 0.11864275 -0.043030642 0.020279437 0.051388588 -0.08001953 0.021112725 -0.020373467
-0.072937205 -0.119059496 0.032140184 -0.08285304 0.020731037 -0.06698621 0.121378966 -0.037488043
0.013264325 0.013411254 -0.09907471 0.04093001 0.019889567 -0.08235663 0.09705622 -0.12550798
-0.03369756 -0.09037228 0.118901886 0.15782268 -0.08969283 0.073078595 0.18790701 -0.017770782
0.038149815 -0.17540294 0.027978502 0.08711856 -0.12563497 -0.014966594 0.040246077 -0.12983997
0.15926918 0.09270189 0.18372959 -0.0961833 0.098189466 0.07731672 -0.12947005 0.0033183377
-0.061564792 0.0141015425 0.077969916 0.17560713 0.08858421 -0.052797902 0.15375808 0.012366892
0.05605906 -0.042764205 -0.036517434 0.038962327 -0.108172186 -0.06970363 0.11119183 0.11778249
-0.08172472 -0.0011942523 -0.103654295 -0.108090445 0.045013964 0.014818197 -0.1015248 0.1368009
-0.04300569 -0.11257604 -0.052554328 -0.06770438 0.14355703 0.06727288 0.03280576 0.000968238
-0.020996742 0.029849079 0.03446681 -0.09734165 -0.12906913 -0.0900243 0.102198124 0.15458305
0.12540247 0.13153668 -0.007848994 0.0040402752 -0.14519258 -0.10154892 0.11064555 0.16424708
-0.02728208 -0.026858611 0.053304475 -0.105832875 0.12006014 -0.05692283 -0.01033793 -0.016289067
0.15062028 -0.07187796 0.07522843 0.16107255 0.077165775 0.0643523 -0.11175607 0.08700756
0.02715547 -0.144401 0.0935034 -0.081100546 0.20033826 -0.06977165 0.026446763 -0.012102398
0.07790329 -0.11344016 -0.032897953 0.03408389 0.012848855 0.16106908 -0.12274074 -0.050861698
0.16485135 0.06344827 0.094491966 -0.0059412876 0.14034045 0.11918022 -0.091181695 -0.10776096
-0.13914436 0.16546983 0.078845136 0.055807944 0.15540814 -0.14335185 0.12578855 -0.11439348
0.023642084 0.035064075 0.114226125 0.036421843 -0.0041609723 0.0064326753 0.039415188 0.056312073
0.009046343 0.10833319 -0.057239924 -0.056921765 0.047086995 -0.025013436 0.011545248 0.08585286
0.07635112 0.066954054 -0.08746059 -0.07857935 0.093327686 0.036799964 0.07269519 -0.1286876
0.17053169 -0.046664875 -0.096370324 -0.115671754 0.12506928 0.038419753 0.14514743 0.15788731
-0.113223456 0.023633424 0.19115455 -0.11640377 -0.100416794 -0.022847662 0.0789584 0.032330737
00000000: 91e1 fc3d e76c 293e 7367 39bd 59fb 813d
00000010: 06c9 f23d 1c24 9ebd 37e1 853c 97bc 70bd
00000020: cb67 f9bd b9e9 57bd ffb8 223e 4477 df3d
00000030: 46fe 0f3e 2fdc 6cbd 1ee4 b6bc b4d8 103e
00000040: 0ea1 51bd bd21 dc3d 10ac 073e 9b68 c2bd
00000050: 677d a73d af29 cebc b58a 81bd d48a 913d
00000060: b868 5cbd 165a b13d 2a11 bfbd d197 f23d
00000070: e714 21bd 21ba e0bd 58c3 013e 24ab fbbd
00000080: 108d 6abd c5bd be3d ee29 c73d e6eb 1b3e
00000090: 5467 13bd 495c 313d b9b1 1dbe 4d41 153e
000000a0: 32a0 0cbd ad37 203e 40fb 4bb7 feeb 383d
000000b0: 6cee 143e 9f98 a43d c0d5 54bd ca2a 2b3e
000000c0: 9728 0a3c 3861 5dbd f0fe 55bb 07b7 33bd
000000d0: b375 e03d 2ca8 153e edc6 0a3c c1ca 533c
000000e0: de83 243e b12b 1b3e e7d1 6ebd eb04 063e
000000f0: 8257 1d3e 32aa 91bd a968 5fbd 891c 123e
00000100: 39ed 373e 15e4 a5bd 9529 3cbd 9cdc e1bb
00000110: 1fe9 2dbc 07ab a03d b965 2d3e 36b0 0a3e
00000120: 395a 653d f8fa f23d e640 30bd 1021 a63c
00000130: d77c 523d 48e1 a3bd 98f4 ac3c 42e6 a6bc
00000140: 1a60 95bd 77d5 f3bd 6da5 033d dbae a9bd
00000150: 23d4 a93c 1130 89bd 8995 f83d 108d 19bd
00000160: 9d52 593c e0ba 5b3c aee7 cabd 3aa6 273d
00000170: 72ef a23c 98aa a8bd 69c5 c63d 2a85 00be
00000180: 7406 0abd 1a15 b9bd d582 f33d 459c 213e
00000190: e0b0 b7bd 3baa 953d b26a 403e 0894 91bc
000001a0: fb42 1c3d d49c 33be 2c33 e53c 376b b23d
000001b0: 74a6 00be 7236 75bc 12d9 243d c5f4 04be
000001c0: 7617 233e 7dda bd3d 9c23 3c3e c0fb c4bd
000001d0: 8f17 c93d 3a58 9e3d cc93 04be 7878 593b
000001e0: 5d2b 7cbd 280a 673c b1ae 9f3d 5bd2 333e
000001f0: a36b b53d 9d42 58bd c272 1d3e 819e 4a3c
00000200: 2f9e 653d 8529 2fbd 4e93 15bd f696 1f3d
00000210: 6189 ddbd c7c0 8ebd 8bb8 e33d f237 f13d
00000220: 4a5f a7bd 7588 9cba b448 d4bd 865e ddbd
00000230: 9060 383d 06c8 723c 3cec cfbd 8915 0c3e
00000240: bc26 30bd 448e e6bd 3543 57bd 98a8 8abd
00000250: 9d00 133e 5dc6 893d 555f 063d 5ad1 7d3a
00000260: 5c01 acbc 0e86 f43c 122d 0d3d 0f5b c7bd
00000270: b32a 04be a95e b8bd 404d d13d 054b 1e3e
00000280: 8169 003e 8db1 063e 1199 00bc 4964 843b
00000290: 5dad 14be e1f8 cfbd 229a e23d 6330 283e
000002a0: ab7e dfbc 9706 dcbc cb55 5a3d e8be d8bd
000002b0: 17e2 f53d ea27 69bd 6c60 29bc a670 85bc
000002c0: 343c 1a3e c034 93bd 5d11 9a3d 34f0 243e
000002d0: 1709 9e3d 23cb 833d 5ee0 e4bd 0531 b23d
000002e0: 2675 de3c dbdd 13be b67e bf3d 0b18 a6bd
000002f0: 7925 4d3e 70e4 8ebd e2a6 d83c 2349 46bc
00000300: c38b 9f3d 5153 e8bd 01c0 06bd 8d9b 0b3d
00000310: 0184 523c 4bef 243e 7f5f fbbd 5b54 50bd
00000320: cbce 283e 2bf1 813d 0185 c13d 22af c2bb
00000330: 68b5 0f3e c214 f43d 78bd babd c7b1 dcbd
00000340: dc7b 0ebe ec70 293e 8f79 a13d df96 643d
00000350: 5023 1f3e d4ca 12be b7ce 003e 2147 eabd
00000360: 0bad c13c 599f 0f3d 63ef e93d 122f 153d
00000370: c458 88bb 31c9 d23b d271 213d 7da7 663d
00000380: 1d37 143c cbdd dd3d 6974 6abd cc26 69bd
00000390: 4bde 403d fae8 ccbc 4828 3d3c a0d3 af3d
000003a0: fa5d 9c3d 351f 893d 8a1e b3bd 36ee a0bd
000003b0: 9622 bf3d 8fbb 163d 37e1 943d afc6 03be
000003c0: dc9f 2e3e ab23 3fbd ce5d c5bd 50e5 ecbd
000003d0: 2912 003e 085e 1d3d 87a1 143e 36ad 213e
000003e0: b3e1 e7bd e29a c13c 05be 433e 1a65 eebd
000003f0: 52a7 cdbd 052b bbbc f1b4 a13d 3c6d 043d

fc2.weight f4 [256, 256]
0.034936484 -0.008257703 -0.032169066 -0.0051456424 -0.07660821 0.0055012424 0.019189097 0.00060038746
0.04208337 -0.07805961 0.015068422 0.026967512 -0.041513734 0.050614405 0.06470368 0.033523288
0.021194203 -0.020190386 0.021143964 0.015603478 -0.02977951 -0.0748351 -0.016514787 -0.03610198
-0.006732243 0.015743362 -0.05853981 0.10411589 -0.020303208 -0.059188377 -0.019471275 -0.028829748
-0.095680796 -0.0580028 -0.06370476 -0.088752955 -8.0331214e-05 -0.008685649 -0.045382425 -0.011433083
0.03048977 0.0041966005 0.0279593 -0.023896761 -0.028848493 -0.025826564 0.018318094 0.014563433
-0.013062246 0.010183218 0.0614421 -0.042450834 -0.0418916 0.012612716 0.04093339 -0.07751291
-0.026799427 0.012580484 -0.00046565323 0.036477964 0.017260363 -0.020334562 -0.009138784 -0.059499115
-0.08540321 -0.030711278 -0.022870617 -0.08701662 0.013753146 0.04043528 0.020753194 0.027115522
-0.0024702335 0.041504167 -0.04495964 0.021731831 -0.06342962 -0.041173186 0.009242992 0.010639872
0.031360988 0.008565418 -0.04220632 -0.05539842 -0.012912628 -0.026185747 0.037109658 -0.02458302
-0.047656484 -0.00916935 -0.040791333 -0.08802203 -0.018396903 0.05946443 -0.06413621 -0.036117114
0.019798566 -0.08370757 -0.011458483 0.015154947 -0.01018659 0.018824877 -0.028314624 0.0075982986
-0.01945243 0.012775151 -0.07931905 0.023854164 0.013140355 -0.08089197 0.007118073 0.027625477
-0.017397784 0.028441485 -0.019081207 -0.02396381 -0.0323082 -0.042297848 -0.052960485 0.03735103
-0.067256965 -0.026217688 -0.07019216 -0.0059885257 0.021335287 0.061700627 0.0046913614 -0.01691643
-0.0071565257 -0.074131966 0.055226576 -0.08224444 0.015743108 -0.062020276 0.008762065 -0.052310422
-0.03213402 -0.071881115 0.0013749502 -0.06498025 -0.043992687 -0.015238458 -0.007788121 0.034598235
0.005840419 -0.02311646 -0.07246704 -0.023891727 -0.06765951 -0.04958371 0.007238825 0.029904159
0.025102641 0.011745328 -0.06089778 -0.053143296 -0.041757524 -0.021580288 -0.029366022 0.042846017
0.030835746 0.027627235 -0.043710537 -0.098171495 -0.009302328 0.00448586 -0.04304328 -0.02541225
0.062038638 0.07176935 0.019993084 0.030369088 -0.055433806 -0.0590102 0.008304261 0.027912641
-0.05435915 0.014798973 0.052335728 -0.027582899 -0.011073927 -0.024609827 -0.0040507615 -0.0011785108
-0.036371112 0.052671343 -0.05235752 -0.034916572 -0.043217782 0.05121678 -0.05155794 -0.033246268
0.013304567 0.0354472 -0.053170145 -0.018795412 -0.056618348 -0.057648055 0.04049897 0.020641392
-0.019752268 -0.05680884 0.024301432 -0.02716889 -0.068123035 0.009530945 0.018859142 -0.042520996
0.049304157 -0.046700384 -0.08470505 0.044208217 0.004247748 0.028257668 -0.009134329 -0.003286925
0.023790367 -0.004695993 -0.021420157 -0.02259982 -0.067327976 -0.03422936 -0.005405703 -0.03812846
-0.01625076 0.026117042 -0.071650706 -0.026626062 0.0055157635 -0.066875525 -0.013847057 -0.017394625
0.019137423 -0.008650738 -0.090752125 -0.082554355 -0.046205144 -0.039672192 -0.049194526 -0.025533147
0.041062 0.0167866 -0.058607623 -0.03107133 -0.0357582 -0.062413245 -0.025977498 -0.051120155
0.052929677 0.017356016 -0.036979835 -0.00736071 -0.012789084 0.0628913 -0.01770218 -0.085144795
00000000: 8f19 0f3d 514b 07bc b6c3 03bd c79c a8bb
00000010: c4e4 9cbd c443 b43b 7432 9d3c 5263 1d3a
00000020: 9d5f 2c3d b8dd 9fbd 8be1 763c f9ea dc3c
00000030: 4e0a 2abd 0d51 4f3d 5d83 843d b74f 093d
00000040: 779f ad3c 4f66 a5bc 1b36 ad3c bba5 7f3c
00000050: 29f4 f3bc 2543 99bd 054a 87bc abdf 13bd
00000060: 269a dcbb 39f8 803c 71c7 6fbd b63a d53d
00000070: ea52 a6bc 836f 72bd 3982 9fbc 5d2c ecbc
00000080: 4bf4 c3bd 5894 6dbd a477 82bd 1cc4 b5bd
00000090: 7e77 a8b8 414e 0ebc ece2 39bd d351 3bbc
000000a0: afc5 f93c a383 893b e70a e53c 24c3 c3bc
000000b0: ad53 ecbc 3b92 d3bc d40f 963c 779b 6e3c
000000c0: 0803 56bc 83d7 263c b6aa 7b3d ede0 2dbd
000000d0: 8796 2bbd 91a5 4e3c c5a9 273d 17bf 9ebd
000000e0: 798a dbbc 601e 4e3c eb22 f4b9 eb69 153d
000000f0: 9b65 8d3c ab94 a6bc d7ba 15bc 58b5 73bd
00000100: e1e7 aebd 3896 fbbc 295b bbbc c535 b2bd
00000110: e054 613c 779f 253d 9a02 aa3c 5f21 de3c
00000120: a4e3 21bb 4600 2a3d 9927 38bd f406 b23c
00000130: 63e7 81bd 37a5 28bd eb6f 173c dc52 2e3c
00000140: 6174 003d f855 0c3c 89e0 2cbd 74e9 62bd
00000150: 7d8f 53bc 7e83 d6bc 4c00 183d 5462 c9bc
00000160: 7233 43bd 0b3b 16bc d014 27bd e544 b4bd
00000170: 1ab5 96bc f990 733d d859 83bd 8aef 13bd
00000180: 9a30 a23c e06e abbd 5cbc 3bbc 744c 783c
00000190: a8e5 26bc a136 9a3c 12f4 e7bc 26fb f83b
000001a0: b45a 9fbc de4e 513c 0772 a2bd cf69 c33c
000001b0: a54a 573c b0aa a5bd b93e e93b d34e e23c
000001c0: cc85 8ebc 1efe e83c 3150 9cbc c14f c4bc
000001d0: 9a55 04bd 8240 2dbd 18ed 58bd 65fd 183d
000001e0: 05be 89bd 7ac6 d6bc e8c0 8fbd 653b c4bb
000001f0: 57c7 ae3c ccb9 7c3d feb9 993b 5394 8abc
00000200: 4a81 eabb 80d2 97bd 4335 623d c66f a8bd
00000210: b1f7 803c f908 7ebd c48e 0f3c 7443 56bd
00000220: f69e 03bd 6836 93bd ac37 b43a 5e14 85bd
00000230: ad31 34bd baaa 79bc 7e33 ffbb e1b6 0d3d
00000240: fc60 bf3b bb5e bdbc 9969 94bd 95b8 c3bc
00000250: 1291 8abd 4a18 4bbd aa33 ed3b 91f9 f43c
00000260: 0ea4 cd3c 7a6f 403c f36f 79bd c9ac 59bd
00000270: f009 2bbd 25c9 b0bc 0391 f0bc 4e7f 2f3d
00000280: 3f9b fc3c 8352 e23c d209 33bd 230e c9bd
00000290: cb68 18bc 1ffe 923b 264e 30bd 5a2d d0bc
000002a0: 3a1c 7e3d cffb 923d 89c8 a33c 98c8 f83c
000002b0: 8f0e 63bd aeb4 71bd 980e 083c 0da9 e43c
000002c0: b3a7 5ebd 6477 723c fd5d 563d 88f5 e1bc
000002d0: 6b6f 35bc 8c9a c9bc 40bc 84bb 4378 9aba
000002e0: e0f9 14bd e8bd 573d d774 56bd ae04 0fbd
000002f0: 2105 31bd b0c8 513d 6b2e 53bd 3d2d 08bd
00000300: 66fb 593c 1531 113d f0c8 59bd d6f8 99bc
00000310: a4e8 67bd 5e20 6cbd 3fe2 253d 2318 a93c
00000320: 82cf a1bc 63b0 68bd cc13 c73c 4b91 debc
00000330: 1784 8bbd ae27 1c3c 7d7e 9a3c 7f2a 2ebd
00000340: 28f3 493d e748 3fbd d779 adbd ad13 353d
00000350: b130 8b3b a07c e73c 27a8 15bc 7369 57bb
00000360: 04e4 c23c d8e0 99bb 5379 afbc 4223 b9bc
00000370: 40e3 89bd 1634 0cbd 5322 b1bb 972c 1cbd
00000380: 5020 85bc 68f3 d53c 9bbd 92bd e61e dabc
00000390: 94bd b43b 09f6 88bd c4de 62bc 2c7f 8ebc
000003a0: 16c6 9c3c d3bb 0dbc 40dc b9bd 4212 a9bd
000003b0: 9b41 3dbd 4f7f 22bd 3380 49bd e42a d1bc
000003c0: a130 283d 0d84 893c 8c0e 70bd 4d89 febc
000003d0: 3177 12bd 08a5 7fbd c3ce d4bc 5e63 51bd
000003e0: cacc 583d 342e 8e3c 2b78 17bd 1c32 f1bb
000003f0: 4e89 51bc 27cd 803d 2a04 91bc 6560 aebd

fc2.bias f4 [256]
-0.01603537 0.053999275 0.012682875 -0.00046240384 0.03284376 -0.0783027 -0.028973121 -0.032901842
-0.072797194 -0.039829515 0.06242713 -0.058536652 0.018662725 -0.041110534 0.06195687 0.052728996
-0.051411092 0.059097935 0.03096159 -0.030700264 0.008178725 -0.038844578 -0.022598136 0.058303416
-0.004493765 0.044702988 -0.053088892 0.048632883 -0.027678626 -0.035232604 -0.05605084 0.007994625
-0.022271529 -0.0068092416 0.06021812 0.03554986 0.054335423 -0.014933904 0.037566487 -0.012602639
0.015879968 -0.015788177 0.017633697 -0.0054629794 -0.0033602084 -0.0101033095 0.009187452 0.07727984
-0.02779202 -0.048634287 0.036716845 0.059313517 -0.015447511 0.07374685 0.08245686 0.06371661
0.03949415 0.05561598 -0.032773122 0.0521441 -0.016861726 -0.0488233 -0.021483041 0.016844805
-0.025184918 -0.0021824653 0.00016816077 0.004515685 0.020768749 0.04593505 -0.024335217 0.005993454
0.039027013 0.038124878 0.0067304266 -0.03782046 0.042914636 -0.012145868 -0.041633468 -0.023688214
0.033253394 -0.043501552 0.022923766 0.019479051 0.036814217 -0.03920135 0.046869878 0.046184473
-0.020165334 -0.05455487 -0.0012834349 0.042210225 -0.005910835 0.07073057 0.0068274844 -0.047676723
-0.011121134 -0.037120476 -0.023551403 0.004019875 -0.061774425 0.004695025 -0.024899028 0.0073753926
-0.02623196 0.06267723 0.04206175 0.062073026 0.010395312 0.08487742 0.04619897 -0.05117594
0.0077969814 0.015262819 -0.025568549 -0.031758707 -0.02822767 -0.0397601 0.054131538 0.00093476096
0.055019893 0.06919748 -0.0388329 0.0032428892 0.025887478 -0.028684085 -0.009951778 -0.03291323
-0.053619 0.013546805 -0.003346092 -0.04864706 0.053909812 0.06761901 0.06621398 0.0010846148
-0.0029806201 0.061159927 0.049196266 -0.03980115 0.020301905 -0.038337935 0.07276992 0.017673034
0.019348146 -0.03624085 0.0025314556 0.04422447 0.05561454 -0.037709154 -0.0015371676 0.06883105
-0.02998218 0.026228184 0.039649136 -0.00039950843 0.009213406 0.07385191 0.042705797 0.04308852
0.039815776 -0.025495047 0.06366435 0.055331275 0.047165226 0.017725822 0.06838991 -0.0056859474
0.011476622 -0.06711251 -0.010074704 -0.06993226 0.027977947 0.00846726 0.0057448 0.06900619
0.011293562 0.06552587 0.014299603 0.045721415 0.011045284 -0.011050782 0.038808938 0.03304772
-0.021576772 -0.0022559173 0.030145578 -0.059457764 0.060386453 0.06937289 0.04713153 -0.056638096
-0.017517986 0.041557945 -0.0026872144 -0.017562786 0.033724498 -0.03311646 -0.02002722 -0.04936777
0.053195797 -0.058588248 -0.07936624 0.037983827 0.0033921744 -0.029931389 -0.03627212 0.033965066
0.0106248185 0.062240556 -0.06702121 -0.0016111688 0.065788575 0.010560435 -0.06151007 -0.045725416
0.05009987 -0.012785457 0.059913266 0.023971375 0.015111418 -0.04049752 -0.08340143 -0.038383003
0.063809454 0.03232699 -0.029142868 0.05389979 0.02827905 0.06775395 0.06831519 -0.054183394
-0.01914462 0.052604843 -0.019736461 -0.010562711 0.040018167 0.026625702 -0.0359206 0.056557857
0.03947485 -0.03590985 0.0072049997 -0.012766199 0.00393517 0.011146353 0.009981015 0.03522212
0.010718765 -0.07681874 -0.037532058 0.0191691 0.01589298 0.053928643 -0.046588056 -0.020678857
00000000: 9c5c 83bc 582e 5d3d d5cb 4f3c cb6e f2b9
00000010: 2e87 063d 2a5d a0bd 0a59 edbc 15c4 06bd
00000020: b216 95bd 4624 23bd 97b3 7f3d 21c4 6fbd
00000030: 92e2 983c 8563 28bd 7dc6 7d3d 5cfa 573d
00000040: 7094 52bd ad10 723d 29a3 fd3c 1f7f fbbc
00000050: 0f00 063c 7e1b 1fbd ba1f b9bc 90cf 6e3d
00000060: 6f40 93bb 7b1a 373d bd73 59bd 4633 473d
00000070: 49be e2bc 1050 10bd 9195 65bd e3fb 023c
00000080: c872 b6bc 0f20 dfbb 47a7 763d bb9c 113d
00000090: d28e 5e3d 55ad 74bc 51df 193d 4d7b 4ebc
000000a0: b516 823c 3556 81bc 8b74 903c cb02 b3bb
000000b0: f136 5cbb 5a88 25bc f786 163c e544 9e3d
000000c0: 17ac e3bc bf34 47bd 6764 163d bbf2 723d
000000d0: 8f17 7dbc 9708 973d 24df a83d db7d 823d
000000e0: 9ec4 213d 95cd 633d 1c3d 06bd 0d95 553d
000000f0: 9a21 8abc f1fa 47bd 34fd afbc 1efe 893c
00000100: 9a50 cebc b107 0fbb 5054 3039 50f8 933b
00000110: 3923 aa3c 6426 3c3d a65a c7bc bc64 c43b
00000120: cada 1f3d d528 1c3d e98a dc3b a0e9 1abd
00000130: 42c7 2f3d 76ff 46bc db87 2abd c90d c2bc
00000140: b634 083d af2e 32bd 9fca bb3c 8892 9f3c
00000150: 81ca 163d 9891 20bd a1fa 3f3d ee2b 3d3d
00000160: c531 a5bc ed74 5fbd ee38 a8ba a1e4 2c3d
00000170: aeaf c1bb 30db 903d 17b9 df3b ab48 43bd
00000180: 6b35 36bc a40b 18bd dfee c0bc 28b9 833b
00000190: 2e07 7dbd b9d8 993b 0cf9 cbbc 47ad f13b
000001a0: 68e4 d6bc eb5c 803d f148 2c3d 4940 7e3d
000001b0: 1951 2a3c 36d4 ad3d 223b 3d3d dd9d 51bd
000001c0: d27d ff3b e710 7a3c 2275 d1bc 6b15 02bd
000001d0: b73d e7bc 7ddb 22bd 08b9 5d3d bf0a 753a
000001e0: 8a5c 613d 69b7 8d3d 3f0f 1fbd a786 543b
000001f0: fa11 d43c e3fa eabc c80c 23bc 06d0 06bd
00000200: 999f 5bbd 6bf3 5d3c 1c4a 5bbb 2442 47bd
00000210: 89d0 5c3d d67b 8a3d 329b 873d a229 8e3a
00000220: 8256 43bb d582 7a3d 0682 493d 8806 23bd
00000230: 2e50 a63c 3d08 1dbd 6508 953d 0ac7 903c
00000240: 0180 9e3c 4971 14bd c7e6 253b b824 353d
00000250: 12cc 633d ea74 1abd c97a c9ba 4bf7 8c3d
00000260: 309d f5bc 7ddc d63c 2267 223d 1d75 d1b9
00000270: d3f3 163c ac3f 973d 46ec 2e3d 977d 303d
00000280: de15 233d fdda d0bc 7462 823d 0ca3 623d
00000290: 5330 413d be35 913c 0210 8c3d 2f51 babb
000002a0: 7108 3c3c 4972 89bd 5f10 25bc a538 8fbd
000002b0: 0232 e53c 43ba 0a3c e03e bc3b 1e53 8d3d
000002c0: a208 393c 6d32 863d e248 6a3c 6146 3b3d
000002d0: 47f7 343c 570e 35bc 1ff6 1e3d 0c5d 073d
000002e0: c5c1 b0bc 03d8 13bb dcf3 f63c fc89 73bd
000002f0: c957 773d 6013 8e3d fe0c 413d 59fd 67bd
00000300: e181 8fbc aa38 2a3d fa1b 30bb d5df 8fbc
00000310: b322 0a3d 20a5 07bd 2010 a4bc dc35 4abd
00000320: d6e3 593d 3bfa 6fbd c48a a2bd ee94 1b3d
00000330: 3e4f 5e3b ac32 f5bc 1392 14bd f41e 0b3d
00000340: b813 2e3c f4ef 7e3d 6b42 89bd db2d d3ba
00000350: 29bc 863d ad05 2d3c fcf1 7bbd 934a 3bbd
00000360: 8535 4d3d 187a 51bc 9d67 753d 9e5f c43c
00000370: e295 773c bae0 25bd 5ece aabd 7f37 1dbd
00000380: 88ae 823d 4e69 043d 06bd eebc 07c6 5c3d
00000390: 77a9 e73c 95c2 8a3d d6e8 8b3d 68ef 5dbd
000003a0: 2ed5 9cbc 2d78 573d 5cae a1bc 390f 2dbc
000003b0: 17ea 233d 251e da3c 7b21 13bd 36a9 673d
000003c0: 61b0 213d 3516 13bd eb17 ec3b 5229 51bc
000003d0: 99f2 803b 319f 363c 6987 233c 1245 103d
000003e0: c29d 2f3c 2553 9dbd 37bb 19bd 8408 9d3c
000003f0: ff31 823c 48e4 5c3d 1ed3 3ebd b566 a9bc

fc3.weight f4 [256, 256]
-0.0206479 0.044382975 0.030323701 0.010110078 -0.015370542 0.0139685115 0.047670454 -0.046459477
0.01673012 -0.0642921 -0.017576171 -0.041156437 0.038220055 -0.017100522 -0.02427837 -0.061293952
0.017285548 -0.05771481 0.033976987 0.03153708 0.0034818563 -0.06015844 0.033710614 -0.017867545
-0.07057655 -0.08740182 0.012680959 0.017563455 0.021771017 0.02086741 0.054639935 0.032541573
0.06695438 -0.048661813 0.030701818 -0.011819662 -0.10836578 -0.053706557 0.009826698 0.021101857
-0.053364046 -0.05460535 0.037969984 0.046034776 -0.023090664 -0.019062672 0.044694852 -0.005017879
-0.0073398324 0.016516492 -0.040671106 -0.036787402 0.034277536 -0.05941044 -0.04147077 0.02875186
-0.022900308 0.024642922 0.038090624 -0.017955627 0.058208805 0.00033069754 0.04157953 -0.033218354
0.056071192 -0.058838274 0.015682517 -0.020696739 -0.0542145 -0.017253006 -0.05023995 0.026074186
-0.03141671 0.05401768 -0.06135811 -0.03754216 -0.06105601 -0.0060314997 0.03895277 0.021494985
-0.0040307706 -0.021193769 0.045642436 0.0025944645 -0.04986594 -0.034695357 0.04707719 0.02434192
-0.05760258 -0.021609971 0.009206205 -0.0139194485 0.0161213 -0.07111059 -0.0023736432 -0.029522276
0.0050425204 0.012122376 0.009847193 -0.05292396 0.055618517 0.008905972 0.021906696 0.07260863
-0.032174006 0.043615103 -0.060369276 0.052391354 0.027784888 -0.016207052 0.021087525 -0.057876796
-0.02200125 -0.04519412 0.023895727 0.028498925 0.0067036627 -0.052690078 0.039317656 -0.017526675
0.020586796 0.026406849 -0.05140813 0.03677097 0.013106632 -0.0029883697 0.036492184 0.020544255
-0.009978604 -0.019828012 -0.018968223 0.05957131 -0.019983027 -0.035208594 -0.006004318 -0.060931876
-0.017510418 -0.04823765 -0.04884347 -0.019009015 0.027651127 -0.045492504 0.02135087 -0.06178509
3.4743236e-05 -0.0013967423 0.04643056 -0.041682817 -0.002838925 -0.051455166 0.03485829 0.039875474
-0.020849917 0.014868619 -0.0040113037 -0.015313548 0.027824381 -0.039864425 -0.058433335 0.0035053564
0.06109019 -0.058771644 -0.07344047 -0.017461821 -0.037500788 0.05105049 0.02359798 -0.010906851
-0.004946727 -0.0025026263 0.0016443328 0.010865687 -0.06303015 0.0072562215 0.016624987 -0.09502349
-0.010707697 0.008811537 -0.023865018 0.0465919 0.022134088 -0.02592643 0.04816149 -0.06380561
-0.05995183 -0.035234086 -0.021654377 -0.03801627 0.034050334 -0.047693737 0.036376208 -0.054221757
-0.032544255 0.034638315 -0.021852726 -0.0012428454 0.0031148673 0.045219243 0.005326137 0.017212354
-0.065057546 0.02894401 0.041768406 0.0065423967 0.047066074 0.0026518395 -0.052469414 -0.03286308
-0.02620691 -0.0020690013 -0.04136029 -0.07138257 -0.035890378 0.044770516 -0.024615424 0.019895347
-0.069917545 0.044105258 -0.061103586 -0.034410194 0.005790785 -0.041896503 0.024350451 -0.024613332
-0.018409306 -0.059845284 0.00637291 -0.035421684 -0.0028457553 -0.015355136 -0.0426285 -0.023435915
-0.0349684 0.022232944 -0.060410753 0.0154737 0.04128535 -0.02045933 -0.05320457 -0.074134484
-0.031109033 -0.020028552 -0.05361347 -0.014580846 -0.020301087 -0.0035852587 0.016280347 -0.030422688
-0.013910149 0.039981022 -0.04165367 -0.00782605 -0.033280004 -0.015054639 -0.007030954 -0.021094399
00000000: c925 a9bc ecca 353d 6969 f83c bea4 253c
00000010: bad4 7bbc 2fdc 643c 1842 433d 4b4c 3ebd
00000020: 9b0d 893c 94ab 83bd e7fb 8fbc a793 28bd
00000030: a28c 1c3d 6516 8cbc 6fe3 c6bc 5e0f 7bbd
00000040: 6c9a 8d3c 5d66 6cbd 742b 0b3d 062d 013d
00000050: db2f 643b b268 76bd 2414 0a3d f55e 92bc
00000060: 708a 90bd baff b2bd ccc3 4f3c 3ce1 8f3c
00000070: 2259 b23c 21f2 aa3c 20ce 5f3d 504a 053d
00000080: 611f 893d 9c51 47bd 6182 fb3c 41a7 41bc
00000090: e1ee ddbd 68fb 5bbd 2900 213c cddd ac3c
000000a0: 4294 5abd dca9 5fbd 6a86 1b3d f68e 3c3d
000000b0: a228 bdbc 5229 9cbc f311 373d 056d a4bb
000000c0: fa82 f0bb 984d 873c bf96 26bd 63ae 16bd
000000d0: 9a66 0c3d 5d58 73bd 41dd 29bd 0589 eb3c
000000e0: 6d99 bbbc f4df c93c ea04 1c3d ae17 93bc
000000f0: 5b6c 6e3d 7961 ad39 4c4f 2a3d f80f 08bd
00000100: e8aa 653d 6700 71bd 9f78 803c 358c a9bc
00000110: 0610 5ebd 2d56 8dbc 68c8 4dbd 8899 d53c
00000120: cfae 00bd a541 5d3d a452 7bbd cfc5 19bd
00000130: de15 7abd e3a3 c5bb f18c 1f3d 4016 b03c
00000140: 8e14 84bb 8e9e adbc 90f3 3a3d e407 2a3b
00000150: 3a40 4cbd b81c 0ebd 03d4 403d b568 c73c
00000160: aff0 6bbd 6507 b1bc 9fd5 163c 660e 64bc
00000170: d110 843c 6ea2 91bd 208f 1bbb b3d8 f1bc
00000180: ba3b a53b ee9c 463c 1f56 213c cbc6 58bd
00000190: 3ed0 633d 5bea 113c ac75 b33c d5b3 943d
000001a0: e4c8 03bd c0a5 323d c645 77bd 5198 563d
000001b0: 229d e33c a7c4 84bc bfbf ac3c 3810 6dbd
000001c0: f73b b4bc 781d 39bd f9c0 c33c 9476 e93c
000001d0: 66aa db3b 8dd1 57bd 8d0b 213d 1a94 8fbc
000001e0: a4a5 a83c 2d53 d83c 5591 52bd 289d 163d
000001f0: 33bd 563c 86d8 43bb d478 153d 6d4c a83c
00000200: 4c7d 23bc 5b6e a2bc 3f63 9bbc 0c01 743d
00000210: 72b3 a3bc e336 10bd dfbf c4bb b493 79bd
00000220: 0272 8fbc d894 45bd 1710 48bd cbb8 9bbc
00000230: 9e84 e23c 5956 3abd 05e8 ae3c 5d12 7dbd
00000240: 44b9 1138 e512 b7ba f92d 3e3d 9abb 2abd
00000250: 420d 3abb a7c2 52bd 91c7 0e3d 7754 233d
00000260: 72cd aabc 829b 733c 4171 83bb ade5 7abc
00000270: f5ef e33c e148 23bd cb57 6fbd 1fba 653b
00000280: b539 7a3d 89ba 70bd f567 96bd 180c 8fbc
00000290: 6d9a 19bd 521a 513d 8d50 c13c a6b2 32bc
000002a0: 2718 a2bb 1a03 24bb a786 d73a ff05 323c
000002b0: f415 81bd 99c5 ed3b 2031 883c ad9b c2bd
000002c0: 566f 2fbc 445e 103c 9280 c3bc 26d7 3e3d
000002d0: 8c52 b53c aa63 d4bc fc44 453d 84ac 82bd
000002e0: 0d90 75bd 9e51 10bd 8564 b1bc f3b6 1bbd
000002f0: 5d78 0b3d 825a 43bd 38ff 143d a217 5ebd
00000300: 204d 05bd e8e0 0d3d 7d04 b3bc f9e6 a2ba
00000310: cd22 4c3b d037 393d e086 ae3b ec00 8d3c
00000320: e43c 85bd fd1b ed3c 5915 2b3d 9a61 d63b
00000330: 5bc8 403d 7cca 2d3b 2bea 56bd 709b 06bd
00000340: e0af d6bc 1598 07bb 6869 29bd 0631 92bd
00000350: ca01 13bd 4a61 373d 49a6 c9bc 91fb a23c
00000360: ee30 8fbd b7a7 343d c147 7abd b4f1 0cbd
00000370: a0c0 bd3b ab9b 2bbd 997a c73c e6a1 c9bc
00000380: 1dcf 96bc 5420 75bd d8d3 d03b 5416 11bd
00000390: da7f 3abb 1c94 7bbc 399b 2ebd adfc bfbc
000003a0: 063b 0fbd dd21 b63c 4471 77bd 6785 7d3c
000003b0: d41a 293d 539a a7bc 09ed 59bd d2d3 97bd
000003c0: 5fd8 febc eb12 a4bc cc99 5bbd 80e4 6ebc
000003d0: 774e a6bc a9f6 6abb 5d5e 853c 0039 f9bc
000003e0: 65e7 63bc 24c3 233d 0a9d 2abd d538 00bc
000003f0: 9d50 08bd bca7 76bc eb63 e6bb 29ce acbc

fc3.bias f4 [256]
-0.027046315 -0.04070241 0.060081463 -0.0033948694 0.024740893 -0.010159604 -0.069321536 0.020509824
-0.04362771 -0.030120907 -0.015679384 0.046986397 -0.05136116 0.052746665 -0.05473241 0.034262475
0.024798179 0.013557315 0.03386811 0.014292156 -0.03615077 -0.025262998 0.03749715 -0.0179041
-0.04955802 -0.0024411257 0.02012636 0.02151051 0.003787149 -0.04186385 -0.008373879 0.042922553
0.037076667 0.03328033 0.058183815 0.033707242 0.008864248 0.039480537 -0.07084507 0.00012386957
-0.018355675 -0.020843443 -0.08775287 -0.007096235 -0.043062624 0.048868574 0.04153877 -0.038249433
0.010526692 -0.03184284 -0.041694567 -0.034815103 -0.07858192 -0.018170062 0.046745405 0.014857095
-0.06670511 0.004817436 0.034839552 -0.027207721 0.02226854 -0.055756122 0.04159606 -0.037174243
-0.0134865455 -0.043184534 -0.05340106 -0.057699356 -0.00024489572 -0.07853529 -0.03583886 -0.049251884
-0.009930663 -0.050379228 -0.045025546 0.0008827111 -0.055548113 -0.02348397 0.00090022775 0.06810727
-0.028693214 0.02965306 -0.007051049 -0.016788337 -0.013922693 -0.042539835 0.0011542344 -0.03276049
-0.014408544 -0.041956004 0.046437413 0.00502914 0.043558083 -0.013231142 0.03558492 -0.035683636
-0.04323442 0.05744395 -0.026668547 -0.022597505 -0.06901374 0.018622538 0.013281969 -0.051720794
-0.042632114 -0.04256148 0.011757854 0.026810054 -0.05971366 0.0007194052 -0.01704156 0.065006256
-2.5248755e-05 0.009609332 0.03438203 0.020809205 -0.027405342 0.006108084 -0.0031519602 -0.06189236
-0.06625529 -0.057908244 -0.032923408 0.01911129 -0.01182722 -0.06788563 0.07743861 0.02706858
-0.04875814 0.011224537 0.061703067 0.017514456 0.059458617 0.06743031 -0.035484254 0.0553264
0.039148014 -0.06364074 -0.0079665175 -0.040360693 0.06870509 -0.0014459767 -0.020636996 -0.03724233
0.008244216 0.063461386 -0.031953927 -0.060110144 0.020238344 0.043207765 -0.0089921495 -0.049177706
-0.04103831 0.06898127 0.008626684 0.055923805 -0.00807151 -0.025757572 0.049224604 0.03966263
0.005918444 -0.06137074 0.07635846 -0.054054756 0.07054139 -0.018031955 0.020508742 -0.070080735
-0.025718076 -0.07280359 -0.05600278 -0.05566875 0.048251435 -0.011795874 0.033728126 -0.06370659
-0.07089515 0.02974242 -0.06743621 -0.006210671 0.048267256 0.058456108 -0.056060333 0.027618978
0.026040789 0.046658166 0.020213284 0.022056984 -0.017033577 -0.031830918 -0.020352025 0.013044089
0.03307826 -0.03262209 -0.02856255 0.018906439 -0.058929816 -0.06861788 0.0090624215 0.0057363724
0.0023779199 -0.06287697 -0.021846222 -0.010769999 -0.012795789 -0.058206208 -0.0051450217 -0.08258459
0.07604682 -0.020149034 0.030615328 0.031135779 -0.032749068 -0.05225391 -0.03678765 0.021106143
0.005149733 0.038432073 -0.01255921 -0.021136794 0.006189456 -0.055997323 -0.08020314 -0.025039403
-0.024065413 0.0482275 -0.03936852 0.042399503 0.015995605 0.0008642525 -0.08259039 -0.02346057
-0.0151733775 0.0039416556 -0.038448576 0.016003005 0.041255336 0.0021800739 0.038721908 -0.04651154
-0.008736585 -0.013908466 0.034598526 -0.045586683 -0.0013757441 -0.00092126447 -0.038913123 -0.019061312
-0.023050563 0.01687197 0.042668603 -0.05867806 -0.021708937 0.076399826 -0.01981001 -0.074730195
00000000: 3c90 ddbc 92b7 26bd fb17 763d 757c 5ebb
00000010: 6aad ca3c 7874 26bc 73f8 8dbd 3804 a83c
00000020: f8b2 32bd 1fc0 f6bc 0d72 80bc cf74 403d
00000030: 1460 52bd e30c 583d 172f 60bd cf56 0c3d
00000040: 8d25 cb3c 801f 5e3c 4ab9 0a3d a629 6a3c
00000050: d412 14bd 59f4 cebc 9d96 193d 9eab 92bc
00000060: 5afd 4abd 4bfb 1fbb 09e0 a43c cf36 b03c
00000070: d131 783b 6e79 2bbd 9832 09bc 8fcf 2f3d
00000080: b4dd 173d f550 083d 2752 6e3d 9b10 0a3d
00000090: 5a3b 113c 58b6 213d 3817 91bd fce2 0139
000000a0: a45e 96bc debf aabc c7b7 b3bd 8987 e8bb
000000b0: 6f62 30bd 6a2a 483d 8f24 2a3d 70ab 1cbd
000000c0: 2578 2c3c a36d 02bd ecc7 2abd 489a 0ebd
000000d0: 8fef a0bd 62d9 94bc 1c78 3f3d 2c6b 733c
000000e0: b09c 88bd 95db 9d3b ebb3 0e3d bae2 debc
000000f0: 836c b63c 8860 64bd a160 2a3d 0544 18bd
00000100: acf6 5cbc 44e2 30bd 12bb 5abd 2956 6cbd
00000110: 5965 80b9 1cd7 a0bd c5cb 12bd 58bc 49bd
00000120: 38b4 22bc 735a 4ebd b56c 38bd bd65 673a
00000130: 6b86 63bd 7461 c0bc 43fd 6b3a d37b 8b3d
00000140: 080e ebbc f9ea f23c 7c0c e7bb b287 89bc
00000150: 021c 64bc 403e 2ebd ae49 973a dd2f 06bd
00000160: d011 6cbc 0fda 2bbd 2835 3e3d 7ccb a43b
00000170: f669 323d 6fc7 58bc 7ec1 113d 0129 12bd
00000180: 9316 31bd 594a 6b3d ff77 dabc 671e b9bc
00000190: 1357 8dbd 4b8e 983c 9e9c 593c 2fd9 53bd
000001a0: 039f 2ebd f254 2ebd 04a4 403c c2a0 db3c
000001b0: 5096 74bd 7796 3c3a be9a 8bbc 0022 853d
000001c0: 4acd d3b7 7670 1d3c 2cd4 0c3d 1178 aa3c
000001d0: 2b81 e0bc 5326 c83b 1e91 4ebb d882 7dbd
000001e0: dab0 87bd 3231 6dbd b2da 06bd 488f 9c3c
000001f0: f5c6 41bc 9f07 8bbd 2298 9e3d edbe dd3c
00000200: 9eb6 47bd 1fe7 373c 5bbc 7c3d 7a7a 8f3c
00000210: e18a 733d e718 8a3d f057 11bd ef9d 623d
00000220: ab59 203d 1456 82bd ff85 02bc 4151 25bd
00000230: 41b5 8c3d ed86 bdba eb0e a9bc 6a8b 18bd
00000240: c012 073c 0bf8 813d 1fe2 02bd 0e36 76bd
00000250: e2ca a53c a0fa 303d cf53 13bc 906e 49bd
00000260: c917 28bd 0d46 8d3d ef56 0d3c 5c10 653d
00000270: 5e3e 04bc 8b01 d3bc bd9f 493d 4875 223d
00000280: 82ef c13b e35f 7bbd d361 9c3d 8568 5dbd
00000290: 0178 903d c0b7 93bc f301 a83c 7d86 8fbd
000002a0: b7ae d2bc 0c1a 95bd 2c63 65bd ea04 64bd
000002b0: 4ca3 453d 7b43 41bc 8126 0a3d 9a78 82bd
000002c0: 7a31 91bd 60a6 f33c ff1b 8abd e282 cbbb
000002d0: e3b3 453d ac6f 6f3d 859f 65bd 3241 e23c
000002e0: 7e53 d53c a21c 3f3d 5496 a53c d9b0 b43c
000002f0: 008a 8bbc 2361 02bd 4ab9 a6bc e0b6 553c
00000300: 127d 073d be9e 05bd 02fc e9bc ade1 9a3c
00000310: 6460 71bd 8887 8cbd 8d7a 143c 2ef8 bb3b
00000320: e0d6 1b3b a4c5 80bd d9f6 b2bc a674 30bc
00000330: 6ea5 51bc a269 6ebd 9297 a8bb 1c22 a9bd
00000340: 6fbe 9b3d 960f a5bc ffcc fa3c 7610 ff3c
00000350: e323 06bd 3208 56bd a6ae 16bd cae6 ac3c
00000360: 17bf a83b f36a 1d3d 25c5 4dbc 1227 adbc
00000370: ecd0 ca3b 735d 65bd 8b41 a4bd 6f1f cdbc
00000380: d424 c5bc 338a 453d e340 21bd 1aab 2d3d
00000390: 3709 833c 018f 623a 2725 a9bd 6230 c0bc
000003a0: c299 78bc 0129 813b 417c 1dbd bc18 833c
000003b0: 5bfb 283d 92df 0e3b dd9a 1e3d e282 3ebd
000003c0: e523 0fbc 56e0 63bc 2fb7 0d3d 1ab9 3abd
000003d0: 5052 b4ba 0381 71ba 5e63 1fbd 7826 9cbc
000003e0: 89d4 bcbc 1637 8a3c 46c5 2e3d 6858 70bd
000003f0: f1d6 b1bc 8377 9c3d 9a48 a2bc 250c 99bd

fc4.weight f4 [2, 256]
0.039869342 0.0011566195 -0.0043851077 0.031572513 -0.0073088226 0.04921561 -0.052944526 0.027770763
0.047000237 0.03000974 0.05005892 -0.050765272 0.054420687 0.020005805 0.014784213 -0.0053809197
0.047237925 -0.042106327 0.05877794 0.06950409 -0.11714498 0.05274726 0.010112841 -0.09587606
0.0025516117 -0.023364637 0.031244582 0.044846646 -0.04406428 0.0037910864 0.047036868 0.04316602
-0.042152427 0.0028520476 -0.028451063 -0.04060406 0.03642841 -0.15647054 0.037949473 -0.092880346
-0.36547512 -0.0918377 0.074294366 -0.06746324 -0.10671821 -0.14431198 0.031560946 0.058962602
0.01803926 0.00250861 -0.010216475 -0.0052943537 0.057340704 -0.11989636 0.018875347 0.004119157
0.063085645 -0.0024401443 -0.10489384 -0.16538991 -0.03096931 -0.0060497634 -0.088551894 0.055696476
-0.0747139 0.03874068 0.009054341 0.009539371 -0.04546302 0.016553067 0.021181172 0.008433123
0.034964018 0.06258798 -0.028818851 -0.09810667 0.07664231 -0.026658561 0.046844523 -0.03077586
-0.034458328 0.018335799 -0.055128157 0.053501975 0.0049200305 0.0539978 -0.00281839 -0.05864814
0.047392838 0.020293668 -0.045728188 0.03925048 -0.045089804 0.01929948 0.042525657 0.034987465
0.03638484 -0.15558313 0.022492226 -0.112985134 0.022398576 0.05234143 0.044826016 -0.028602479
0.019404696 -0.23727454 0.04530525 -0.1007111 -0.06428041 0.051405977 -0.10657677 0.030764004
-0.26173317 -0.12106899 -0.07775972 -0.07020413 0.048260976 0.03208242 0.059859607 0.0030374615
0.04229883 0.062457666 -0.010285286 0.045066334 -0.042425137 0.05059877 -0.06847321 0.066010274
0.044303063 0.0024355913 -0.049963284 0.02622913 -0.118927866 0.03227704 -0.019445619 -0.15391669
0.055069737 0.018189961 0.0031659205 0.009854293 0.0031974418 0.031919844 0.019960757 0.044874813
-0.09167514 -0.11616412 -0.008614529 0.045150585 -0.016777746 0.05100102 -0.05976499 0.04567041
0.01294423 -0.015242653 -0.005625323 0.021138785 0.06192071 0.053400286 -0.06824372 0.028131658
-0.07864801 0.03356506 -0.08863228 -0.0805088 -0.06902476 -0.45025086 0.0070237992 0.065674864
-0.080455184 0.007749458 0.0038748537 0.055907 0.027374947 0.06791395 -0.002179086 -0.011957242
0.041743517 -0.044166956 0.10314344 -0.035831552 -0.058380194 -0.18378758 -0.035140935 0.011483007
-0.066260226 0.037376024 -0.5175593 0.030036643 -0.01557239 -0.07809243 -0.272285 0.07019863
-0.0033462797 0.030580344 0.006771169 -0.080589086 0.01488065 0.09089005 0.018749919 0.030816069
0.05113162 0.031110102 -0.094260484 0.060100008 0.026384812 0.04085754 0.0060093435 0.048092455
-0.062162146 -0.057103187 -0.116659895 -0.07671568 0.00092271785 0.035830215 -0.068491876 0.008782082
0.042805776 -0.054470394 -0.03197684 0.05208054 -0.006607862 0.027593747 0.07491239 0.041094404
0.058641568 -0.075012356 0.005711897 0.017829183 -0.01782057 0.01987865 0.09697131 0.051526543
-0.020299371 -0.013593835 0.016068194 -0.070905104 0.029104536 0.027820248 -0.07618227 0.003794577
0.04794787 -0.0070743305 0.058755696 0.11341705 0.014655628 0.016910017 -0.07016619 -0.01528196
0.009749554 -0.26097214 0.016463775 -0.0026083072 -0.023908678 0.039569907 -0.018181656 0.06751685
00000000: 094e 233d b699 973a f3b0 8fbb 2e52 013d
00000010: d97e efbb 4f96 493d 5cdc 58bd 837f e33c
00000020: 5283 403d fcd6 f53c 950a 4d3d 3fef 4fbd
00000030: 3ae8 5e3d 37e3 a33c 7c39 723c 6d52 b0bb
00000040: 8e7c 413d af77 2cbd 23c1 703d 2958 8e3d
00000050: b5e9 efbd 830d 583d 54b0 253c ab5a c4bd
00000060: f138 273b 3267 bfbc a3f4 ff3c 1eb1 373d
00000070: bf7c 34bd e073 783b bba9 403d dace 303d
00000080: 06a8 2cbd 6be9 3a3b 3412 e9bc 7150 26bd
00000090: f535 153d d039 20be e870 1b3d 0d38 bebd
000000a0: 8e1f bbbe 6715 bcbd a527 983d 2b2a 8abd
000000b0: 148f dabd 85c6 13be 0d46 013d c582 713d
000000c0: 12c7 933c 7e67 243b 0163 27bc 427c adbb
000000d0: 16de 6a3d 398c f5bd 79a0 9a3c fef9 863b
000000e0: 0c33 813d d4ea 1fbb 95d2 d6bd f95b 29be
000000f0: 5ab3 fdbc 183d c6bb b25a b5bd fd21 643d
00000100: 9a03 99bd 8cae 1e3d a958 143c 064b 1c3c
00000110: 6f37 3abd 4c9a 873c 2384 ad3c 152b 0a3c
00000120: 6e36 0f3d 202e 803d 8315 ecbc 26ec c8bd
00000130: a5f6 9c3d 0e63 dabc 0be0 3f3d a81d fcbc
00000140: 2d24 0dbd f534 963c 10ce 61bd e324 5b3d
00000150: 3538 a13b cc2c 5d3d bdb4 38bb 0839 70bd
00000160: fe1e 423d e83e a63c 7b4d 3bbd 1cc5 203d
00000170: 16b0 38bd f119 9e3c 622f 2e3d 044f 0f3d
00000180: 4508 153d 2f51 1fbe 9e41 b83c c064 e7bd
00000190: 387d b73c f863 563d 7c9b 373d bf4f eabc
000001a0: 99f6 9e3c 19f8 72be ff91 393d 9f41 cebd
000001b0: 73a5 83bd 138f 523d ec44 dabd cb04 fc3c
000001c0: e401 86be 05f3 f7bd 7d40 9fbd 2fc7 8fbd
000001d0: 4dad 453d db68 033d 592f 753d 2610 473b
000001e0: 8a41 2d3d 9cd3 7f3d 9e83 28bc 7a97 383d
000001f0: fbc5 2dbd a840 4f3d af3b 8cbd 6530 873d
00000200: 2177 353d 719e 1f3b 4da6 4cbd 79de d63c
00000210: 7490 f3bd ee34 043d 6b4c 9fbc 569c 1dbe
00000220: ce90 613d 1d03 953c 557b 4f3b e773 213c
00000230: 2c8c 513b 62be 023d be84 a33c a7ce 373d
00000240: 2dc0 bbbd 74e7 edbd f423 0dbc d2ef 383d
00000250: 7c71 89bc 72e6 503d 22cc 74bd e510 3b3d
00000260: 0914 543c 52bc 79bc a154 b8bb 3f2b ad3c
00000270: 92a0 7d3d 42ba 5a3d 5dc3 8bbd 5d74 e63c
00000280: 3512 a1bd 847b 093d d784 b5bd cce1 a4bd
00000290: da5c 8dbd 4887 e6be e627 e63b 8b80 863d
000002a0: b0c5 a4bd 2aef fd3b 42f1 7d3b bdfe 643d
000002b0: 6d41 e03c 7816 8b3d ffce 0ebb 4fe8 43bc
000002c0: 40fb 2a3d 69e8 34bd de3c d33d 1bc4 12bd
000002d0: 1220 6fbd d032 3cbe f1ef 0fbd 3923 3c3c
000002e0: 71b3 87bd 9a17 193d c47e 04bf 680f f63c
000002f0: 5623 7fbc edee 9fbd f168 8bbe 4dc4 8f3d
00000300: 424d 5bbb a183 fa3c afe0 dd3b e40b a5bd
00000310: f8cd 733c 9024 ba3d 6e99 993c fb71 fc3c
00000320: 646f 513d 9dda fe3c a40b c1bd 6d2b 763d
00000330: f624 d83c 3c5a 273d 07ea c43b 98fc 443d
00000340: bc9d 7ebd 08e5 69bd 62eb eebd 1c1d 9dbd
00000350: 8ce2 713a b4c2 123d 7845 8cbd b9e2 0f3c
00000360: 1c55 2f3d 591c 5fbd 26fa 02bd 6852 553d
00000370: c486 d8bb 480c e23c ab6b 993d 9b52 283d
00000380: 2432 703d 14a0 99bd dd2a bb3b 820e 923c
00000390: 72fc 91bc 8dd8 a23c e598 c63d 7f0d 533d
000003a0: de4a a6bc adb8 5ebc 72a1 833c b236 91bd
000003b0: a36c ee3c 4ae7 e33c 7305 9cbd 70ae 783b
000003c0: fc64 443d c9cf e7bb d0a9 703d 3347 e83d
000003d0: 291e 703c e086 8a3c 4bb3 8fbd 3061 7abc
000003e0: 98bc 1f3c 249e 85be 0adf 863c 22f0 2abb
000003f0: 22dc c3bc 0e14 223d b2f1 94bc 4646 8a3d

fc4.bias f4 [2]
-0.036276232 0.004934243
00000000: 6396 14bd 6eaf a13b
